workspace-rich/checkpoints_backup/230830/checkpoint_98.45.pth (torch, 64671 bytes, 6 tensors)

weight f4 [4, 1, 3, 3]
0	0x3effe559	0.49979666
1	0x3e231673	0.15926532
2	0x3fa67e7f	1.3007354
3	0x4010c194	2.261815
4	0x401aac63	2.4167717
5	0x400b0099	2.1719115
6	0x3fb635ab	1.4235128
7	0x3ff1f316	1.8902309
8	0x4004cf29	2.075144
9	0x3e111b27	0.14170514
10	0xbf46d9e3	-0.7767622
11	0xbf7f64c3	-0.99763125
12	0xbf390850	-0.7227831
13	0xbf178f05	-0.59202605
14	0xbdd5ad87	-0.10433488
15	0x3eec9ca9	0.46213272
16	0x3f83bfb7	1.0292882
17	0x3fd0c2df	1.630947
18	0xbedbd7a1	-0.4293795
19	0xbf93681f	-1.151615
20	0xbf99bbe0	-1.201046
21	0x3fafd5f4	1.3737168
22	0x3f2a7704	0.66587853
23	0xbf391154	-0.72292066
24	0x3f928426	1.1446579
25	0x3f103505	0.563309
26	0x3f0bbedd	0.5458811
27	0xbd8a421b	-0.0675089
28	0xbe4343db	-0.19068854
29	0xbdf754d0	-0.120767236
30	0xbdbb4086	-0.09143166
31	0xbe0693a3	-0.13142256
32	0x3e90a8a2	0.28253657
33	0x3e61fcc8	0.22069085
34	0xbe816848	-0.25274873
35	0xbd911f56	-0.07086055

bias f4 [4]
0	0xc00e88d6	-2.2271018
1	0xbc6f3a4e	-0.014601303
2	0xbe755af1	-0.23960473
3	0xbea76c32	-0.32699734

weight f4 [8, 4, 3, 3]
0	0xbe80a044	-0.25122273
1	0xbedfa869	-0.43683174
2	0xbe235c0f	-0.15953086
3	0x3e6629d7	0.22476898
4	0xbe87ef32	-0.2654968
5	0xbe3414a6	-0.17586002
6	0x3f115878	0.5677562
7	0x3ec95d4a	0.39328986
8	0x3e93ccff	0.28867337
9	0x3e975b23	0.2956172
10	0x3e2c3c32	0.16819838
11	0x3df79445	0.12088827
12	0xbf755551	-0.9583331
13	0xbed6a4da	-0.41922647
14	0xbf8a7ba9	-1.0818988
15	0xbfa291ab	-1.2700704
16	0xbf341d69	-0.70357376
17	0xbf71b86a	-0.9442202
18	0x3f1e768f	0.61899656
19	0xbef7d5e4	-0.48405373
20	0xbe37f8f9	-0.1796607
21	0x3f1d76d0	0.6150942
22	0x3f97c6c8	1.1857538
23	0x3e864f29	0.2623227
24	0xbe2e78bc	-0.17038244
25	0x4006e846	2.1079268
26	0x3fcc4b2d	1.5960442
27	0x3d61d70b	0.05513672
28	0x3d0dc666	0.034613036
29	0xbdbc8ea8	-0.09206897
30	0x3e1eb64e	0.15499231
31	0x3e1640d8	0.14673173
32	0x3da7e74b	0.081984125
33	0xbe268ac6	-0.16263875
34	0xbd66f206	-0.056383155
35	0xbd9855e6	-0.07438259
36	0x3ee5c507	0.44876882
37	0x3f278ee7	0.65452427
38	0x3e306020	0.17224169
39	0x3efc74b5	0.4930779
40	0x3d3a2514	0.045445517
41	0xbf46dedd	-0.7768381
42	0x3e4c98b8	0.19980133
43	0xbf05d519	-0.52278286
44	0xbf016cae	-0.5055646
45	0x40692ffc	3.6435537
46	0x3ee88081	0.4541054
47	0xbff2d1dd	-1.8970295
48	0xc0017d65	-2.0232785
49	0xc062e600	-3.545288
50	0xbef7d669	-0.4840577
51	0xbf40da51	-0.75333124
52	0x3fa731c1	1.3062059
53	0x402711dd	2.6104653
54	0xbd2fe6b0	-0.04294461
55	0xbe3b3e65	-0.1828552
56	0xbd360ea9	-0.044447575
57	0xbff58fcb	-1.9184507
58	0xc044f154	-3.0772295
59	0xc00a7da6	-2.163919
60	0xbfeb60e2	-1.8388941
61	0xc05467a0	-3.3188248
62	0xbfc0f647	-1.5075158
63	0x3e0b65a2	0.13612989
64	0xbdfe7233	-0.124241255
65	0xbdbacf8b	-0.09121617
66	0x3d5a80d6	0.053345524
67	0xbc369fd6	-0.011146506
68	0xbc9f8316	-0.019471686
69	0x3e1bd69e	0.15218589
70	0x3ca5b2c0	0.020226836
71	0x3ddcc930	0.10780561
72	0x3f2bfe84	0.67185235
73	0x3e170cf4	0.14751035
74	0xbf0a44ff	-0.5401153
75	0x3eef445f	0.4673185
76	0xbece717f	-0.40320966
77	0xbee7e9ff	-0.45295712
78	0x3f39382b	0.7235133
79	0xbf57f4c9	-0.8435789
80	0xbea9c8bd	-0.33160964
81	0x3f9693fe	1.1763914
82	0xbe9a5083	-0.3013955
83	0x3f46bf3d	0.77635556
84	0x3e2e59fc	0.17026514
85	0xc0274d0a	-2.614077
86	0x3f7b04c7	0.98054165
87	0xbfbae702	-1.4601748
88	0xbfa69429	-1.3013965
89	0x3f5d1b78	0.8637004
90	0xbe4baa80	-0.1988926
91	0x3e4eb60c	0.20186633
92	0x3ff2e9f6	1.8977649
93	0x3ef220c3	0.4729062
94	0x3f39ffd9	0.7265602
95	0x3f80f3d8	1.0074415
96	0x3f05eb9c	0.52312636
97	0x3ed5bc4e	0.41745228
98	0xbeb63df8	-0.35594153
99	0x3cc5a30b	0.024125597
100	0x3e224830	0.1584785
101	0x3e025d46	0.12730893
102	0xbda1e538	-0.07905048
103	0x3e094f54	0.13409168
104	0xbc078bc0	-0.008273065
105	0x3e105a57	0.14096962
106	0x3d9dcac0	0.07704687
107	0xbd970b3b	-0.07375189
108	0x3d642ffd	0.055709828
109	0x3f1e572d	0.6185177
110	0x3e01ba13	0.12668638
111	0xbf039c76	-0.51410615
112	0xbe200234	-0.1562584
113	0x3bb8ff1f	0.005645647
114	0xbe0463f5	-0.12928756
115	0xbeaf34ae	-0.3421988
116	0xbe85441b	-0.26028523
117	0x402e52f1	2.7238123
118	0x40799a12	3.9000287
119	0x402c838f	2.6955297
120	0xbfa1e8e1	-1.2649194
121	0xbfb58a8e	-1.4182909
122	0x3f5c3ca1	0.8603001
123	0x4011f931	2.2808344
124	0x4031fe71	2.7811549
125	0x3feb0878	1.836196
126	0x3f75c88d	0.9600914
127	0x3fe79a53	1.8093971
128	0x3fcc36db	1.595424
129	0xbe7abae7	-0.2448536
130	0xbfbee15c	-1.4912524
131	0xbe88a889	-0.26691082
132	0x3e999a02	0.3000031
133	0x3e774cef	0.24150442
134	0xbf2ba3bd	-0.6704672
135	0xbd890a43	-0.066914104
136	0x3e03595b	0.12827055
137	0xbe07c8c6	-0.13260183
138	0x3df9deb3	0.1220068
139	0xbcaf6f0b	-0.021415254
140	0xbe17ce0c	-0.14824694
141	0xbd4104c0	-0.04712367
142	0xbe222374	-0.15833837
143	0x3ce1cde0	0.02756399
144	0xbed3253e	-0.4123935
145	0x3bdf39a1	0.00681229
146	0x3c11c3f3	0.008896816
147	0x3e1f5db0	0.15563083
148	0x3f15cdb3	0.58517
149	0x3f520875	0.82044154
150	0xbe143d98	-0.14476621
151	0xbf15b108	-0.58473253
152	0xbea725a4	-0.32645905
153	0xbf0b8be8	-0.54510355
154	0x3f3b626d	0.7319706
155	0x3ffccb81	1.9749604
156	0xbe9d8cf3	-0.30771598
157	0x3f65ef95	0.898187
158	0x3f4c76dc	0.79868865
159	0xbe12caf8	-0.14335239
160	0xbfcdcb7b	-1.6077722
161	0xc0226726	-2.5375457
162	0xc0141691	-2.3138773
163	0xbf4badc7	-0.7956204
164	0x3de0536f	0.10953414
165	0x3f90dcf5	1.1317431
166	0x40234fdf	2.55175
167	0x4045bdad	3.089702
168	0xbf920346	-1.1407249
169	0xc048cd22	-3.1375203
170	0xbfef2c57	-1.8685406
171	0xbd83a176	-0.064272806
172	0xbddaf7f8	-0.106918275
173	0xbd6b0000	-0.057373047
174	0x3c975740	0.018474221
175	0xbd90cf98	-0.07070845
176	0x3d2823cb	0.04104976
177	0x3cc49cb6	0.024000507
178	0x3d8036d3	0.06260457
179	0x3de54e50	0.111965775
180	0xbe706f5b	-0.23479979
181	0xbf2b1a5c	-0.66837096
182	0xbf2d8744	-0.67784524
183	0xbdf270f5	-0.11837951
184	0xbe8cf8c5	-0.27533546
185	0xbf3859a9	-0.7201181
186	0x3f17a8b7	0.59241813
187	0x3f4bee3d	0.796604
188	0x3eeef3c1	0.46670344
189	0xbecc3d47	-0.398905
190	0xbe1dfd0a	-0.15428558
191	0xbede9306	-0.43471545
192	0x3de06d6a	0.10958369
193	0x3eadbb06	0.3393175
194	0x3f8199b6	1.0125034
195	0x400c7a16	2.1949515
196	0x400f421a	2.2384095
197	0x3eaaacc2	0.3333493
198	0x3f0c5f8a	0.5483328
199	0xbf40c6a3	-0.75303096
200	0xbdbf0fe6	-0.09329204
201	0xbec487ec	-0.3838495
202	0xbed6b912	-0.41938072
203	0xbd854e39	-0.065090604
204	0x3fb45c54	1.4090676
205	0x3fa697dc	1.3015094
206	0x3f8e08ce	1.1096437
207	0x3d92d980	0.07170391
208	0xbcdb928b	-0.026803276
209	0x3e279cff	0.16368483
210	0xbda489f3	-0.08034124
211	0xbdeb052e	-0.11475597
212	0xbdf9d03e	-0.12197922
213	0xbe1de360	-0.15418768
214	0xbdd19c36	-0.10234873
215	0x3d9942cb	0.07483443
216	0xbf274b98	-0.6534972
217	0x3e0f056b	0.1396691
218	0x3ee7f374	0.45302927
219	0xbf3c0156	-0.7343954
220	0xbebacba0	-0.3648348
221	0x3f6e485e	0.93079174
222	0x3e8640db	0.26221356
223	0xbf13b301	-0.57695013
224	0xbc637c8e	-0.013884677
225	0xbfd91613	-1.6959862
226	0xbfa4c8bf	-1.2873763
227	0x3f565494	0.83722806
228	0x3f3d5568	0.73958445
229	0xc045093c	-3.0786886
230	0xc05303b0	-3.2971
231	0x4031c56b	2.7776744
232	0x400f0feb	2.2353466
233	0x3f01113f	0.5041694
234	0xc017a0bf	-2.3691862
235	0xbf0c36ec	-0.54771304
236	0x3f058cbf	0.52167886
237	0xbe1af692	-0.15133122
238	0xbfa5ef77	-1.2963704
239	0xbf995862	-1.1980097
240	0x3fb97608	1.4489145
241	0x3fd26323	1.6436504
242	0x3de08fd5	0.10964934
243	0xbde31a8b	-0.11089047
244	0xbd9f0a4b	-0.07765635
245	0x3c0f6c16	0.008753797
246	0x3e10bc24	0.1413427
247	0xbcc6daeb	-0.02427431
248	0x3e19d2ff	0.15021895
249	0xbe1e5eea	-0.15465894
250	0x3d463f86	0.048400424
251	0x3e1e207f	0.15442084
252	0xbec40819	-0.38287428
253	0xbd4ad588	-0.049520046
254	0x3f14befa	0.5810391
255	0x3e22a76d	0.1588418

bias f4 [8]
0	0xbfeda326	-1.8565414
1	0x3fb58fdc	1.4184527
2	0x3e38407f	0.17993353
3	0xbf480a22	-0.7814046
4	0xbf897317	-1.0738248
5	0x3eebeeb8	0.46080565
6	0x40088735	2.1332524
7	0x40094abb	2.1451862

weight f4 [29, 512]
0	0x3e826a1d	0.25471583
1	0x3e26a516	0.16273913
2	0xbccfb0c8	-0.02535285
3	0xbed5b854	-0.41742194
4	0xbeeb3317	-0.45937416
5	0xbf0f5ef9	-0.5600429
6	0xbe1387fd	-0.14407344
7	0xbede8e94	-0.43468153
8	0xbe17db94	-0.14829856
9	0x3ef495b9	0.4777048
10	0x3bcfc6a7	0.00634082
11	0xbd70ae7e	-0.05876016
12	0xbec280e3	-0.37988958
13	0xbf745997	-0.95449203
14	0xbec1e817	-0.37872383
15	0xbe89b3ef	-0.2689509
16	0xbf148846	-0.58020437
17	0x3f0f7147	0.5603222
18	0x3f1d5856	0.61462915
19	0x3e25d8b5	0.16195948
20	0xbec1cdc0	-0.37852287
21	0x3f4a9e03	0.79147357
22	0xbf65152e	-0.8948544
23	0xbe0855c7	-0.13313971
24	0x3e52d593	0.20589285
25	0x3f0c3246	0.5476421
26	0xbe78eec5	-0.24309833
27	0x3edc9dff	0.4308929
28	0x3ec1ffde	0.37890524
29	0xbea11182	-0.3145867
30	0xbebdba7c	-0.3705634
31	0xbe1ea5a4	-0.15492874
32	0x3e63258f	0.22182296
33	0x3f08502f	0.5324735
34	0x3ea4ef37	0.32213756
35	0x3e97def6	0.29662293
36	0x3df95ce3	0.1217592
37	0x3e91817b	0.28419098
38	0x3edb2908	0.42804742
39	0xbd561ef1	-0.0522756
40	0x3f20f357	0.6287131
41	0x3eb625e9	0.35575798
42	0x3e92f782	0.28704458
43	0xbe0eb739	-0.13937081
44	0x3e4a2ae3	0.19742922
45	0xbd59b7d1	-0.053153817
46	0x3e1ed95d	0.15512605
47	0x3ee44086	0.44580477
48	0x3e014d5f	0.12627171
49	0x3c45179c	0.012029555
50	0xbec7e4e7	-0.39041826
51	0xbf595842	-0.84900296
52	0xbe5f423d	-0.21802612
53	0x3efc4570	0.49271727
54	0xbf31a11e	-0.6938647
55	0x3e40ff17	0.18847309
56	0xbff26f2f	-1.894018
57	0xbe476138	-0.1947068
58	0x3ec08693	0.37602672
59	0xbefb6adf	-0.49104974
60	0xbc31840d	-0.010834706
61	0x3e72a808	0.23696911
62	0xbf804f23	-1.0024151
63	0x3eb71d94	0.35764754
64	0xc1a50427	-20.627028
65	0xc0a87269	-5.263966
66	0x3ee6528b	0.4498485
67	0x3f3a55b3	0.72787017
68	0x3e7fa9cd	0.24967118
69	0x3eafda75	0.34346357
70	0x3edec0c1	0.43506435
71	0x3e7fb4fa	0.24971381
72	0xbdcbda48	-0.09953743
73	0x3f17b8dc	0.5926645
74	0x3ea53833	0.3226944
75	0x3ec15e67	0.37767336
76	0x3e99d2d6	0.30043668
77	0x3ee06f6d	0.4383501
78	0x3f838808	1.0275888
79	0xbfc86d0f	-1.5658282
80	0x3fd4bb6c	1.6619697
81	0x3f3322e9	0.69975144
82	0x3edc28df	0.42999932
83	0x3f61dfdf	0.88232225
84	0x3f340768	0.703238
85	0x3f37fe34	0.7187226
86	0x3fd76bf1	1.6829816
87	0x3d864dbb	0.06557795
88	0x3f325635	0.6966279
89	0x3f4b8f15	0.795152
90	0x3e46c129	0.19409622
91	0x3eecb57a	0.46232206
92	0x3eb78555	0.35843912
93	0x3f37725c	0.71658874
94	0x3f6a3b32	0.91496575
95	0xbfb79a3f	-1.4343947
96	0x3c593fee	0.013259871
97	0x3e98e89b	0.29864964
98	0xbd8f312b	-0.069918
99	0x3d698ba0	0.057017922
100	0x3e8f9716	0.28044957
101	0xbd9b5775	-0.075850405
102	0x3e1dc6a7	0.15407811
103	0x3ed8edb9	0.42368868
104	0xbe9874f7	-0.29776737
105	0xbea2eac0	-0.31819725
106	0x3e4fe7bc	0.20303243
107	0xbe27d871	-0.1639116
108	0x3f1e27b8	0.61779356
109	0x3eb888e1	0.3604193
110	0x3f5e0fa5	0.8674262
111	0x3dc28de1	0.094997175
112	0x3fa6f811	1.3044454
113	0x3e766d6d	0.2406518
114	0x3d2f9c6d	0.04287379
115	0xbef058cd	-0.4694275
116	0xbe01464d	-0.12624474
117	0x3e11591a	0.14194146
118	0xbdb8163a	-0.089886144
119	0x3d059ae2	0.03261841
120	0x3de71fe1	0.11285377
121	0xbe51113b	-0.20416729
122	0xbe95b939	-0.29242876
123	0xbe030ca3	-0.1279779
124	0x3e0d3bb0	0.137923
125	0x3d5b0fa8	0.053481728
126	0xbe256f22	-0.16155675
127	0x3e466ac4	0.19376665
128	0xc07ddd4c	-3.966632
129	0xbefe8957	-0.49714157
130	0xbee6229b	-0.44948277
131	0xbd99e1d8	-0.075137794
132	0xbe608930	-0.21927333
133	0xbd8344f3	-0.064096354
134	0xbd052466	-0.032505415
135	0xbefefdcf	-0.49803016
136	0x3fd244d2	1.6427252
137	0x3dece189	0.11566455
138	0x3bc31d3c	0.0059544127
139	0xbdd2c183	-0.10290816
140	0x3e884bc3	0.26620302
141	0xbf336faa	-0.7009226
142	0xbfc83015	-1.5639673
143	0xbeb22a9a	-0.34798127
144	0xbd6552e7	-0.055987265
145	0xbc2f2fb5	-0.010692527
146	0xbe2eb8da	-0.17062703
147	0xbea3b23d	-0.31971923
148	0xbec49ebf	-0.38402364
149	0x3ee15c64	0.440158
150	0xbe5a44e5	-0.21315344
151	0xbef409d6	-0.47663754
152	0x3f49a163	0.7876188
153	0xbdd24fc9	-0.10269124
154	0x3e62cff7	0.22149645
155	0xbe888862	-0.26666552
156	0xbeeb4ff0	-0.45959425
157	0xbf4e8a97	-0.8068022
158	0x3e6ad605	0.22933204
159	0xbe81732d	-0.25283185
160	0x3ee86fdf	0.4539785
161	0x3e0088e9	0.12552227
162	0xbea92f42	-0.33043867
163	0xbda11303	-0.07864954
164	0xbda946c5	-0.08265451
165	0x3f0d9afc	0.5531461
166	0x3f25434d	0.6455582
167	0x3db52243	0.088444255
168	0xbde359f9	-0.11101145
169	0x3ce2df90	0.027694494
170	0xbb727603	-0.003699661
171	0x3e9d579b	0.307309
172	0xbefece10	-0.49766588
173	0xbe974149	-0.29541996
174	0x3f362435	0.71149
175	0x3e1d712c	0.15375203
176	0x3f0ec7cd	0.5577362
177	0xbe397fe4	-0.18115193
178	0xbd8a31d4	-0.06747785
179	0x3d6ef555	0.058339436
180	0x3d622d26	0.05521884
181	0x3e831aad	0.2560629
182	0x3e842605	0.25810257
183	0x3ea7df34	0.32787478
184	0x3ef037cd	0.46917573
185	0x3e925d49	0.28586796
186	0x3ead2235	0.3381516
187	0x3f52e157	0.8237509
188	0x3f0f1402	0.55889904
189	0x3d71aba4	0.05900158
190	0xbde4ee25	-0.11178235
191	0x3e4e79af	0.20163606
192	0x3d53f1bf	0.05174422
193	0xbfb277f1	-1.3942853
194	0xbfbeb9a8	-1.4900408
195	0xbe8196f0	-0.2531047
196	0xbd613f1f	-0.054991838
197	0x3d840526	0.064462945
198	0xbee4cbfb	-0.44686875
199	0x3e20eb07	0.15714656
200	0xbe6becc6	-0.2303954
201	0x3ef187b6	0.47173852
202	0x3eeee3b7	0.46658108
203	0x3d58f23f	0.0529654
204	0x3dfc7913	0.123277806
205	0xbf030d33	-0.51192015
206	0x3f894dea	1.0726902
207	0x3f6cf035	0.92554027
208	0x3f65ea0c	0.8981025
209	0x3ec903ac	0.39260614
210	0xbf3292f4	-0.6975548
211	0xbf5ce3c1	-0.86285025
212	0xbe964f3c	-0.29357326
213	0xbdbf4037	-0.0933842
214	0xbfb2615f	-1.3935965
215	0x3e9d6106	0.30738086
216	0x3f4e5420	0.80597115
217	0xbfc1c289	-1.5137492
218	0xbf82460d	-1.0177628
219	0xbe6824b2	-0.22670248
220	0xbf518123	-0.8183767
221	0xbf8c4575	-1.0958697
222	0xbf98e5cd	-1.194513
223	0x3ef93257	0.4867122
224	0x3f63e5f0	0.8902273
225	0xbeb8c126	-0.3608486
226	0xbf14ccb9	-0.5812488
227	0xbf35c015	-0.7099622
228	0xbf0486cd	-0.5176819
229	0x3df987d8	0.12184113
230	0xbec9ca55	-0.3941218
231	0xbf470fab	-0.7775828
232	0x3f796abb	0.9742848
233	0xbf2cd4bf	-0.67512125
234	0xbf628b2a	-0.884936
235	0xbec07a5c	-0.37593353
236	0xbeb79d15	-0.35862032
237	0xbee269cb	-0.4422134
238	0xbdc4f17a	-0.096163705
239	0xbf8d5d4c	-1.1044097
240	0x3fa518cb	1.2898191
241	0x3ed00774	0.40630686
242	0x3f1d5736	0.614612
243	0xbf5fa2dd	-0.87357885
244	0xbf4a1315	-0.78935367
245	0xbfaaabf9	-1.3333732
246	0xbfe2e2d9	-1.7725478
247	0xbfa8c405	-1.318482
248	0x3d65010a	0.055909194
249	0xbe8e7113	-0.27820644
250	0xbe602399	-0.2188858
251	0xbdac18cd	-0.08403168
252	0x3e7e533a	0.24836436
253	0x3e2695e4	0.16268116
254	0x3e376367	0.17909013
255	0x3ecaae00	0.39585876

bias f4 [29]
0	0xbdd44272	-0.10364236
1	0x3e6feac3	0.23429398
2	0xbe7cd45c	-0.24690384
3	0x3e1e7b3a	0.15476695
4	0xbe011dc4	-0.12609011
5	0xbd87cdce	-0.06631051
6	0xbdf06599	-0.11738128
7	0x3dbbd4cc	0.09171447
8	0x3edfdf2b	0.4372495
9	0xbe0f7af7	-0.14011751
10	0x3eada281	0.33913043
11	0xbf0ecb67	-0.5577912
12	0xbeec21bd	-0.4611949
13	0x3e88e086	0.26733798
14	0xbf3ed7e1	-0.74548155
15	0xbea79a43	-0.3273488
16	0xbd43d753	-0.04781277
17	0x3f0c543e	0.54816043
18	0xbea14eea	-0.3150552
19	0x3e93767f	0.28801343
20	0xbeb5e695	-0.35527483
21	0x3efd5cb8	0.494848
22	0x3d6b20f1	0.057404462
23	0x3f12f7e9	0.5740953
24	0xbee42334	-0.44558108
25	0x3df00f8c	0.11721715
26	0x3e306133	0.17224579
27	0x3e573796	0.21017298
28	0xbe835065	-0.25647274
