workspace-rich/checkpoints_backup/230830/checkpoint_98.48.pth (torch, 64671 bytes, 6 tensors)

weight f4 [4, 1, 3, 3]
000000 68 2e 04 3f 34 49 31 3e 50 1a a8 3f 9f 6d 12 40
       0.5163331 0.17313081 1.313303 2.2879407
000010 5d 43 1c 40 96 58 0c 40 0f 24 b8 3f e9 bd f3 3f
       2.4416115 2.1929069 1.4386004 1.9042331
000020 5e f3 05 40 d3 64 0a 3e 90 90 48 bf 01 13 81 bf
       2.092979 0.13515024 -0.78345585 -1.0083925
000030 82 84 39 bf 79 fb 17 bf 0b 11 d9 bd a2 1a f0 3e
       -0.72467816 -0.5936809 -0.10598954 0.4689532
000040 bf 3f 85 3f d5 ec d1 3f 03 88 dc be ae 54 94 bf
       1.0410079 1.64004 -0.4307252 -1.1588342
000050 c9 e8 9a bf 31 b6 b0 3f f6 02 2b 3f 1d 55 3a bf
       -1.210229 1.38056 0.66801393 -0.7278612
000060 27 74 93 3f 16 bd 11 3f 3b f1 0c 3f 1b 42 8a bd
       1.1519822 0.5692915 0.5505559 -0.0675089
000070 db 43 43 be d0 54 f7 bd 86 40 bb bd a3 93 06 be
       -0.19068854 -0.120767236 -0.09143166 -0.13142256
000080 a2 a8 90 3e c8 fc 61 3e 48 68 81 be 56 1f 91 bd
       0.28253657 0.22069085 -0.25274873 -0.07086055

bias f4 [4]
000000 db e8 0f c0 f9 44 4c bc 00 bd 78 be 32 6c a7 be
       -2.2485874 -0.012467616 -0.24290848 -0.32699734

weight f4 [8, 4, 3, 3]
000000 75 af 81 be a7 98 e1 be ef 20 28 be b4 24 69 3e
       -0.25329176 -0.44061777 -0.16418813 0.22767907
000010 53 9b 87 be 51 84 36 be d0 33 12 3f 33 84 cb 3e
       -0.2648569 -0.17823912 0.5711031 0.39749297
000020 d2 f8 94 3e b5 98 99 3e e0 19 31 3e 50 29 01 3e
       0.29096085 0.2999932 0.17295027 0.12613416
000030 cd 00 76 bf 39 98 d7 be 8c fe 89 bf a0 1d a3 bf
       -0.9609497 -0.42108324 -1.0780807 -1.2743416
000040 89 16 34 bf eb 64 71 bf 5e 9d 22 3f a2 11 f6 be
       -0.70346886 -0.94294614 0.63521373 -0.48060328
000050 34 7a 33 be 7d 07 21 3f cc 6a 99 3f 0b 4b 8a 3e
       -0.17527086 0.6290205 1.1985717 0.27010378
000060 ce bb 27 be 18 f9 07 40 b7 bf ce 3f 0b d7 61 3d
       -0.16380236 2.1245785 1.6152257 0.05513672
000070 66 c6 0d 3d a8 8e bc bd 4e b6 1e 3e d8 40 16 3e
       0.034613036 -0.09206897 0.15499231 0.14673173
000080 4b e7 a7 3d c6 8a 26 be 06 f2 66 bd e6 55 98 bd
       0.081984125 -0.16263875 -0.056383155 -0.07438259
000090 b0 ea e8 3e b2 55 29 3f 77 c1 34 3e de 96 fd 3e
       0.45491552 0.66146386 0.17651926 0.49529165
0000a0 e3 a9 40 3d f6 ac 46 bf 19 f7 47 3e 98 67 07 bf
       0.047037017 -0.7760767 0.19527854 -0.52892447
0000b0 e0 8d 02 bf 93 70 6a 40 de 69 e9 3e 9d a4 f3 bf
       -0.50997734 3.663121 0.45588583 -1.9034611
0000c0 bb 22 02 c0 51 7c 62 c0 35 12 f8 be 50 22 41 bf
       -2.0333698 -3.5388377 -0.4845139 -0.7544298
0000d0 f6 c6 a8 3f 8b 23 27 40 52 3b 49 bd 18 77 41 be
       1.3185718 2.6115444 -0.049128838 -0.18893087
0000e0 8e 31 50 bd 8f b8 f7 bf 57 55 45 c0 ab b1 09 c0
       -0.05082851 -1.9353198 -3.0833337 -2.151469
0000f0 ce e9 ec bf be f8 54 c0 9b 95 c1 bf a2 65 0b 3e
       -1.8508852 -3.327682 -1.5123781 0.13612989
000100 33 72 fe bd 8b cf ba bd d6 80 5a 3d d6 9f 36 bc
       -0.124241255 -0.09121617 0.053345524 -0.011146506
000110 16 83 9f bc 9e d6 1b 3e c0 b2 a5 3c 30 c9 dc 3d
       -0.019471686 0.15218589 0.020226836 0.10780561
000120 95 38 2d 3f ee 77 18 3e 32 e6 0b bf c8 b1 f1 3e
       0.6766446 0.148895 -0.54648125 0.4720595
000130 14 83 cd be 2e 5e ea be b0 d2 39 3f 7f 3a 59 bf
       -0.40139067 -0.45774978 0.7258711 -0.8485488
000140 10 be ac be 87 c1 96 3f a8 18 97 be 3b 6c 47 3f
       -0.33738756 1.177781 -0.29511 0.7789952
000150 5a 30 23 3e d3 02 28 c0 17 4c 7b 3f b0 47 ba bf
       0.15936413 -2.6251724 0.9816298 -1.4553127
000160 5e da a5 bf bb e5 5d 3f ee 05 50 be a2 f8 53 3e
       -1.2957265 0.86678666 -0.20314762 0.20700315
000170 40 2e f3 3f 62 d2 ef 3e 25 0a 3b 3f 4b 9c 81 3f
       1.8998489 0.46840197 0.73062354 1.0125822
000180 80 f4 06 3f 45 06 d9 3e cc c6 b9 be 0b a3 c5 3c
       0.5271683 0.42387596 -0.36284482 0.024125597
000190 30 48 22 3e 46 5d 02 3e 38 e5 a1 bd 54 4f 09 3e
       0.1584785 0.12730893 -0.07905048 0.13409168
0001a0 c0 8b 07 bc 57 5a 10 3e c0 ca 9d 3d 3b 0b 97 bd
       -0.008273065 0.14096962 0.07704687 -0.07375189
0001b0 aa 11 63 3d 24 25 1f 3f 8f ed 04 3e d3 27 04 bf
       0.055436768 0.6216605 0.12981246 -0.51623267
0001c0 08 40 22 be 4a 7e c0 3b 2e 3c 07 be 8c fb b2 be
       -0.15844738 0.00587443 -0.1320655 -0.3495754
0001d0 e4 d1 85 be 78 e5 2e 40 9d f6 7a 40 dd 03 2e 40
       -0.26136696 2.7327557 3.921302 2.7189858
0001e0 c1 b9 a0 bf b2 68 b3 bf 9d b0 5c 3f e5 e6 12 40
       -1.2556688 -1.4016325 0.8620699 2.2953427
0001f0 5c 81 32 40 e1 dd ec 3f 1a f2 79 3f fb 2b ea 3f
       2.7891455 1.8505212 0.9763504 1.8294672
000200 c1 7c ce 3f 8e f0 73 be d8 f7 be bf 24 5d 8a be
       1.6131822 -0.23822233 -1.4919386 -0.27024186
000210 f5 b6 9a 3e b1 4a 78 3e 00 c7 2d bf 43 0a 89 bd
       0.3021771 0.24247243 -0.67881775 -0.066914104
000220 5b 59 03 3e c6 c8 07 be b3 de f9 3d 0b 6f af bc
       0.12827055 -0.13260183 0.1220068 -0.021415254
000230 0c ce 17 be c0 04 41 bd 74 23 22 be e0 cd e1 3c
       -0.14824694 -0.04712367 -0.15833837 0.02756399
000240 78 08 d6 be 03 67 00 3c 50 2a 11 3c da 48 20 3e
       -0.41803336 0.00783706 0.008860186 0.1565279
000250 e2 ad 17 3f a9 36 53 3f 1b 2d 18 be a3 1f 16 bf
       0.592497 0.8250528 -0.14860956 -0.58642024
000260 5a 9a a8 be 71 59 0b bf 19 30 3d 3f cb d8 fc 3f
       -0.3293026 -0.5443335 0.73901516 1.975366
000270 62 dc 9c be bc f4 67 3f ce 27 50 3f b8 87 1a be
       -0.3063689 0.9060781 0.8131074 -0.15090835
000280 fc 0e cf bf b6 42 23 c0 d5 b5 14 c0 ac bb 4c bf
       -1.6176448 -2.5509467 -2.3235981 -0.79973865
000290 2e cb ca 3d 3e 36 91 3f 28 e7 23 40 29 9a 46 40
       0.09902035 1.1344678 2.5609837 3.1031592
0002a0 d6 16 92 bf d0 94 49 c0 b9 54 f0 bf 76 a1 83 bd
       -1.1413219 -3.1497078 -1.8775855 -0.064272806
0002b0 f8 f7 da bd 00 00 6b bd 40 57 97 3c 98 cf 90 bd
       -0.106918275 -0.057373047 0.018474221 -0.07070845
0002c0 cb 23 28 3d b6 9c c4 3c d3 36 80 3d 50 4e e5 3d
       0.04104976 0.024000507 0.06260457 0.111965775
0002d0 a7 52 74 be 70 e5 2b bf 0b fe 2e bf ac 2d f5 bd
       -0.23859654 -0.6714697 -0.6835639 -0.11971602
0002e0 4a 5c 8d be dd 7a 38 bf 92 36 19 3f 90 cb 4d 3f
       -0.27609473 -0.72062474 0.5984889 0.80388737
0002f0 24 49 f1 3e 16 fc c8 be 6d bc 17 be 8e 50 de be
       0.47126114 -0.39254826 -0.14817972 -0.43420833
000300 22 05 f6 3d aa 27 b1 3e 9d 39 83 3f 09 60 0d 40
       0.12012698 0.34600574 1.0251957 2.2089865
000310 38 53 10 40 f1 ef b0 3e 70 c7 0d 3f 88 d8 3e bf
       2.2550793 0.3455806 0.5538244 -0.7454915
000320 32 01 ac bd 2b 86 c0 be 1f ed d6 be e1 eb 85 bd
       -0.083986655 -0.37602362 -0.41977784 -0.06539131
000330 16 89 b5 3f 94 7a a7 3f 90 ed 8d 3f 80 d9 92 3d
       1.418246 1.3084283 1.1088123 0.07170391
000340 8b 92 db bc ff 9c 27 3e f3 89 a4 bd 2e 05 eb bd
       -0.026803276 0.16368483 -0.08034124 -0.11475597
000350 3e d0 f9 bd 60 e3 1d be 36 9c d1 bd cb 42 99 3d
       -0.12197922 -0.15418768 -0.10234873 0.07483443
000360 40 fe 27 bf ee c8 11 3e 41 33 ea 3e d6 f2 3b bf
       -0.6562233 0.14236805 0.4574223 -0.73417413
000370 7c 7b bb be 38 4d 6f 3f 86 b8 87 3e a5 cb 13 bf
       -0.3661765 0.934772 0.26507968 -0.5773261
000380 62 50 43 bc c7 ab d8 bf 18 09 a5 bf 17 8c 55 3f
       -0.01192102 -1.6927422 -1.28934 0.83416885
000390 f8 cf 40 3f 44 6b 45 c0 de d5 53 c0 91 25 32 40
       0.75317335 -3.084672 -3.3099284 2.7835429
0003a0 9f 47 0f 40 67 99 03 3f db 80 18 c0 bd e8 0f bf
       2.2387464 0.5140595 -2.3828647 -0.56214505
0003b0 38 ba 04 3f 08 ec 10 be c6 d5 a4 bf e3 2b 9a bf
       0.5184665 -0.14152539 -1.2877738 -1.2044643
0003c0 ac 34 ba 3f b8 46 d3 3f c3 41 db 3d 8b 1a e3 bd
       1.4547324 1.6505957 0.107059024 -0.11089047
0003d0 4b 0a 9f bd 16 6c 0f 3c 24 bc 10 3e eb da c6 bc
       -0.07765635 0.008753797 0.1413427 -0.02427431
0003e0 ff d2 19 3e ea 5e 1e be 86 3f 46 3d 7f 20 1e 3e
       0.15021895 -0.15465894 0.048400424 0.15442084
0003f0 8e 52 c5 be 19 31 40 bd 99 52 15 3f 5c 10 23 3e
       -0.38539547 -0.046921823 0.5832916 0.1592421

bias f4 [8]
000000 c4 b4 ef bf 5b 6a b8 3f 9f 53 3d 3e 26 60 49 bf
       -1.872704 1.4407457 0.1848893 -0.78662336
000010 08 68 8b bf a9 43 ee 3e 6e 49 09 40 3a a1 0a 40
       -1.0891123 0.46535996 2.1451068 2.1660905

weight f4 [29, 512]
000000 b5 49 83 3e 99 e3 29 3e ec 5a c9 bc cb 41 d7 be
       0.25642172 0.16590728 -0.024579488 -0.42042384
000010 04 83 ec be 57 61 0e bf 4f 91 0d be 2b f5 dd be
       -0.46193707 -0.5561728 -0.13824962 -0.4335111
000020 4e ed 19 be 05 0d f6 3e dd b9 79 3b 22 72 76 bd
       -0.15031931 0.48056808 0.0038105168 -0.06016744
000030 91 39 c3 be ad 61 75 bf 6b 38 c0 be fb b7 89 be
       -0.38129857 -0.95852166 -0.37543043 -0.26898178
000040 35 27 15 bf 1b 55 10 3f 35 22 1e 3f 8f f8 23 3e
       -0.5826295 0.5637986 0.61770946 0.16012786
000050 3a 9a c1 be 7c 35 49 3f a5 44 62 bf 7f b3 09 be
       -0.37812978 0.78597236 -0.88385993 -0.13447379
000060 a8 d6 4b 3e 13 0c 0f 3f c9 12 74 be 77 4f dd 3e
       0.19906104 0.558778 -0.23835291 0.4322469
000070 e9 6f c7 3e bd 36 a3 be f7 2c b6 be 16 79 1d be
       0.38952568 -0.318777 -0.3558118 -0.15378222
000080 c9 0c 61 3e 12 a3 08 3f 6a 45 a7 3e d3 78 94 3e
       0.21977533 0.53373826 0.32670146 0.28998432
000090 73 2a 02 3e b7 f9 8e 3e d9 46 dc 3e 9a a6 5a bd
       0.12711506 0.27924892 0.43022802 -0.05338154
0000a0 62 8e 20 3f c9 d6 b3 3e 3b 40 92 3e 46 11 12 be
       0.6271726 0.35124806 0.2856463 -0.14264402
0000b0 99 e0 44 3e 3c f1 51 bd 78 8f 17 3e e0 c3 e4 3e
       0.19226302 -0.05125545 0.14800823 0.4468069
0000c0 b4 33 fe 3d e8 98 3c 3c 47 a2 c7 be 49 d8 5a bf
       0.12412205 0.011511065 -0.38990995 -0.85486275
0000d0 a1 2d 61 be c7 f1 ff 3e 10 ca 32 bf 2e e2 40 3e
       -0.21990062 0.4998915 -0.6983957 0.1883628
0000e0 fc 0f f4 bf 2a 46 4a be a7 89 c4 3e b6 f0 fb be
       -1.9067378 -0.19753328 0.3838627 -0.49207085
0000f0 97 27 5d bc 94 47 80 3e 21 44 80 bf 77 dd b7 3e
       -0.0134982085 0.2505461 -1.0020791 0.35911152
000100 c3 bf a5 c1 11 c7 a8 c0 4f f0 e3 3e 61 d9 39 3f
       -20.718634 -5.2743 0.44519278 0.7259732
000110 bc 67 7d 3e 8d 50 ae 3e 89 ac d6 3e 43 a3 81 3e
       0.24746603 0.3404583 0.4192851 0.2531987
000120 87 d0 0b be 8f ac 17 3f 24 95 a3 3e 9b dd bd 3e
       -0.13653766 0.5924768 0.31949723 0.37083134
000130 31 73 99 3e f8 59 e5 3e 0c 22 83 3f ba aa c9 bf
       0.29970697 0.44795203 1.0244765 -1.5755227
000140 31 ca d5 3f c1 f9 32 3f 1b 1d db 3e bb 37 63 3f
       1.6702329 0.69912344 0.42795643 0.8875691
000150 2f 18 33 3f 97 fa 35 3f a8 b8 d7 3f 6d 72 a0 3d
       0.69958776 0.71085495 1.6853228 0.07834325
000160 74 da 2e 3f 64 fb 49 3f 84 bb 49 3e 76 21 ed 3e
       0.68302083 0.78899217 0.19700438 0.4631459
000170 18 3b b1 3e 7a de 38 3f 40 ae 69 3f c1 8c b8 bf
       0.34615397 0.7221447 0.9128151 -1.4417955
000180 2a ac 93 3c 01 51 98 3e 70 1e 8c bd 2a d5 4f 3d
       0.01802643 0.297493 -0.06841743 0.0507404
000190 92 83 8c 3e 87 01 9e bd 19 20 2b 3e 8c 7d e0 3e
       0.2744413 -0.07715135 0.16711463 0.43845785
0001a0 4a b9 96 be 8b ed 9b be 34 2a 40 3e 34 5f 2f be
       -0.2943824 -0.30454668 0.18766099 -0.17126161
0001b0 3b bc 1f 3f 04 60 b8 3e 09 78 5d 3f ed 93 cb 3d
       0.6239659 0.36010754 0.86511284 0.09940324
0001c0 71 bd a8 3f df 70 80 3e 4f d8 25 3d 07 65 f4 be
       1.3182813 0.25086114 0.04048949 -0.47733328
0001d0 94 e7 04 be 97 bf 0e 3e d3 49 a6 bd cf a1 15 3d
       -0.12978965 0.13940273 -0.081195496 0.036531266
0001e0 41 98 e9 3d af b6 51 be a6 fd 95 be b4 ca 04 be
       0.11405993 -0.20479845 -0.2929508 -0.1296795
0001f0 28 2b 0c 3e 23 62 4f 3d 83 f7 29 be f7 e4 46 3e
       0.13688338 0.0506307 -0.16598324 0.1942328
000200 79 41 7f c0 fc de 04 bf e7 4d e8 be 34 40 a2 bd
       -3.9883711 -0.5190275 -0.45371935 -0.07922402
000210 38 b8 67 be e6 cf 89 bd 2e eb ea bc 84 db fe be
       -0.22628868 -0.067291066 -0.028676596 -0.49776852
000220 20 da d5 3f e2 a9 e2 3d 68 89 f9 3b 70 c7 db bd
       1.6707191 0.11067559 0.007615257 -0.10731399
000230 ae 07 84 3e 52 3a 35 bf 7a 9c c5 bf c0 52 b3 be
       0.2578711 -0.70792115 -1.5438378 -0.3502407
000240 94 be b6 bd 40 d1 1b bc 63 25 34 be 05 1d a6 be
       -0.08923069 -0.009510338 -0.17592387 -0.32444015
000250 66 eb c6 be 7c d8 e1 3e bb 9a 51 be 36 2c f5 be
       -0.3885147 0.44110477 -0.20469181 -0.47885293
000260 d2 c4 4b 3f ad 18 db bd 04 a2 68 3e 93 f9 86 be
       0.795972 -0.10698066 0.22718054 -0.26362285
000270 4d 94 e9 be 36 a3 4e bf 90 e9 65 3e 3c df 81 be
       -0.45620957 -0.8071779 0.22452378 -0.25365627
000280 71 49 ec 3e 2d 83 05 3e 9b 13 a9 be 07 84 a6 bd
       0.4614978 0.13038321 -0.3302277 -0.08130651
000290 5d 46 9a bd ab 51 0d 3f d9 98 25 3f c5 fc bc 3d
       -0.07532952 0.5520274 0.6468635 0.092278995
0002a0 29 06 f1 bd d5 ee e4 3c bd 54 84 bb b1 d8 9d 3e
       -0.11768753 0.027945915 -0.004038422 0.30829385
0002b0 d3 ec fd be 7a e8 9a be aa 68 31 3f 4a 46 1c 3e
       -0.49594745 -0.3025549 0.6930033 0.15261188
0002c0 4e 01 12 3f bc 85 44 be f3 e1 8b bd f2 62 89 3d
       0.5703324 -0.1919164 -0.06830206 0.067083254
0002d0 52 8d 44 3d fc 9f 80 3e b3 a9 81 3e 04 c4 a7 3e
       0.047986336 0.25122058 0.25324783 0.32766736
0002e0 f2 4d f6 3e aa e0 91 3e 43 74 ad 3e ec 4a 55 3f
       0.48106343 0.28491718 0.33877763 0.83317447
0002f0 9e 90 0e 3f 29 07 76 3d 63 23 cc bd 17 f4 4e 3e
       0.5568942 0.060065422 -0.09967687 0.202103
000300 62 f6 46 3d 38 e5 b2 bf 08 4a bf bf 12 82 82 be
       0.048574813 -1.3976202 -1.4944468 -0.2548986
000310 a5 a8 63 bd a1 e5 84 3d 61 df e3 be b1 26 27 3e
       -0.055580754 0.06489111 -0.44506362 0.16323353
000320 5e 9c 6e be 2c 47 f1 3e dd 78 ef 3e 02 fe 6d 3d
       -0.23301837 0.47124612 0.467719 0.05810357
000330 25 da 08 3e ee 9b 01 bf ca 65 8a 3f 8b 4c 6c 3f
       0.13364466 -0.50628555 1.0812314 0.92304295
000340 f9 b8 66 3f 90 02 bc 3e 93 7e 36 bf 78 cd 5e bf
       0.90125996 0.36720705 -0.71286887 -0.8703227
000350 fa 54 98 be 2e 06 d5 bd 43 68 b4 bf 4b cf a0 3e
       -0.29752332 -0.10401569 -1.4094318 0.31408152
000360 ce 84 4f 3f 80 8c c6 bf 02 d3 80 bf 9b 56 76 be
       0.8106202 -1.5511627 -1.0064394 -0.24056475
000370 9f 05 54 bf 35 04 8e bf 74 dd 99 bf 26 b8 00 3f
       -0.8282108 -1.1095034 -1.2020707 0.5028099
000380 9e f7 64 3f b6 be b8 be 93 ef 16 bf c7 2d 37 bf
       0.89440334 -0.36083 -0.5895931 -0.71554226
000390 09 03 08 bf a5 46 00 3e 0f cf ca be 37 7a 49 bf
       -0.5312963 0.12526949 -0.39611098 -0.7870211
0003a0 bd 78 79 3f 21 57 30 bf ba 47 65 bf 7a 7c c3 be
       0.97449857 -0.6888295 -0.8956257 -0.38180906
0003b0 4d 6f b4 be ed 32 e0 be 99 bf cd bd a9 4e 8e bf
       -0.35241166 -0.43788853 -0.1004631 -1.1117755
0003c0 72 57 a5 3f 4c fa de 3e 9b 9d 20 3f db 17 5f bf
       1.2917311 0.43550336 0.62740487 -0.87145776
0003d0 8e 24 49 bf c2 c4 aa bf ff cd e2 bf f2 c3 a7 bf
       -0.78571403 -1.3341296 -1.7719115 -1.3106673
0003e0 34 51 65 3d 52 13 90 be e7 ad 62 be 73 2b ac bd
       0.055985644 -0.2813974 -0.22136651 -0.08406725
0003f0 ca 19 7d 3e 27 a7 24 3e 43 42 36 3e 38 45 cb 3e
       0.24716869 0.16079389 0.17798714 0.39701247

bias f4 [29]
000000 72 49 d3 bd b3 3a 70 3e 5d 8e 7d be 7d 14 1e 3e
       -0.10316743 0.23459892 -0.24761339 0.15437503
000010 1f e9 00 be 5b 29 8d bd a5 da f1 bd 3b ee b6 3d
       -0.12588929 -0.068926536 -0.11809281 0.089321576
000020 d9 9e e0 3e dc be 13 be 6b e2 ae 3e ce 48 0f bf
       0.4387119 -0.14428276 0.34157118 -0.55970466
000030 7e 7d ee be bf 9d 8a 3e 6a c2 3f bf e6 bf a8 be
       -0.46580118 0.27073476 -0.7490603 -0.32958907
000040 b1 35 47 bd 1b 41 0d 3f ab 83 a2 be e5 de 93 3e
       -0.04863519 0.5517747 -0.3174108 0.28880993
000050 62 d4 b7 be b2 df fe 3e 45 ed 66 3d 72 26 14 3f
       -0.35904223 0.4978004 0.05637862 0.5787116
000060 89 81 e5 be 5d c0 ea 3d bb 03 31 3e 7f db 58 3e
       -0.4482539 0.11462472 0.1728658 0.21177481
000070 27 07 84 be
       -0.25786707
