workspace-rich/checkpoints_backup/230830/checkpoint_98.28.pth (torch, 64671 bytes, 6 tensors)

weight f4 [4, 1, 3, 3]
0	0x3eed5996	0.4635741
1	0x3e02b50d	0.12764378
2	0x3fa2d189	1.2720195
3	0x400e0dc9	2.2195914
4	0x40180cfa	2.375792
5	0x4008bf92	2.1366925
6	0x3fb265f8	1.3937368
7	0x3fee51b6	1.8618686
8	0x4002bd49	2.042803
9	0x3e1a7c66	0.15086517
10	0xbf448b49	-0.7677503
11	0xbf7b96af	-0.982768
12	0xbf38def7	-0.7221522
13	0xbf173941	-0.5907174
14	0xbdcf8f01	-0.10134698
15	0x3ee703cc	0.45120084
16	0x3f818e71	1.0121595
17	0x3fcf47cf	1.6193789
18	0xbedb3325	-0.42812458
19	0xbf923c86	-1.142472
20	0xbf983f55	-1.1894327
21	0x3faebf50	1.3652134
22	0x3f29ff95	0.6640561
23	0xbf371ea7	-0.71531147
24	0x3f915f34	1.1357179
25	0x3f0e593c	0.5560491
26	0x3f09eac5	0.53873855
27	0xbd8a421b	-0.0675089
28	0xbe4343db	-0.19068854
29	0xbdf754d0	-0.120767236
30	0xbdbb4086	-0.09143166
31	0xbe0693a3	-0.13142256
32	0x3e90a8a2	0.28253657
33	0x3e61fcc8	0.22069085
34	0xbe816848	-0.25274873
35	0xbd911f56	-0.07086055

bias f4 [4]
0	0xc00d6b25	-2.2096646
1	0xbc8e96f1	-0.017405959
2	0xbe72f3c8	-0.23725808
3	0xbea76c32	-0.32699734

weight f4 [8, 4, 3, 3]
0	0xbe7ebe70	-0.24877334
1	0xbedbddda	-0.42942697
2	0xbe1b8fd4	-0.15191585
3	0x3e60d0aa	0.21954599
4	0xbe87ba58	-0.26509356
5	0xbe2f336c	-0.1710946
6	0x3f0fbbdb	0.5614602
7	0x3ec71cd2	0.38889176
8	0x3e92f841	0.28705028
9	0x3e964f17	0.29357216
10	0x3e1d2119	0.15344657
11	0x3dd1f798	0.10252303
12	0xbf75a6e3	-0.95957774
13	0xbed838d5	-0.4223086
14	0xbf8bf337	-1.0933598
15	0xbfa2f79a	-1.2731812
16	0xbf365065	-0.7121642
17	0xbf742723	-0.9537222
18	0x3f17195e	0.5902308
19	0xbefda4f1	-0.49539903
20	0xbe40311c	-0.18768734
21	0x3f167423	0.5877096
22	0x3f9522e4	1.1651273
23	0x3e821edd	0.25414172
24	0xbe439392	-0.19099262
25	0x400561a1	2.0840838
26	0x3fc94ad0	1.5725956
27	0x3d61d70b	0.05513672
28	0x3d0dc666	0.034613036
29	0xbdbc8ea8	-0.09206897
30	0x3e1eb64e	0.15499231
31	0x3e1640d8	0.14673173
32	0x3da7e74b	0.081984125
33	0xbe268ac6	-0.16263875
34	0xbd66f206	-0.056383155
35	0xbd9855e6	-0.07438259
36	0x3ee01355	0.4376475
37	0x3f24ff31	0.6445189
38	0x3e2c6750	0.16836286
39	0x3efa9a03	0.48945627
40	0x3d366534	0.04453011
41	0xbf467dac	-0.7753551
42	0x3e52fd55	0.20604451
43	0xbf031ed8	-0.5121894
44	0xbefd6317	-0.49489662
45	0x40685603	3.6302497
46	0x3eea3003	0.45739755
47	0xbff16e25	-1.8861738
48	0xc0004738	-2.0043468
49	0xc063eef3	-3.5614593
50	0xbef70378	-0.48244834
51	0xbf3fdb79	-0.74944264
52	0x3fa3b900	1.2790833
53	0x4026a65a	2.6039033
54	0xbd064086	-0.032776378
55	0xbe31640c	-0.17323321
56	0xbd1025dd	-0.03519236
57	0xbff3d961	-1.9050714
58	0xc0447541	-3.0696566
59	0xc00b6c41	-2.1784823
60	0xbfea1739	-1.8288337
61	0xc054261f	-3.3148267
62	0xbfc15a67	-1.5105714
63	0x3e0b65a2	0.13612989
64	0xbdfe7233	-0.124241255
65	0xbdbacf8b	-0.09121617
66	0x3d5a80d6	0.053345524
67	0xbc369fd6	-0.011146506
68	0xbc9f8316	-0.019471686
69	0x3e1bd69e	0.15218589
70	0x3ca5b2c0	0.020226836
71	0x3ddcc930	0.10780561
72	0x3f29fe56	0.6640371
73	0x3e1526e5	0.14565618
74	0xbf06f608	-0.52719164
75	0x3eeb5241	0.45961192
76	0xbed08014	-0.40722716
77	0xbee3683f	-0.4441547
78	0x3f37c754	0.71788526
79	0xbf56fa94	-0.839761
80	0xbea5a2b2	-0.3235069
81	0x3f95f31b	1.1714815
82	0xbea04f97	-0.31310722
83	0x3f46543f	0.774723
84	0x3e37e555	0.17958577
85	0xc026b88b	-2.6050136
86	0x3f78fc55	0.9726003
87	0xbfbc736b	-1.4722723
88	0xbfa85a89	-1.3152629
89	0x3f5ae391	0.8550349
90	0xbe45c43e	-0.19313142
91	0x3e45344d	0.19258232
92	0x3ff2b4a8	1.8961382
93	0x3ef4a98a	0.47785598
94	0x3f367694	0.71274686
95	0x3f7d9702	0.99058545
96	0x3f03d0d4	0.5149052
97	0x3eceecd5	0.40415064
98	0xbeb4be1a	-0.35301286
99	0x3cc5a30b	0.024125597
100	0x3e224830	0.1584785
101	0x3e025d46	0.12730893
102	0xbda1e538	-0.07905048
103	0x3e094f54	0.13409168
104	0xbc078bc0	-0.008273065
105	0x3e105a57	0.14096962
106	0x3d9dcac0	0.07704687
107	0xbd970b3b	-0.07375189
108	0x3d654fa4	0.055984154
109	0x3f1c8fb6	0.61156785
110	0x3df237cf	0.11827051
111	0xbf03783b	-0.5135533
112	0xbe232816	-0.1593326
113	0xb9d46067	-0.00040507616
114	0xbe00397d	-0.1252193
115	0xbeab88ef	-0.3350291
116	0xbe858da1	-0.26084617
117	0x402d4c93	2.7077987
118	0x40778f50	3.868122
119	0x402a5c56	2.6618857
120	0xbfa359b1	-1.2761747
121	0xbfb95027	-1.4477586
122	0x3f5bb3b2	0.8582107
123	0x4010da0d	2.2633088
124	0x40319bc9	2.7751334
125	0x3fe9aa3a	1.8255074
126	0x3f6f4ee5	0.9347976
127	0x3fe45cab	1.784078
128	0x3fc92332	1.5713866
129	0xbe820383	-0.25393304
130	0xbfbf69b0	-1.4954128
131	0xbe8819ec	-0.26582277
132	0x3e9a5128	0.30140042
133	0x3e7adec0	0.24499035
134	0xbf26f641	-0.65219504
135	0xbd890a43	-0.066914104
136	0x3e03595b	0.12827055
137	0xbe07c8c6	-0.13260183
138	0x3df9deb3	0.1220068
139	0xbcaf6f0b	-0.021415254
140	0xbe17ce0c	-0.14824694
141	0xbd4104c0	-0.04712367
142	0xbe222374	-0.15833837
143	0x3ce1cde0	0.02756399
144	0xbecf3dbf	-0.40476796
145	0x3b27edc7	0.0025623904
146	0x3ba496ef	0.0050228755
147	0x3e1e33e2	0.15449479
148	0x3f1305ec	0.5743091
149	0x3f506027	0.81396717
150	0xbe0c8743	-0.13723473
151	0xbf1534fa	-0.5828396
152	0xbea52ce6	-0.32260817
153	0xbf0caf56	-0.5495504
154	0x3f382bda	0.7194191
155	0x3ffc3a08	1.970521
156	0xbe9d8cfa	-0.3077162
157	0x3f64278b	0.8912284
158	0x3f48d71c	0.7845323
159	0xbdfed9c4	-0.12443879
160	0xbfcb0c4b	-1.5863127
161	0xc020aaf9	-2.5104353
162	0xc0138a47	-2.3053148
163	0xbf4c01fe	-0.7969054
164	0x3df5a221	0.11993814
165	0x3f90a7b0	1.1301174
166	0x4022b896	2.5425162
167	0x40451224	3.0792322
168	0xbf90af89	-1.1303569
169	0xc047845c	-3.1174536
170	0xbfed1478	-1.8521872
171	0xbd83a176	-0.064272806
172	0xbddaf7f8	-0.106918275
173	0xbd6b0000	-0.057373047
174	0x3c975740	0.018474221
175	0xbd90cf98	-0.07070845
176	0x3d2823cb	0.04104976
177	0x3cc49cb6	0.024000507
178	0x3d8036d3	0.06260457
179	0x3de54e50	0.111965775
180	0xbe6ab56b	-0.22920768
181	0xbf2a6c60	-0.6657162
182	0xbf2c4a45	-0.67300826
183	0xbdefe586	-0.117137
184	0xbe8df00b	-0.277222
185	0xbf3931cb	-0.72341603
186	0x3f1570b8	0.5837512
187	0x3f48c406	0.7842411
188	0x3eea0385	0.4570581
189	0xbecf6740	-0.4050846
190	0xbe207575	-0.15669806
191	0xbedce6fd	-0.4314498
192	0x3dbe3d9a	0.09289093
193	0x3ea78c41	0.32724193
194	0x3f7e382d	0.9930447
195	0x400b5e20	2.17762
196	0x400dde79	2.2167037
197	0x3ea15233	0.31508026
198	0x3f0c3d13	0.5478069
199	0xbf41740a	-0.75567687
200	0xbdce194a	-0.10063417
201	0xbecbe068	-0.39819646
202	0xbed752b7	-0.42055294
203	0xbd8d3b1b	-0.06896039
204	0x3fb2fb8c	1.3983016
205	0x3fa61fcf	1.2978457
206	0x3f8e5f2a	1.1122792
207	0x3d92d980	0.07170391
208	0xbcdb928b	-0.026803276
209	0x3e279cff	0.16368483
210	0xbda489f3	-0.08034124
211	0xbdeb052e	-0.11475597
212	0xbdf9d03e	-0.12197922
213	0xbe1de360	-0.15418768
214	0xbdd19c36	-0.10234873
215	0x3d9942cb	0.07483443
216	0xbf254286	-0.6455463
217	0x3e0d5c53	0.1380475
218	0x3ee5d152	0.4488626
219	0xbf3b6c75	-0.7321237
220	0xbeb9d65e	-0.36296362
221	0x3f6d5bef	0.92718405
222	0x3e842eb9	0.25816897
223	0xbf13edeb	-0.5778491
224	0xbc9d49aa	-0.019200165
225	0xbfd9b1f7	-1.7007436
226	0xbfa4cb35	-1.2874514
227	0x3f573431	0.8406401
228	0x3f378bac	0.716975
229	0xc04478df	-3.0698774
230	0xc051986c	-3.274928
231	0x403168c3	2.7720191
232	0x400ef6e9	2.2338202
233	0x3efc4f94	0.49279463
234	0xc016460c	-2.3480253
235	0xbf0653f4	-0.5247185
236	0x3f06d91c	0.5267503
237	0xbe2ce31a	-0.16883507
238	0xbfa72c7f	-1.3060454
239	0xbf97f51d	-1.1871678
240	0x3fb87762	1.4411433
241	0x3fd16482	1.6358798
242	0x3de7b67a	0.113141015
243	0xbde31a8b	-0.11089047
244	0xbd9f0a4b	-0.07765635
245	0x3c0f6c16	0.008753797
246	0x3e10bc24	0.1413427
247	0xbcc6daeb	-0.02427431
248	0x3e19d2ff	0.15021895
249	0xbe1e5eea	-0.15465894
250	0x3d463f86	0.048400424
251	0x3e1e207f	0.15442084
252	0xbec1b6b2	-0.37834698
253	0xbd57e814	-0.05271156
254	0x3f12fde2	0.57418644
255	0x3e2431d7	0.16034637

bias f4 [8]
0	0xbfec6ad1	-1.8470098
1	0x3fb173ce	1.3863466
2	0x3e2c7b6f	0.16843961
3	0xbf481079	-0.78150135
4	0xbf867556	-1.0504558
5	0x3ee86aee	0.4539408
6	0x40079fa2	2.1191182
7	0x4007a6b5	2.11955

weight f4 [29, 512]
0	0x3e7efee7	0.24901925
1	0x3e1e95e1	0.15486862
2	0xbcf1c264	-0.029511638
3	0xbed62a38	-0.41829085
4	0xbeebcb9b	-0.46053776
5	0xbf11a574	-0.56893086
6	0xbe1cd480	-0.15315437
7	0xbedf9d5f	-0.43674752
8	0xbe179040	-0.14801121
9	0x3ef0ff6a	0.47069865
10	0x3bb0bf28	0.0053938814
11	0xbd7d2220	-0.061800122
12	0xbec73956	-0.3891093
13	0xbf731080	-0.9494705
14	0xbec4adfc	-0.3841399
15	0xbe8956c3	-0.26824006
16	0xbf150d51	-0.58223444
17	0x3f0eb3e9	0.5574327
18	0x3f1c7ceb	0.6112811
19	0x3e222342	0.15833762
20	0xbeca2d27	-0.39487574
21	0x3f4bd257	0.7961783
22	0xbf69bb80	-0.9130173
23	0xbe02e577	-0.12782846
24	0x3e5288f8	0.20560062
25	0x3f082992	0.5318843
26	0xbe7a5ae0	-0.24448729
27	0x3edb91fa	0.4288481
28	0x3eb52d4e	0.35386127
29	0xbe98df8c	-0.29858053
30	0xbec69b05	-0.38790146
31	0xbe1b3cb1	-0.1515987
32	0x3e64d242	0.22345832
33	0x3f088fb6	0.53344285
34	0x3ea64cbb	0.32480416
35	0x3e9dedf6	0.30845612
36	0x3de2a54d	0.11066685
37	0x3e972c73	0.295261
38	0x3ed948ac	0.42438257
39	0xbd26f45b	-0.04076038
40	0x3f21d4e8	0.63215494
41	0x3eb85ba9	0.3600743
42	0x3e94476d	0.28960744
43	0xbe09cabb	-0.13456242
44	0x3e496666	0.19667968
45	0xbd85d66b	-0.065350376
46	0x3e25adfc	0.16179651
47	0x3ee573b8	0.4481485
48	0x3e053e86	0.13012132
49	0x3c475f1c	0.012168672
50	0xbec8770a	-0.3915332
51	0xbf56c90e	-0.83900535
52	0xbe579942	-0.21054557
53	0x3efa7f83	0.4892541
54	0xbf306d42	-0.68916714
55	0x3e434161	0.19067909
56	0xbfefe0a2	-1.8740427
57	0xbe4011c9	-0.18756784
58	0x3eba46ce	0.36382145
59	0xbefc708d	-0.4930462
60	0xb97f6586	-0.00024356515
61	0x3e7679aa	0.24069849
62	0xbf7ea3ad	-0.994685
63	0x3eb72a4f	0.35774466
64	0xc1a3f542	-20.494755
65	0xc0a80ac0	-5.2513123
66	0x3eec9ff6	0.4621579
67	0x3f3d9da6	0.7406868
68	0x3e80cded	0.2515711
69	0x3eb15b1c	0.34639823
70	0x3eec539b	0.46157536
71	0x3e80b683	0.25139245
72	0xbd8958db	-0.06706401
73	0x3f17eb4c	0.5934341
74	0x3ea9a29f	0.33131883
75	0x3ec988df	0.39362237
76	0x3e98cf9f	0.29845902
77	0x3ed6c099	0.41943815
78	0x3f83f6bd	1.0309674
79	0xbfc72c1a	-1.5560334
80	0x3fd14b5f	1.6351126
81	0x3f2fcf8c	0.68676066
82	0x3edc6c08	0.4305117
83	0x3f63744b	0.88849324
84	0x3f365c6e	0.71234787
85	0x3f3d1797	0.7386412
86	0x3fd738f6	1.6814258
87	0x3d35e5c9	0.044408593
88	0x3f37a472	0.717353
89	0x3f4e4103	0.8056795
90	0x3e54308f	0.20721649
91	0x3eed93b1	0.46401742
92	0x3eb5c34f	0.3550057
93	0x3f32fad2	0.6991397
94	0x3f6d68d2	0.9273807
95	0xbfb5d3f2	-1.4205306
96	0x3bd5822e	0.006515763
97	0x3ea02838	0.31280684
98	0xbd52d704	-0.051474586
99	0x3d6a347b	0.057178956
100	0x3e82c11c	0.25537956
101	0xbd8c545b	-0.06852027
102	0x3e18ef95	0.14935143
103	0x3ecd7423	0.40127668
104	0xbe9462d0	-0.28981638
105	0xbe9eeeae	-0.31041473
106	0x3e73b9ac	0.23801297
107	0xbe1cb462	-0.15303186
108	0x3f1ea5bc	0.6197164
109	0x3ecbccdb	0.3980473
110	0x3f61fece	0.88279426
111	0x3dc107d0	0.09425318
112	0x3fa51f39	1.2900153
113	0x3e796e41	0.24358465
114	0x3d512de6	0.051069163
115	0xbef08198	-0.46973872
116	0xbdf2a0eb	-0.11847099
117	0x3e15c001	0.14624025
118	0xbde84ee4	-0.11343172
119	0x3d023407	0.0317879
120	0x3de48ddb	0.11159869
121	0xbe50455f	-0.20338963
122	0xbe95c85a	-0.2925442
123	0xbdfbe152	-0.12298836
124	0x3e0ea6d0	0.13930821
125	0x3d724db4	0.059156135
126	0xbe16af60	-0.14715338
127	0x3e47547f	0.19465826
128	0xc07c069f	-3.9379041
129	0xbef09638	-0.46989608
130	0xbee4aca7	-0.44662973
131	0xbd90f46e	-0.07077871
132	0xbe5c482f	-0.21511911
133	0xbd80d25d	-0.062901236
134	0xbd170eac	-0.036879227
135	0xbefea4f8	-0.49735236
136	0x3fccad9e	1.5990484
137	0x3e06ac5b	0.13151686
138	0x3b71465d	0.0036815621
139	0xbdc976f0	-0.09837139
140	0x3e84a16d	0.25904408
141	0xbf33fd3d	-0.70308286
142	0xbfcd9e33	-1.6063904
143	0xbeb0e2ac	-0.34547937
144	0xbd3bc13c	-0.04583858
145	0xbc871393	-0.016488826
146	0xbe265738	-0.16244209
147	0xbe9fb5c0	-0.31193352
148	0xbeca8a26	-0.39558524
149	0x3ede995e	0.43476385
150	0xbe6a7f2a	-0.22900072
151	0xbef206cb	-0.47270808
152	0x3f4540c5	0.77051955
153	0xbdd12722	-0.10212542
154	0x3e628fbc	0.22125143
155	0xbe872984	-0.2639886
156	0xbef9d308	-0.48793817
157	0xbf4f11d6	-0.8088659
158	0x3e612857	0.21988045
159	0xbe7c7d95	-0.2465728
160	0x3eeb7c50	0.4599328
161	0x3deffd52	0.11718239
162	0xbea2b573	-0.3177906
163	0xbda23ba3	-0.07921531
164	0xbdec8b5a	-0.11550017
165	0x3f0f231f	0.55912966
166	0x3f1ce572	0.61287606
167	0x3db5d4cb	0.08878478
168	0xbda51edf	-0.08062529
169	0x3d33b582	0.04387427
170	0xbbbe6a7e	-0.0058110347
171	0x3e97ccca	0.2964843
172	0xbf01127f	-0.5041885
173	0xbe8d3c39	-0.2758501
174	0x3f353073	0.7077705
175	0x3e2831ab	0.16425197
176	0x3f0d1547	0.5511059
177	0xbe1e6bc4	-0.15470797
178	0xbd989201	-0.07449723
179	0x3d1c68f5	0.038186032
180	0x3d90e1c3	0.07074311
181	0x3e8ac7ac	0.27105463
182	0x3e6d32d6	0.23163924
183	0x3eaa870e	0.33306164
184	0x3ef51d1e	0.47873777
185	0x3e96a1c6	0.29420298
186	0x3eaa50d7	0.332648
187	0x3f4e27d5	0.8052953
188	0x3f115a73	0.5677864
189	0x3d870a76	0.06593792
190	0xbe06ec46	-0.13176069
191	0x3e4ff57b	0.20308487
192	0x3d5ee641	0.054418806
193	0xbfb22903	-1.3918766
194	0xbfbe55b4	-1.4869905
195	0xbe824083	-0.25439844
196	0xbd6b5e89	-0.057463203
197	0x3d80004c	0.062500566
198	0xbee38247	-0.4443533
199	0x3e1d7089	0.1537496
200	0xbe67b111	-0.22626139
201	0x3ef22d96	0.47300404
202	0x3eee675d	0.46563235
203	0x3d3468c6	0.044045232
204	0x3ddd47cb	0.10804709
205	0xbf05d4ea	-0.52278006
206	0x3f878338	1.058692
207	0x3f6db157	0.92848724
208	0x3f63e748	0.8902478
209	0x3ed66c33	0.41879424
210	0xbf30c79d	-0.69054586
211	0xbf58848f	-0.8457727
212	0xbe8f82a1	-0.2802935
213	0xbd9005a5	-0.070323266
214	0xbfab2a02	-1.3372195
215	0x3e9a32fd	0.30117026
216	0x3f4c9439	0.7991367
217	0xbfbb3c40	-1.4627762
218	0xbf832e6e	-1.0248544
219	0xbe57116e	-0.21002743
220	0xbf508bdd	-0.81463414
221	0xbf8afab0	-1.0857754
222	0xbf96440b	-1.1739515
223	0x3ee9da13	0.4567419
224	0x3f616a10	0.88052464
225	0xbeb569d5	-0.35432306
226	0xbf0edcb1	-0.558055
227	0xbf384837	-0.7198519
228	0xbf04cbe2	-0.518736
229	0x3df002bd	0.11719272
230	0xbec25cb2	-0.37961346
231	0xbf434c74	-0.76288533
232	0x3f7a50c9	0.9777952
233	0xbf22e049	-0.6362348
234	0xbf5ce5e1	-0.8628827
235	0xbeba6003	-0.36401376
236	0xbebb78b2	-0.3661552
237	0xbee091c9	-0.43861225
238	0xbdb37f06	-0.08764462
239	0xbf8d807a	-1.1054833
240	0x3fa4c471	1.2872449
241	0x3ec38716	0.38189
242	0x3f1d3af3	0.61418074
243	0xbf61fb98	-0.88274527
244	0xbf4f7b82	-0.8104783
245	0xbfa988cb	-1.3244871
246	0xbfe3469c	-1.7755923
247	0xbfac714d	-1.3472077
248	0x3d6728c1	0.05643535
249	0xbe8ba6ad	-0.272756
250	0xbe5481aa	-0.20752588
251	0xbda57bcd	-0.08080254
252	0x3e823c94	0.25436842
253	0x3e319dd1	0.17345358
254	0x3e3a3b30	0.1818664
255	0x3ec8a661	0.39189437

bias f4 [29]
0	0xbdd240ff	-0.10266303
1	0x3e6d2873	0.23159961
2	0xbe7a3afd	-0.24436565
3	0x3e1d5183	0.15363126
4	0xbe01a419	-0.12660255
5	0xbd829c1c	-0.06377432
6	0xbdec2d7f	-0.11532115
7	0x3db43f59	0.08801145
8	0x3edf5125	0.43616596
9	0xbe0d213c	-0.13782209
10	0x3eac102b	0.33606085
11	0xbf0ce3e3	-0.5503523
12	0xbee7ac76	-0.45248765
13	0x3e85f6c3	0.26164827
14	0xbf3df8d6	-0.7420782
15	0xbea67873	-0.3251377
16	0xbd3b06a2	-0.045660622
17	0x3f0b63d6	0.5444921
18	0xbe9ed784	-0.310238
19	0x3e922d9b	0.2855042
20	0xbeb3594f	-0.35029075
21	0x3efb4a06	0.49079913
22	0x3d6d1784	0.057883754
23	0x3f11504e	0.5676316
24	0xbee187c1	-0.44048885
25	0x3df4457b	0.11927315
26	0x3e2f757c	0.1713466
27	0x3e506fcc	0.20355147
28	0xbe817c5e	-0.25290197
