workspace-rich/checkpoints_backup/230830/checkpoint_98.55.pth (torch, 64671 bytes, 6 tensors)

weight f4 [4, 1, 3, 3]
0	0x3f03aad3	0.5143253
1	0x3e2f8577	0.17140757
2	0x3fa7e9c8	1.3118219
3	0x40123ba8	2.2848911
4	0x401c16ca	2.438891
5	0x400c35c7	2.1907823
6	0x3fb7edf0	1.4369488
7	0x3ff391d4	1.9028878
8	0x4005d778	2.0912762
9	0x3e09edd6	0.13469633
10	0xbf48b1c5	-0.78396255
11	0xbf811278	-1.0083761
12	0xbf39c1a7	-0.72561115
13	0xbf18392d	-0.59462243
14	0xbddaf266	-0.10690765
15	0x3eef1520	0.46695805
16	0x3f84f01c	1.0385776
17	0x3fd1a48b	1.637834
18	0xbedc5300	-0.43032074
19	0xbf943656	-1.1579082
20	0xbf9ac6d6	-1.209193
21	0x3fb0a617	1.3800687
22	0x3f2b0216	0.6680006
23	0xbf3a2c28	-0.7272363
24	0x3f9362f1	1.151457
25	0x3f11a7d7	0.5689673
26	0x3f0cd895	0.5501798
27	0xbd8a421b	-0.0675089
28	0xbe4343db	-0.19068854
29	0xbdf754d0	-0.120767236
30	0xbdbb4086	-0.09143166
31	0xbe0693a3	-0.13142256
32	0x3e90a8a2	0.28253657
33	0x3e61fcc8	0.22069085
34	0xbe816848	-0.25274873
35	0xbd911f56	-0.07086055

bias f4 [4]
0	0xc00fb41e	-2.2453685
1	0xbc59977c	-0.013280746
2	0xbe76f282	-0.24115947
3	0xbea76c32	-0.32699734

weight f4 [8, 4, 3, 3]
0	0xbe816f29	-0.2528012
1	0xbee17c91	-0.4404035
2	0xbe27bb6e	-0.16380093
3	0x3e691c2f	0.22764657
4	0xbe87a8bb	-0.2649592
5	0xbe360d2f	-0.17778467
6	0x3f12361a	0.571138
7	0x3ecb4b52	0.39705902
8	0x3e94ebcd	0.29086152
9	0x3e98c40f	0.2983708
10	0x3e3093ff	0.17243956
11	0x3e025444	0.12727457
12	0xbf75b0c3	-0.9597284
13	0xbed6a45b	-0.41922268
14	0xbf89cfc2	-1.0766528
15	0xbfa2e9db	-1.2727617
16	0xbf33c16a	-0.70217
17	0xbf7127ab	-0.94201154
18	0x3f226358	0.63432837
19	0xbef646d7	-0.48100922
20	0xbe353be0	-0.17698622
21	0x3f2136ec	0.6297443
22	0x3f9959c3	1.1980518
23	0x3e89c7af	0.2691016
24	0xbe26cec2	-0.1628981
25	0x4007e756	2.1234946
26	0x3fce695c	1.6125903
27	0x3d61d70b	0.05513672
28	0x3d0dc666	0.034613036
29	0xbdbc8ea8	-0.09206897
30	0x3e1eb64e	0.15499231
31	0x3e1640d8	0.14673173
32	0x3da7e74b	0.081984125
33	0xbe268ac6	-0.16263875
34	0xbd66f206	-0.056383155
35	0xbd9855e6	-0.07438259
36	0x3ee82545	0.45340934
37	0x3f28d95c	0.65956664
38	0x3e32e648	0.17470658
39	0x3efd1d96	0.49436635
40	0x3d3bd191	0.045854155
41	0xbf470166	-0.7773651
42	0x3e48c0bd	0.19604774
43	0xbf075b24	-0.52873445
44	0xbf02ae30	-0.5104704
45	0x406a4d48	3.6609669
46	0x3ee952cd	0.45570984
47	0xbff382c8	-1.9024286
48	0xc00207db	-2.0317295
49	0xc062a1db	-3.5411289
50	0xbef82f5f	-0.4847364
51	0xbf40f155	-0.75368243
52	0x3fa86b54	1.3157754
53	0x40270ef7	2.6102884
54	0xbd45fa0b	-0.048334163
55	0xbe40c54c	-0.18825263
56	0xbd4caa93	-0.04996736
57	0xbff76691	-1.9328176
58	0xc0454be6	-3.0827575
59	0xc009d22d	-2.153453
60	0xbfeca4d3	-1.84878
61	0xc054ee0e	-3.3270297
62	0xbfc1b1d4	-1.5132394
63	0x3e0b65a2	0.13612989
64	0xbdfe7233	-0.124241255
65	0xbdbacf8b	-0.09121617
66	0x3d5a80d6	0.053345524
67	0xbc369fd6	-0.011146506
68	0xbc9f8316	-0.019471686
69	0x3e1bd69e	0.15218589
70	0x3ca5b2c0	0.020226836
71	0x3ddcc930	0.10780561
72	0x3f2d1a98	0.67618704
73	0x3e189d50	0.1490376
74	0xbf0b9602	-0.5452577
75	0x3ef184ca	0.47171623
76	0xbecd6e0a	-0.40123016
77	0xbee9bcee	-0.45651954
78	0x3f39d029	0.7258325
79	0xbf58ffef	-0.84765524
80	0xbeac09f9	-0.3360136
81	0x3f96db23	1.1785625
82	0xbe9702aa	-0.2949422
83	0x3f478aca	0.7794615
84	0x3e250356	0.16114554
85	0xc027e867	-2.6235597
86	0x3f7b94f3	0.98274153
87	0xbfba5272	-1.455641
88	0xbfa5e987	-1.2961892
89	0x3f5dfec7	0.86716884
90	0xbe4ef6b4	-0.20211297
91	0x3e53a735	0.20669253
92	0x3ff338b4	1.900168
93	0x3ef01563	0.46891317
94	0x3f3ad950	0.7298784
95	0x3f81a09a	1.0127137
96	0x3f06cabf	0.52653116
97	0x3ed88175	0.42286268
98	0xbeb97809	-0.36224392
99	0x3cc5a30b	0.024125597
100	0x3e224830	0.1584785
101	0x3e025d46	0.12730893
102	0xbda1e538	-0.07905048
103	0x3e094f54	0.13409168
104	0xbc078bc0	-0.008273065
105	0x3e105a57	0.14096962
106	0x3d9dcac0	0.07704687
107	0xbd970b3b	-0.07375189
108	0x3d604f2e	0.05476301
109	0x3f1ef907	0.62098736
110	0x3e047036	0.1293343
111	0xbf0436db	-0.516462
112	0xbe225e59	-0.15856303
113	0x3bb57461	0.005537555
114	0xbe07786b	-0.1322953
115	0xbeb2d897	-0.3493087
116	0xbe860247	-0.26173612
117	0x402ed16c	2.731532
118	0x407aca70	3.9186058
119	0x402dc813	2.7153366
120	0xbfa0cd56	-1.2562664
121	0xbfb3a9d1	-1.4036199
122	0x3f5c922a	0.8616053
123	0x4012c631	2.2933466
124	0x40326f4c	2.788043
125	0x3fec9c18	1.8485136
126	0x3f7927c1	0.97326285
127	0x3fe9beba	1.826133
128	0x3fce1f4a	1.6103299
129	0xbe74cc91	-0.23906161
130	0xbfbefec8	-1.4921503
131	0xbe8a6fbb	-0.2703837
132	0x3e9a6e03	0.30162057
133	0x3e77ad82	0.24187282
134	0xbf2d834b	-0.6777846
135	0xbd890a43	-0.066914104
136	0x3e03595b	0.12827055
137	0xbe07c8c6	-0.13260183
138	0x3df9deb3	0.1220068
139	0xbcaf6f0b	-0.021415254
140	0xbe17ce0c	-0.14824694
141	0xbd4104c0	-0.04712367
142	0xbe222374	-0.15833837
143	0x3ce1cde0	0.02756399
144	0xbed53c7d	-0.4164771
145	0x3c087cba	0.008330518
146	0x3c16ff45	0.009216134
147	0x3e20ac57	0.15690742
148	0x3f178c02	0.5919801
149	0x3f5319a8	0.82461023
150	0xbe16fe0c	-0.14745349
151	0xbf15ca01	-0.5851136
152	0xbea816d4	-0.32829916
153	0xbf0b3e0e	-0.5439156
154	0x3f3d0ef8	0.73850965
155	0x3ffcf0f3	1.9761032
156	0xbe9d1e22	-0.30687052
157	0x3f67b70f	0.905137
158	0x3f4fa372	0.8110877
159	0xbe1a37e6	-0.15060386
160	0xbfcee518	-1.6163664
161	0xc0232599	-2.5491698
162	0xc0148f7b	-2.3212574
163	0xbf4c4c70	-0.79804134
164	0x3dd0294f	0.10164129
165	0x3f912a5f	1.1341056
166	0x4023d7e4	2.560052
167	0x4046869d	3.1019661
168	0xbf92279b	-1.1418337
169	0xc0496de8	-3.1473331
170	0xbff01301	-1.87558
171	0xbd83a176	-0.064272806
172	0xbddaf7f8	-0.106918275
173	0xbd6b0000	-0.057373047
174	0x3c975740	0.018474221
175	0xbd90cf98	-0.07070845
176	0x3d2823cb	0.04104976
177	0x3cc49cb6	0.024000507
178	0x3d8036d3	0.06260457
179	0x3de54e50	0.111965775
180	0xbe7520c8	-0.23938286
181	0xbf2c29c9	-0.6725126
182	0xbf2ef12c	-0.6833675
183	0xbdf64ae9	-0.12026007
184	0xbe8dbf53	-0.2768503
185	0xbf388200	-0.72073364
186	0x3f18dd5c	0.5971277
187	0x3f4d6eee	0.8024739
188	0x3ef1018a	0.47071487
189	0xbec93cf3	-0.39304313
190	0xbe188fd0	-0.1489861
191	0xbede4543	-0.43412217
192	0x3df2ee95	0.11861912
193	0x3eb0bb1d	0.34517756
194	0x3f83161f	1.0241126
195	0x400d3ff3	2.2070282
196	0x401038ba	2.2534623
197	0x3eb072d0	0.34462595
198	0x3f0d7fea	0.55273306
199	0xbf3f6c57	-0.7477469
200	0xbdaf8d3f	-0.085718624
201	0xbec11027	-0.37707636
202	0xbed72e9a	-0.42027742
203	0xbd857d48	-0.06518036
204	0x3fb55604	1.4166875
205	0x3fa73f9e	1.306629
206	0x3f8df489	1.1090251
207	0x3d92d980	0.07170391
208	0xbcdb928b	-0.026803276
209	0x3e279cff	0.16368483
210	0xbda489f3	-0.08034124
211	0xbdeb052e	-0.11475597
212	0xbdf9d03e	-0.12197922
213	0xbe1de360	-0.15418768
214	0xbdd19c36	-0.10234873
215	0x3d9942cb	0.07483443
216	0xbf282190	-0.6567621
217	0x3e10a91c	0.1412701
218	0x3ee98cec	0.45615327
219	0xbf3c16ac	-0.73472095
220	0xbebbc49f	-0.36673447
221	0x3f6efb12	0.9335185
222	0x3e876b5f	0.26449105
223	0xbf13e605	-0.57772857
224	0xbc527ce0	-0.012847155
225	0xbfd8b8cb	-1.6931394
226	0xbfa4f6b4	-1.2887788
227	0x3f55c0e2	0.8349744
228	0x3f405ca4	0.7514136
229	0xc0456397	-3.0842035
230	0xc053c546	-3.3089156
231	0x40321707	2.7826555
232	0x400f3f60	2.238243
233	0x3f0331b0	0.5124769
234	0xc01864a6	-2.381143
235	0xbf0f47ce	-0.5596894
236	0x3f04d50c	0.51887584
237	0xbe115b28	-0.1419493
238	0xbfa4f1c7	-1.2886285
239	0xbf9a2010	-1.2041035
240	0x3fba284c	1.4543548
241	0x3fd336d8	1.6501112
242	0x3ddac3e2	0.10681893
243	0xbde31a8b	-0.11089047
244	0xbd9f0a4b	-0.07765635
245	0x3c0f6c16	0.008753797
246	0x3e10bc24	0.1413427
247	0xbcc6daeb	-0.02427431
248	0x3e19d2ff	0.15021895
249	0xbe1e5eea	-0.15465894
250	0x3d463f86	0.048400424
251	0x3e1e207f	0.15442084
252	0xbec44133	-0.38330993
253	0xbd3d9e09	-0.046293292
254	0x3f155598	0.5833373
255	0x3e24276a	0.1603066

bias f4 [8]
0	0xbfef48df	-1.8694113
1	0x3fb7e9aa	1.4368184
2	0x3e3d6c09	0.18498243
3	0xbf495ae5	-0.7865432
4	0xbf8b1326	-1.0865219
5	0x3eee0692	0.46489388
6	0x40092ab9	2.1432326
7	0x400a7daf	2.163921

weight f4 [29, 512]
0	0x3e8327c4	0.25616276
1	0x3e296405	0.1654206
2	0xbccd9a98	-0.02509813
3	0xbed7d0a6	-0.42151374
4	0xbeecffb6	-0.46288842
5	0xbf0eae5b	-0.55734795
6	0xbe0f7af7	-0.14011751
7	0xbede8c95	-0.4346663
8	0xbe18eb85	-0.14933594
9	0x3ef621be	0.48072618
10	0x3b9f0842	0.0048532793
11	0xbd747083	-0.059677612
12	0xbec34e0f	-0.3814549
13	0xbf75aebd	-0.95969754
14	0xbec16139	-0.37769488
15	0xbe8a73b5	-0.27041402
16	0xbf14e343	-0.58159274
17	0x3f1087e6	0.56457365
18	0x3f1e33f5	0.6179803
19	0x3e25311c	0.16132015
20	0xbec15995	-0.37763658
21	0x3f494218	0.78616476
22	0xbf62b0c5	-0.8855098
23	0xbe0aa12f	-0.13538049
24	0x3e4d708a	0.20062461
25	0x3f0ec176	0.5576395
26	0xbe74d76a	-0.23910299
27	0x3edd34c1	0.4320431
28	0x3ec6d158	0.38831592
29	0xbea32701	-0.31865695
30	0xbeb6bc50	-0.35690546
31	0xbe1dc44b	-0.15406911
32	0x3e60e4e4	0.21962315
33	0x3f086748	0.53282595
34	0x3ea647cf	0.3247666
35	0x3e940dcf	0.28916785
36	0x3e016357	0.12635551
37	0x3e8eab3e	0.27865022
38	0x3edc2b81	0.4300194
39	0xbd5a798f	-0.053338584
40	0x3f211eee	0.6293782
41	0x3eb496bf	0.3527126
42	0x3e92754d	0.28605118
43	0xbe123c5f	-0.14280842
44	0x3e4532b1	0.19257618
45	0xbd57cba7	-0.052684452
46	0x3e191db8	0.14952743
47	0x3ee48a79	0.44636896
48	0x3e01402c	0.12622136
49	0x3c4b8676	0.012422195
50	0xbec759c5	-0.38935676
51	0xbf5abbae	-0.85442626
52	0xbe61e15e	-0.22058627
53	0x3effebbc	0.4998454
54	0xbf322204	-0.69583154
55	0x3e40c0ba	0.1882352
56	0xbff39e83	-1.9032749
57	0xbe4900e4	-0.19629246
58	0x3ec4352f	0.38321826
59	0xbefc0009	-0.49218777
60	0xbc70d7a4	-0.01469985
61	0x3e7e10a5	0.24811037
62	0xbf801bcd	-1.0008484
63	0x3eb7a932	0.35871273
64	0xc1a5a6a7	-20.706373
65	0xc0a8b9dd	-5.2726884
66	0x3ee41ed7	0.4455478
67	0x3f39e77d	0.7261885
68	0x3e7f7605	0.24947365
69	0x3eaf6330	0.34255362
70	0x3ed72c57	0.42026016
71	0x3e801c13	0.2502142
72	0xbe05a1ce	-0.13050005
73	0x3f186b85	0.5953906
74	0x3ea4694f	0.32111594
75	0x3ebe422a	0.37159854
76	0x3e9966df	0.29961297
77	0x3ee49ecc	0.44652402
78	0x3f835a95	1.0262018
79	0xbfc949c8	-1.5725641
80	0x3fd5e9f9	1.6712028
81	0x3f330a57	0.6993765
82	0x3eda0cc1	0.42587855
83	0x3f62e9a4	0.8863776
84	0x3f338872	0.70130074
85	0x3f368d1e	0.7130908
86	0x3fd7d27e	1.6861112
87	0x3d9b7d98	0.075923145
88	0x3f2f6a62	0.685217
89	0x3f4940f1	0.7861472
90	0x3e47d729	0.19515671
91	0x3eebfa68	0.46089482
92	0x3eb1df11	0.347405
93	0x3f38574b	0.720082
94	0x3f696792	0.9117366
95	0xbfb8b326	-1.4429672
96	0x3c8c78ca	0.01714744
97	0x3e97650e	0.29569286
98	0xbd8efdc9	-0.069819994
99	0x3d4a518e	0.049394183
100	0x3e8b636f	0.272243
101	0xbd9fbb61	-0.077994116
102	0x3e2ab159	0.16669215
103	0x3edfb497	0.43692467
104	0xbe981448	-0.29702973
105	0xbe9d988d	-0.3078045
106	0x3e41760b	0.18892686
107	0xbe30fb6d	-0.17283411
108	0x3f1f4836	0.6221956
109	0x3eb8b3d9	0.36074713
110	0x3f5dd2e3	0.8664991
111	0x3dc96939	0.09834523
112	0x3fa843eb	1.3145727
113	0x3e7cdfb3	0.2469471
114	0x3d22eab3	0.039774608
115	0xbef427af	-0.47686526
116	0xbe02ea1c	-0.12784618
117	0x3e0c7e82	0.13720134
118	0xbdac9931	-0.084276564
119	0x3d0c50f0	0.034256876
120	0x3de9843c	0.11402175
121	0xbe517d8a	-0.20458046
122	0xbe95e776	-0.29278153
123	0xbe049a67	-0.12949525
124	0x3e0c2d55	0.13689168
125	0x3d51c310	0.051211417
126	0xbe28ce59	-0.16484965
127	0x3e468c24	0.19389397
128	0xc07f11b1	-3.9854548
129	0xbf03969a	-0.51401675
130	0xbee6ae20	-0.45054722
131	0xbd9eac85	-0.07747749
132	0xbe646376	-0.22303566
133	0xbd85c9fe	-0.065326676
134	0xbd0412ab	-0.032244366
135	0xbeff3647	-0.49846098
136	0x3fd56b56	1.6673381
137	0x3de60955	0.11232249
138	0x3c03264b	0.008004735
139	0xbdd922b1	-0.1060232
140	0x3e855bed	0.26046696
141	0xbf34ae35	-0.7057832
142	0xbfc55359	-1.5416061
143	0xbeb377e9	-0.35052422
144	0xbda5c0e0	-0.080934286
145	0xbc0aa1a0	-0.008461386
146	0xbe33ff78	-0.17577922
147	0xbea56338	-0.3230226
148	0xbec52df9	-0.38511637
149	0x3ee2f2ec	0.4432596
150	0xbe5190e6	-0.2046543
151	0xbef58b91	-0.47958043
152	0x3f4c9d6f	0.79927725
153	0xbddb5fb0	-0.1071161
154	0x3e678a22	0.22611287
155	0xbe872aab	-0.2639974
156	0xbee9607f	-0.45581433
157	0xbf4e8a08	-0.8067937
158	0x3e66760a	0.22505966
159	0xbe8227c6	-0.2542097
160	0x3eeceda8	0.46275067
161	0x3e034d9b	0.12822573
162	0xbea9300c	-0.3304447
163	0xbda80d3f	-0.082056515
164	0xbd9c0d55	-0.076197304
165	0x3f0d1dfa	0.55123866
166	0x3f25d240	0.6477394
167	0x3dbb7cb2	0.09154643
168	0xbded8e91	-0.11599458
169	0x3ccdf6d8	0.025142118
170	0xbb9c37a4	-0.004767375
171	0x3e9ccb00	0.30623627
172	0xbefe1364	-0.4962417
173	0xbe9b1158	-0.3028667
174	0x3f324f30	0.6965208
175	0x3e1bfe56	0.1523374
176	0x3f11e89d	0.56995565
177	0xbe469f59	-0.19396724
178	0xbd8cd805	-0.0687714
179	0x3d846817	0.06465166
180	0x3d4815f1	0.04884905
181	0x3e807ba2	0.25094324
182	0x3e832f63	0.2562209
183	0x3ea795df	0.3273153
184	0x3ef5b00a	0.4798587
185	0x3e921aad	0.28535977
186	0x3ead4481	0.33841327
187	0x3f54d047	0.83130306
188	0x3f0e724b	0.5564315
189	0x3d704115	0.058655817
190	0xbdc8da91	-0.09807313
191	0x3e4e9677	0.20174585
192	0x3d4b8ea9	0.0496966
193	0xbfb2ab72	-1.3958571
194	0xbfbf066f	-1.4923838
195	0xbe819ce6	-0.25315017
196	0xbd5d7793	-0.054069113
197	0x3d866e23	0.06563976
198	0xbee4df0b	-0.44701418
199	0x3e23f57f	0.16011618
200	0xbe6eec96	-0.23332438
201	0x3ef0e8f8	0.4705274
202	0x3eeeef79	0.46667078
203	0x3d625af1	0.05526251
204	0x3e052f8a	0.13006416
205	0xbf01dec2	-0.50730526
206	0x3f8a68e4	1.081326
207	0x3f6d00ec	0.9257953
208	0x3f66f721	0.9022084
209	0x3ebe2348	0.37136292
210	0xbf35ec91	-0.71064097
211	0xbf5e3ca5	-0.86811286
212	0xbe979170	-0.29603148
213	0xbdd1d724	-0.10246113
214	0xbfb40955	-1.4065348
215	0x3ea09e79	0.31370905
216	0x3f4f394c	0.80946803
217	0xbfc5bd66	-1.5448425
218	0xbf80f0f5	-1.0073534
219	0xbe765049	-0.24054064
220	0xbf54356f	-0.82894033
221	0xbf8de8e1	-1.1086694
222	0xbf999a5b	-1.200023
223	0x3f00422a	0.5010096
224	0x3f64df00	0.8940277
225	0xbeb9c31c	-0.3628167
226	0xbf16bcff	-0.58882135
227	0xbf37b6aa	-0.717631
228	0xbf089fd2	-0.53368866
229	0x3dff4ab9	0.12465424
230	0xbeca4a9e	-0.39510053
231	0xbf4944f6	-0.7862085
232	0x3f795711	0.9739848
233	0xbf30316c	-0.6882541
234	0xbf657c5d	-0.8964289
235	0xbec3e035	-0.38256994
236	0xbeb5b289	-0.35487774
237	0xbedfad5d	-0.43686953
238	0xbdcbdd18	-0.0995428
239	0xbf8e0019	-1.109378
240	0x3fa57aaf	1.2928065
241	0x3edc68d8	0.4304874
242	0x3f204f77	0.62621254
243	0xbf5f7f2f	-0.8730344
244	0xbf496756	-0.78673303
245	0xbfaaa7cd	-1.3332459
246	0xbfe2f96a	-1.7732365
247	0xbfa81ff0	-1.3134747
248	0x3d66ae07	0.05631831
249	0xbe8fbefc	-0.28075397
250	0xbe620ce0	-0.22075224
251	0xbdaee648	-0.085400164
252	0x3e7dccec	0.24785203
253	0x3e257673	0.16158466
254	0x3e35fa68	0.17771304
255	0x3ecaf1d8	0.39637637

bias f4 [29]
0	0xbdd42069	-0.10357744
1	0x3e708c84	0.23491102
2	0xbe7d3168	-0.24725878
3	0x3e1d79e3	0.15378527
4	0xbe017ddd	-0.1264567
5	0xbd8ad922	-0.06779696
6	0xbdeffb7e	-0.1171789
7	0x3db96662	0.09052731
8	0x3ee08dab	0.43858084
9	0xbe12d762	-0.14339975
10	0x3eaf0bb9	0.3418863
11	0xbf0efe83	-0.55857104
12	0xbeee01af	-0.4648566
13	0x3e8a1fd4	0.26977408
14	0xbf3fc525	-0.74910194
15	0xbea8c0a8	-0.32959485
16	0xbd47a099	-0.048737142
17	0x3f0d14ef	0.5511007
18	0xbea231ba	-0.31678563
19	0x3e936ed2	0.28795487
20	0xbeb7736d	-0.3583025
21	0x3efecff8	0.49768043
22	0x3d65f144	0.056138292
23	0x3f14326f	0.57889456
24	0xbee5dd8c	-0.4489559
25	0x3deb6c21	0.11495233
26	0x3e2fcc9f	0.171679
27	0x3e57ca83	0.21073346
28	0xbe83d5ca	-0.25749046
