workspace-rich/checkpoints_backup/230830/checkpoint_98.34.pth (torch, 64671 bytes, 6 tensors)

weight f4 [4, 1, 3, 3]
0	0x3eea9d55	0.4582316
1	0x3dfb40c9	0.12268216
2	0x3fa235f4	1.2672715
3	0x400dc228	2.2149754
4	0x4017bb1e	2.3707957
5	0x40086e57	2.1317346
6	0x3fb1dc65	1.3895384
7	0x3fedc842	1.8576739
8	0x40026fb1	2.038067
9	0x3e1b52cf	0.15168308
10	0xbf4463a6	-0.7671455
11	0xbf7b31f8	-0.9812312
12	0xbf38e5d8	-0.72225714
13	0xbf174809	-0.5909429
14	0xbdceb8bc	-0.10093829
15	0x3ee6b659	0.45060995
16	0x3f816c03	1.0111088
17	0x3fcf3d94	1.6190667
18	0xbedb6374	-0.42849314
19	0xbf923a17	-1.1423978
20	0xbf9835db	-1.1891435
21	0x3fae9d13	1.3641685
22	0x3f29d9fa	0.6634823
23	0xbf371604	-0.7151797
24	0x3f9140e1	1.1347924
25	0x3f0e11a6	0.5549568
26	0x3f0994aa	0.5374247
27	0xbd8a421b	-0.0675089
28	0xbe4343db	-0.19068854
29	0xbdf754d0	-0.120767236
30	0xbdbb4086	-0.09143166
31	0xbe0693a3	-0.13142256
32	0x3e90a8a2	0.28253657
33	0x3e61fcc8	0.22069085
34	0xbe816848	-0.25274873
35	0xbd911f56	-0.07086055

bias f4 [4]
0	0xc00d84ac	-2.2112226
1	0xbc8f829a	-0.01751833
2	0xbe737f36	-0.23778996
3	0xbea76c32	-0.32699734

weight f4 [8, 4, 3, 3]
0	0xbe7efc4d	-0.24900933
1	0xbedbc9dd	-0.42927447
2	0xbe1ad00c	-0.15118426
3	0x3e5fd60a	0.21858993
4	0xbe87eece	-0.2654938
5	0xbe2e7c54	-0.17039615
6	0x3f0f8509	0.5606237
7	0x3ec6ef66	0.38854522
8	0x3e93563f	0.28776738
9	0x3e9567d3	0.29180774
10	0x3e1a5de5	0.1507488
11	0x3dcef8ac	0.10106024
12	0xbf75bdb0	-0.95992565
13	0xbed839c0	-0.4223156
14	0xbf8bed4b	-1.0931791
15	0xbfa2f889	-1.2732097
16	0xbf362995	-0.711572
17	0xbf741c45	-0.95355636
18	0x3f164f4c	0.5871475
19	0xbeff1803	-0.49823007
20	0xbe402ab0	-0.18766284
21	0x3f15d3b3	0.5852615
22	0x3f94c3cf	1.1622256
23	0x3e82bee7	0.25536272
24	0xbe45174c	-0.19247168
25	0x40053d93	2.0818832
26	0x3fc96904	1.5735173
27	0x3d61d70b	0.05513672
28	0x3d0dc666	0.034613036
29	0xbdbc8ea8	-0.09206897
30	0x3e1eb64e	0.15499231
31	0x3e1640d8	0.14673173
32	0x3da7e74b	0.081984125
33	0xbe268ac6	-0.16263875
34	0xbd66f206	-0.056383155
35	0xbd9855e6	-0.07438259
36	0x3edf5bc3	0.43624696
37	0x3f24b65f	0.64340776
38	0x3e2cd576	0.16878304
39	0x3efa3f2e	0.48876327
40	0x3d366f29	0.044539604
41	0xbf462d45	-0.77412826
42	0x3e533e24	0.20629174
43	0xbf02abcc	-0.5104339
44	0xbefc25d1	-0.49247602
45	0x40684bae	3.6296191
46	0x3eea3a02	0.4574738
47	0xbff16d16	-1.8861415
48	0xc000375e	-2.0033793
49	0xc063ef68	-3.5614872
50	0xbef638bd	-0.48090163
51	0xbf3fe299	-0.74955136
52	0x3fa3a028	1.2783251
53	0x4026af57	2.604452
54	0xbd03b8e9	-0.032158766
55	0xbe316dbe	-0.1732702
56	0xbd111826	-0.03542342
57	0xbff3ef4f	-1.9057406
58	0xc04473cc	-3.0695677
59	0xc00b6af6	-2.1784034
60	0xbfea324c	-1.8296599
61	0xc0541aa0	-3.314125
62	0xbfc13024	-1.5092816
63	0x3e0b65a2	0.13612989
64	0xbdfe7233	-0.124241255
65	0xbdbacf8b	-0.09121617
66	0x3d5a80d6	0.053345524
67	0xbc369fd6	-0.011146506
68	0xbc9f8316	-0.019471686
69	0x3e1bd69e	0.15218589
70	0x3ca5b2c0	0.020226836
71	0x3ddcc930	0.10780561
72	0x3f29654e	0.66170204
73	0x3e1339e1	0.14377548
74	0xbf071cc7	-0.52778286
75	0x3eea7848	0.45794892
76	0xbed139d7	-0.4086444
77	0xbee3761c	-0.44426048
78	0x3f37b603	0.717621
79	0xbf56c509	-0.838944
80	0xbea4b81c	-0.32171714
81	0x3f95f1bf	1.17144
82	0xbea0b78f	-0.31390044
83	0x3f464a34	0.77456975
84	0x3e38c4de	0.18043849
85	0xc0269e0b	-2.6033962
86	0x3f792fbd	0.9733847
87	0xbfbcec63	-1.475964
88	0xbfa8c92d	-1.3186394
89	0x3f5a5fc6	0.8530239
90	0xbe457e25	-0.19286402
91	0x3e43e8dc	0.19131798
92	0x3ff2910b	1.8950514
93	0x3ef51a1d	0.47871485
94	0x3f366d3c	0.7126043
95	0x3f7d8bf8	0.990417
96	0x3f0338a4	0.512583
97	0x3ece05ce	0.40238804
98	0xbeb4fc40	-0.353487
99	0x3cc5a30b	0.024125597
100	0x3e224830	0.1584785
101	0x3e025d46	0.12730893
102	0xbda1e538	-0.07905048
103	0x3e094f54	0.13409168
104	0xbc078bc0	-0.008273065
105	0x3e105a57	0.14096962
106	0x3d9dcac0	0.07704687
107	0xbd970b3b	-0.07375189
108	0x3d649a00	0.05581093
109	0x3f1c4bd3	0.610532
110	0x3df07b00	0.117422104
111	0xbf038cd4	-0.5138676
112	0xbe23af39	-0.15984811
113	0xba400542	-0.0007325002
114	0xbe002ef7	-0.12517916
115	0xbeab9b8a	-0.33517104
116	0xbe85c5b6	-0.26127404
117	0x402d491b	2.707587
118	0x407783ff	3.8674314
119	0x402a4508	2.6604633
120	0xbfa3776d	-1.2770821
121	0xbfb98a2e	-1.4495294
122	0x3f5bf659	0.8592277
123	0x4010d437	2.2629526
124	0x4031a475	2.7756627
125	0x3fe9d487	1.8267983
126	0x3f6efe20	0.93356514
127	0x3fe4418e	1.7832506
128	0x3fc8feb0	1.5702724
129	0xbe824896	-0.25446004
130	0xbfbf6de2	-1.4955409
131	0xbe87cf6a	-0.26525432
132	0x3e9a98ef	0.30194804
133	0x3e7b918a	0.24567237
134	0xbf2680f9	-0.65040547
135	0xbd890a43	-0.066914104
136	0x3e03595b	0.12827055
137	0xbe07c8c6	-0.13260183
138	0x3df9deb3	0.1220068
139	0xbcaf6f0b	-0.021415254
140	0xbe17ce0c	-0.14824694
141	0xbd4104c0	-0.04712367
142	0xbe222374	-0.15833837
143	0x3ce1cde0	0.02756399
144	0xbece9e5c	-0.40355194
145	0x3b0f3729	0.0021852946
146	0x3b984f8c	0.0046481546
147	0x3e1e6a38	0.15470207
148	0x3f12b31b	0.57304543
149	0x3f502952	0.8131305
150	0xbe0b809e	-0.13623282
151	0xbf155a7e	-0.58341205
152	0xbea52e8b	-0.32262072
153	0xbf0cd667	-0.5501465
154	0x3f37c9e2	0.71792424
155	0x3ffc1346	1.9693382
156	0xbe9d7a70	-0.30757475
157	0x3f63d17a	0.8899151
158	0x3f48644e	0.7827805
159	0xbdf8830b	-0.121343695
160	0xbfcac996	-1.5842769
161	0xc0207a25	-2.507455
162	0xc01382c5	-2.3048565
163	0xbf4c1c60	-0.79730797
164	0x3df46ae2	0.11934449
165	0x3f90a60b	1.1300672
166	0x4022a5cb	2.5413692
167	0x4044f7a1	3.077614
168	0xbf90604f	-1.1279391
169	0xc0477332	-3.116406
170	0xbfed0bcb	-1.8519224
171	0xbd83a176	-0.064272806
172	0xbddaf7f8	-0.106918275
173	0xbd6b0000	-0.057373047
174	0x3c975740	0.018474221
175	0xbd90cf98	-0.07070845
176	0x3d2823cb	0.04104976
177	0x3cc49cb6	0.024000507
178	0x3d8036d3	0.06260457
179	0x3de54e50	0.111965775
180	0xbe6c2f2d	-0.23064871
181	0xbf2af04d	-0.6677292
182	0xbf2ce007	-0.6752934
183	0xbdf318ec	-0.11869988
184	0xbe8efdce	-0.27928013
185	0xbf39c4ed	-0.7256611
186	0x3f14d96b	0.58144253
187	0x3f47fd94	0.78121305
188	0x3ee89570	0.45426512
189	0xbecf9ff5	-0.40551725
190	0xbe1fe4fb	-0.15614693
191	0xbedcae2f	-0.43101642
192	0x3db8be70	0.09020698
193	0x3ea62819	0.32452467
194	0x3f7d7c09	0.9901739
195	0x400b3038	2.174818
196	0x400d9f97	2.2128656
197	0x3e9f9e49	0.3117545
198	0x3f0c0f18	0.5471053
199	0xbf415798	-0.7552428
200	0xbdcf8bc6	-0.101340815
201	0xbecd5098	-0.4010055
202	0xbed7f391	-0.42178014
203	0xbd903c28	-0.07042724
204	0x3fb2acb7	1.3958958
205	0x3fa5ea60	1.296215
206	0x3f8e2bde	1.1107137
207	0x3d92d980	0.07170391
208	0xbcdb928b	-0.026803276
209	0x3e279cff	0.16368483
210	0xbda489f3	-0.08034124
211	0xbdeb052e	-0.11475597
212	0xbdf9d03e	-0.12197922
213	0xbe1de360	-0.15418768
214	0xbdd19c36	-0.10234873
215	0x3d9942cb	0.07483443
216	0xbf251295	-0.6448148
217	0x3e0d2be9	0.13786282
218	0x3ee5cef3	0.44884452
219	0xbf3b6832	-0.73205864
220	0xbeba1440	-0.36343575
221	0x3f6d479c	0.9268739
222	0x3e8404d2	0.25784928
223	0xbf13f866	-0.578009
224	0xbc9f2246	-0.019425523
225	0xbfd9e2fa	-1.7022393
226	0xbfa502a4	-1.2891431
227	0x3f570cce	0.84003913
228	0x3f37055b	0.71492547
229	0xc0446ab6	-3.069013
230	0xc0516cdb	-3.272269
231	0x4031658e	2.7718234
232	0x400f05a7	2.23472
233	0x3efc97d0	0.49334574
234	0xc01646fe	-2.348083
235	0xbf0634ed	-0.5242451
236	0x3f0719fd	0.5277403
237	0xbe2f4013	-0.17114286
238	0xbfa766aa	-1.3078206
239	0xbf97bd89	-1.1854717
240	0x3fb8540d	1.440065
241	0x3fd15b14	1.635592
242	0x3deb2406	0.1148148
243	0xbde31a8b	-0.11089047
244	0xbd9f0a4b	-0.07765635
245	0x3c0f6c16	0.008753797
246	0x3e10bc24	0.1413427
247	0xbcc6daeb	-0.02427431
248	0x3e19d2ff	0.15021895
249	0xbe1e5eea	-0.15465894
250	0x3d463f86	0.048400424
251	0x3e1e207f	0.15442084
252	0xbec1a228	-0.37819028
253	0xbd59bc61	-0.053158168
254	0x3f129e62	0.57272923
255	0x3e240c58	0.16020334

bias f4 [8]
0	0xbfec7856	-1.8474224
1	0x3fb11f76	1.3837726
2	0x3e2914c7	0.16511832
3	0xbf4815f7	-0.78158516
4	0xbf865062	-1.0493281
5	0x3ee7dc7c	0.45285404
6	0x40079a19	2.1187804
7	0x40078e01	2.1180422

weight f4 [29, 512]
0	0x3e7efc38	0.24900901
1	0x3e1e73cc	0.1547386
2	0xbced606a	-0.028976638
3	0xbed52c0a	-0.41635162
4	0xbeeaaa64	-0.45833123
5	0xbf114afe	-0.56755054
6	0xbe1b8d5f	-0.15190648
7	0xbedeea42	-0.435381
8	0xbe181feb	-0.14855926
9	0x3ef06762	0.46953875
10	0x3baaf571	0.005217247
11	0xbd7c3fc2	-0.06158424
12	0xbec6444f	-0.3872399
13	0xbf720abb	-0.94547623
14	0xbec3b7f2	-0.38226277
15	0xbe885227	-0.26625177
16	0xbf14faf1	-0.58195406
17	0x3f0e8468	0.55670786
18	0x3f1c3481	0.61017615
19	0x3e220690	0.15822816
20	0xbeca02cc	-0.3945526
21	0x3f4c9834	0.79919744
22	0xbf69cff0	-0.9133291
23	0xbe00dce4	-0.12584263
24	0x3e5303ea	0.20606962
25	0x3f07824e	0.52933204
26	0xbe7aae8c	-0.24480647
27	0x3edbafd0	0.42907572
28	0x3eb485de	0.35258383
29	0xbe971822	-0.295106
30	0xbec73b90	-0.3891263
31	0xbe1a43a4	-0.15064865
32	0x3e64c04b	0.22338979
33	0x3f08701a	0.53296053
34	0x3ea668dc	0.32501876
35	0x3e9ed9a5	0.31025425
36	0x3dde074e	0.10841237
37	0x3e97afd8	0.29626346
38	0x3ed90859	0.4238918
39	0xbd20a008	-0.039215118
40	0x3f218d54	0.63106275
41	0x3eb76c74	0.3582493
42	0x3e937fac	0.28808343
43	0xbe089922	-0.13339666
44	0x3e4766a3	0.19472747
45	0xbd8f0e31	-0.06985129
46	0x3e22e148	0.1590625
47	0x3ee543fd	0.44778433
48	0x3e044fe0	0.12921095
49	0x3c272024	0.010200534
50	0xbec96ea3	-0.39342222
51	0xbf564823	-0.8370382
52	0xbe582542	-0.21107963
53	0x3ef93bcd	0.48678437
54	0xbf31071b	-0.6915147
55	0x3e42bdac	0.19017667
56	0xbfefa63d	-1.8722607
57	0xbe412703	-0.18862538
58	0x3eb8ca4d	0.36091843
59	0xbefb5ff8	-0.49096656
60	0x3919b382	0.00014658089
61	0x3e7791b9	0.24176683
62	0xbf7f243e	-0.99664676
63	0x3eb6daaf	0.35713717
64	0xc1a3e0d1	-20.484774
65	0xc0a7ffbb	-5.249967
66	0x3eecea8f	0.46272704
67	0x3f3dd836	0.74158037
68	0x3e800f0b	0.25011477
69	0x3eb08c7d	0.34482184
70	0x3eecab2f	0.46224353
71	0x3e81ec32	0.25375515
72	0xbd84d8b1	-0.06486643
73	0x3f17e197	0.593286
74	0x3ea9146a	0.33023387
75	0x3ec8aa81	0.39192584
76	0x3e97bd7c	0.29636753
77	0x3ed5560c	0.4166721
78	0x3f83ff67	1.0312318
79	0xbfc745e8	-1.5568209
80	0x3fd1421f	1.6348304
81	0x3f2fc502	0.68659985
82	0x3edc0d33	0.4297882
83	0x3f6366ed	0.8882893
84	0x3f3660c7	0.7124142
85	0x3f3dda1c	0.74160933
86	0x3fd72d62	1.6810725
87	0x3d32dd20	0.043667912
88	0x3f3880fe	0.72071826
89	0x3f4eda23	0.808016
90	0x3e555992	0.2083495
91	0x3eedb823	0.46429548
92	0x3eb549a1	0.35407737
93	0x3f324766	0.69640195
94	0x3f6d12ab	0.9260661
95	0xbfb56e81	-1.4174348
96	0x3bfc2b00	0.0076955557
97	0x3ea20eac	0.3165182
98	0xbd469f59	-0.04849181
99	0x3d6b412a	0.057435192
100	0x3e81ec51	0.25375608
101	0xbd863f3b	-0.06555029
102	0x3e180b32	0.1484802
103	0x3eccb4f0	0.39981794
104	0xbe92c5ec	-0.28666627
105	0xbe9c725b	-0.30555996
106	0x3e78f42b	0.24311893
107	0xbe180a60	-0.14847708
108	0x3f2036c5	0.6258357
109	0x3ed0083b	0.4063128
110	0x3f623e7d	0.883766
111	0x3dc3c12e	0.095583305
112	0x3fa54182	1.2910616
113	0x3e7a52a8	0.24445593
114	0x3d4b0c95	0.049572546
115	0xbeef3f8e	-0.46728176
116	0xbdec2961	-0.1153133
117	0x3e1543de	0.1457667
118	0xbde59721	-0.11210466
119	0x3d040956	0.032235466
120	0x3de2e5b9	0.11078972
121	0xbe50dcf2	-0.20396784
122	0xbe96115f	-0.29310128
123	0xbdface7e	-0.122464165
124	0x3e0d82db	0.13819449
125	0x3d700a83	0.058603775
126	0xbe151144	-0.14557368
127	0x3e46f0d0	0.194278
128	0xc07c00d2	-3.93755
129	0xbef09647	-0.46989653
130	0xbee568b0	-0.44806433
131	0xbd93f799	-0.0722496
132	0xbe5e4878	-0.21707332
133	0xbd840fcc	-0.064483255
134	0xbd14459f	-0.03619921
135	0xbefeba03	-0.4975129
136	0x3fcc3f22	1.5956767
137	0x3e070360	0.13184881
138	0x3b16592b	0.0022941332
139	0xbdcce7cc	-0.10005149
140	0x3e83338a	0.2562526
141	0xbf33d893	-0.7025234
142	0xbfcda62e	-1.6066339
143	0xbeb07b39	-0.3446901
144	0xbd38cf6f	-0.0451197
145	0xbc94d538	-0.018168077
146	0xbe281a9d	-0.16416402
147	0xbea049ae	-0.31306213
148	0xbecc0253	-0.39845523
149	0x3ee00d7c	0.43760288
150	0xbe6d674c	-0.23183936
151	0xbef115fc	-0.47087085
152	0x3f458302	0.7715303
153	0xbdd24511	-0.102670796
154	0x3e600082	0.21875194
155	0xbe875e76	-0.26439255
156	0xbefba513	-0.4914938
157	0xbf4e74d9	-0.80647045
158	0x3e5dcf08	0.21661007
159	0xbe7a345f	-0.2443404
160	0x3eec7b8c	0.4618801
161	0x3def446e	0.11682974
162	0xbea38e87	-0.31944677
163	0xbda06afd	-0.078329064
164	0xbdf244d2	-0.11829533
165	0x3f0f8a67	0.5607056
166	0x3f1b6d4b	0.6071364
167	0x3db83d84	0.08996108
168	0xbd9b5b35	-0.07585756
169	0x3d3e83d9	0.04651246
170	0xbc0bdaff	-0.008536099
171	0x3e989444	0.29800618
172	0xbf00b1bf	-0.5027122
173	0xbe8c0118	-0.27344584
174	0x3f33f59a	0.70296633
175	0x3e29fa48	0.16599381
176	0x3f0e40cf	0.5556764
177	0xbe1afbe4	-0.15135151
178	0xbda16d54	-0.07882181
179	0x3d1faf80	0.03898573
180	0x3d986571	0.074412234
181	0x3e8afda1	0.27146628
182	0x3e674576	0.22585091
183	0x3eaaa660	0.3333006
184	0x3ef62d3f	0.48081395
185	0x3e95cfc8	0.29260087
186	0x3ea8adb6	0.3294503
187	0x3f4e5051	0.80591303
188	0x3f11f6e9	0.5701738
189	0x3d86883b	0.06568953
190	0xbe0a4811	-0.13504054
191	0x3e4fa170	0.20276427
192	0x3d5c2115	0.053742487
193	0xbfb25807	-1.3933114
194	0xbfbe7cae	-1.4881799
195	0xbe82f1e7	-0.25575182
196	0xbd70ba7e	-0.058771603
197	0x3d7c18aa	0.06154696
198	0xbee2f030	-0.44323874
199	0x3e1f3222	0.15546468
200	0xbe66af35	-0.22527774
201	0x3ef27e42	0.47361952
202	0x3eee5957	0.46552536
203	0x3d34d7aa	0.044150986
204	0x3dde97f5	0.10868827
205	0xbf05c3aa	-0.52251685
206	0x3f878624	1.0587811
207	0x3f6dd9b2	0.929103
208	0x3f63a2b9	0.8892017
209	0x3ed68f9f	0.4190645
210	0xbf30c6e7	-0.690535
211	0xbf5865e8	-0.84530497
212	0xbe8f6ea6	-0.28014106
213	0xbd91a09d	-0.07110713
214	0xbfaaae9f	-1.333454
215	0x3e9ab0d0	0.30213022
216	0x3f4c7ba7	0.7987618
217	0xbfbb2deb	-1.4623388
218	0xbf83a77a	-1.0285485
219	0xbe56b2b1	-0.20966603
220	0xbf5094b0	-0.8147688
221	0xbf8b0757	-1.0861615
222	0xbf95fe94	-1.1718316
223	0x3ee76814	0.45196593
224	0x3f6180cf	0.8808717
225	0xbeb48a6f	-0.35261866
226	0xbf0e3413	-0.5554821
227	0xbf392f5d	-0.72337896
228	0xbf05301d	-0.5202654
229	0x3dea208e	0.114319906
230	0xbec1f0df	-0.37879083
231	0xbf432adf	-0.7623729
232	0x3f7a5ece	0.9780091
233	0xbf21b2c7	-0.6316342
234	0xbf5c19d3	-0.85976905
235	0xbeba9c96	-0.3644759
236	0xbebb9f6f	-0.36645076
237	0xbee05b91	-0.4381986
238	0xbdb36514	-0.087595135
239	0xbf8dd8db	-1.1081804
240	0x3fa4941b	1.2857698
241	0x3ec29481	0.38003924
242	0x3f1d122f	0.6135587
243	0xbf62b712	-0.88560593
244	0xbf50c87a	-0.815559
245	0xbfa9a60d	-1.32538
246	0xbfe367ac	-1.7766013
247	0xbfacd143	-1.3501362
248	0x3d63d3d6	0.055621944
249	0xbe8bd48b	-0.27310595
250	0xbe5295fc	-0.20565027
251	0xbda5d3d3	-0.08097043
252	0x3e827027	0.2547619
253	0x3e332d23	0.17497687
254	0x3e39fcb2	0.18162802
255	0x3ec80788	0.39068246

bias f4 [29]
0	0xbdd219ba	-0.10258813
1	0x3e6ce359	0.23133601
2	0xbe7b4d41	-0.24541189
3	0x3e1ec8ba	0.15506259
4	0xbe0171f7	-0.1264113
5	0xbd80fb6e	-0.062979564
6	0xbdeb5a90	-0.11491883
7	0x3db61e5c	0.08892509
8	0x3edf95d0	0.43668985
9	0xbe0c54d3	-0.13704233
10	0x3eab7c35	0.334932
11	0xbf0cbc2b	-0.5497462
12	0xbee73029	-0.4515393
13	0x3e85050a	0.25980407
14	0xbf3df80d	-0.7420662
15	0xbea59faf	-0.3234839
16	0xbd32f19e	-0.043687455
17	0x3f0b57b5	0.54430705
18	0xbe9e44e3	-0.3091193
19	0x3e91bf98	0.28466487
20	0xbeb306a3	-0.34966
21	0x3efb006d	0.49023762
22	0x3d6859a5	0.056726117
23	0x3f115521	0.5677052
24	0xbee17ccd	-0.44040528
25	0x3df3e409	0.11908729
26	0x3e2fa010	0.17150903
27	0x3e51343d	0.20430084
28	0xbe80b89c	-0.25140846
