workspace-rich/checkpoints_backup/230830/checkpoint_98.46.pth (torch, 64671 bytes, 6 tensors)

weight f4 [4, 1, 3, 3]
0	0x3f0214f1	0.50813204
1	0x3e2a6ca9	0.16643013
2	0x3fa753da	1.3072464
3	0x40119df0	2.2752647
4	0x401b8668	2.4300785
5	0x400bbafa	2.1832871
6	0x3fb72d46	1.4310691
7	0x3ff2e52f	1.8976191
8	0x400568ee	2.0845294
9	0x3e0cbb13	0.13743238
10	0xbf47f44e	-0.78107154
11	0xbf80885b	-1.0041612
12	0xbf3960e4	-0.7241347
13	0xbf17dba1	-0.593195
14	0xbdd8c995	-0.10585324
15	0x3eee0dd0	0.46494913
16	0x3f846e49	1.0346156
17	0x3fd13db3	1.6346954
18	0xbedc0712	-0.42974144
19	0xbf93de8e	-1.1552293
20	0xbf9a57a8	-1.2058
21	0x3fb05c11	1.3778096
22	0x3f2ae16d	0.6675022
23	0xbf3999a5	-0.7250007
24	0x3f930e3f	1.1488723
25	0x3f111da8	0.56685877
26	0x3f0c74c7	0.5486569
27	0xbd8a421b	-0.0675089
28	0xbe4343db	-0.19068854
29	0xbdf754d0	-0.120767236
30	0xbdbb4086	-0.09143166
31	0xbe0693a3	-0.13142256
32	0x3e90a8a2	0.28253657
33	0x3e61fcc8	0.22069085
34	0xbe816848	-0.25274873
35	0xbd911f56	-0.07086055

bias f4 [4]
0	0xc00f2a49	-2.236956
1	0xbc60ff36	-0.013732722
2	0xbe755a95	-0.23960336
3	0xbea76c32	-0.32699734

weight f4 [8, 4, 3, 3]
0	0xbe812c6c	-0.25229204
1	0xbee0eca2	-0.43930537
2	0xbe262514	-0.16225082
3	0x3e67d2bd	0.22638984
4	0xbe87f614	-0.2655493
5	0xbe35242c	-0.1768958
6	0x3f11bcd3	0.5692875
7	0x3eca3782	0.39495474
8	0x3e94617e	0.2898063
9	0x3e98069e	0.2969255
10	0x3e2f1c7d	0.17100711
11	0x3e005a9d	0.12534566
12	0xbf7577d0	-0.95885944
13	0xbed69117	-0.4190757
14	0xbf8a0ab3	-1.0784515
15	0xbfa2e730	-1.2726803
16	0xbf341884	-0.7034991
17	0xbf719d45	-0.943806
18	0x3f20fc91	0.62885386
19	0xbef6cd1a	-0.48203355
20	0xbe363520	-0.17793703
21	0x3f20144b	0.62530965
22	0x3f98b5b9	1.1930457
23	0x3e8860c0	0.26636314
24	0xbe29bf15	-0.16576798
25	0x40076439	2.115492
26	0x3fcd5ec3	1.6044544
27	0x3d61d70b	0.05513672
28	0x3d0dc666	0.034613036
29	0xbdbc8ea8	-0.09206897
30	0x3e1eb64e	0.15499231
31	0x3e1640d8	0.14673173
32	0x3da7e74b	0.081984125
33	0xbe268ac6	-0.16263875
34	0xbd66f206	-0.056383155
35	0xbd9855e6	-0.07438259
36	0x3ee6b8c6	0.45062846
37	0x3f280d92	0.65645707
38	0x3e308ca3	0.17241149
39	0x3efc1b0a	0.4923938
40	0x3d36e9b3	0.044656467
41	0xbf473843	-0.77820224
42	0x3e4944e5	0.19655187
43	0xbf06ed87	-0.5270619
44	0xbf0277c9	-0.5096403
45	0x4069d98b	3.6539028
46	0x3ee90cdc	0.45517623
47	0xbff31463	-1.8990597
48	0xc001e0bb	-2.0293415
49	0xc062d417	-3.544195
50	0xbef90eca	-0.48644096
51	0xbf410793	-0.7540218
52	0x3fa7bc1d	1.3104283
53	0x4026ed43	2.6082313
54	0xbd3ce843	-0.04611994
55	0xbe3db384	-0.18525511
56	0xbd405ca2	-0.04696334
57	0xbff6fdd3	-1.9296211
58	0xc0452126	-3.0801482
59	0xc00a1889	-2.1577475
60	0xbfec54e1	-1.8463403
61	0xc054bb91	-3.3239481
62	0xbfc17dcb	-1.5116514
63	0x3e0b65a2	0.13612989
64	0xbdfe7233	-0.124241255
65	0xbdbacf8b	-0.09121617
66	0x3d5a80d6	0.053345524
67	0xbc369fd6	-0.011146506
68	0xbc9f8316	-0.019471686
69	0x3e1bd69e	0.15218589
70	0x3ca5b2c0	0.020226836
71	0x3ddcc930	0.10780561
72	0x3f2c990b	0.67421025
73	0x3e17be3c	0.14818662
74	0xbf0b2296	-0.5434965
75	0x3ef06dd7	0.469588
76	0xbece0ffc	-0.4024657
77	0xbee94cfb	-0.45566544
78	0x3f399f75	0.7250894
79	0xbf588988	-0.84584856
80	0xbeab19dd	-0.3341817
81	0x3f96d228	1.1782885
82	0xbe97e651	-0.29667905
83	0x3f476cf4	0.77900624
84	0x3e28e5de	0.16493937
85	0xc027a7e1	-2.6196215
86	0x3f7b733a	0.98222697
87	0xbfba87b7	-1.4572667
88	0xbfa61b3a	-1.2977059
89	0x3f5def85	0.866936
90	0xbe4c931f	-0.19977997
91	0x3e523adc	0.20530266
92	0x3ff32c34	1.8997865
93	0x3ef13a92	0.47114998
94	0x3f3a833d	0.72856504
95	0x3f81549e	1.0103948
96	0x3f068b2a	0.525561
97	0x3ed77b19	0.42086104
98	0xbeb808df	-0.35944268
99	0x3cc5a30b	0.024125597
100	0x3e224830	0.1584785
101	0x3e025d46	0.12730893
102	0xbda1e538	-0.07905048
103	0x3e094f54	0.13409168
104	0xbc078bc0	-0.008273065
105	0x3e105a57	0.14096962
106	0x3d9dcac0	0.07704687
107	0xbd970b3b	-0.07375189
108	0x3d62bd88	0.055356532
109	0x3f1eddf7	0.6205744
110	0x3e0454d9	0.12922992
111	0xbf03d900	-0.5150299
112	0xbe20e96e	-0.15714046
113	0x3bcadc9c	0.0061908495
114	0xbe05b40d	-0.13056965
115	0xbeb1099f	-0.34577653
116	0xbe85999f	-0.26093766
117	0x402ead34	2.7293215
118	0x407a4951	3.9107249
119	0x402d379c	2.7065191
120	0xbfa133de	-1.2593954
121	0xbfb4747b	-1.4098047
122	0x3f5c12f2	0.8596641
123	0x40127463	2.2883537
124	0x403240fc	2.7852163
125	0x3febde5c	1.8427234
126	0x3f77cd55	0.96797687
127	0x3fe8c7e6	1.8186004
128	0x3fcd578a	1.604234
129	0xbe77d57f	-0.24202536
130	0xbfbf0c33	-1.4925598
131	0xbe89f70a	-0.26946288
132	0x3e9a4657	0.3013179
133	0x3e778e85	0.2417546
134	0xbf2ca394	-0.674371
135	0xbd890a43	-0.066914104
136	0x3e03595b	0.12827055
137	0xbe07c8c6	-0.13260183
138	0x3df9deb3	0.1220068
139	0xbcaf6f0b	-0.021415254
140	0xbe17ce0c	-0.14824694
141	0xbd4104c0	-0.04712367
142	0xbe222374	-0.15833837
143	0x3ce1cde0	0.02756399
144	0xbed46993	-0.41486797
145	0x3c02c1ec	0.007980805
146	0x3c14706c	0.009060007
147	0x3e208867	0.15677033
148	0x3f170243	0.58987826
149	0x3f52df72	0.823722
150	0xbe14f60e	-0.14546987
151	0xbf156fb4	-0.5837357
152	0xbea72af2	-0.32649952
153	0xbf0b4357	-0.5439963
154	0x3f3c68f1	0.7359763
155	0x3ffd01f5	1.9766222
156	0xbe9d172d	-0.30681744
157	0x3f672282	0.9028703
158	0x3f4e8d73	0.80684584
159	0xbe1638bc	-0.1467008
160	0xbfce495e	-1.611614
161	0xc022c1db	-2.543082
162	0xc0145032	-2.3173947
163	0xbf4bb1aa	-0.7956797
164	0x3dd92799	0.10603256
165	0x3f912d93	1.1342033
166	0x4023b234	2.5577517
167	0x404647e8	3.0981388
168	0xbf91a982	-1.1379855
169	0xc048ff77	-3.1405923
170	0xbfef8616	-1.8712795
171	0xbd83a176	-0.064272806
172	0xbddaf7f8	-0.106918275
173	0xbd6b0000	-0.057373047
174	0x3c975740	0.018474221
175	0xbd90cf98	-0.07070845
176	0x3d2823cb	0.04104976
177	0x3cc49cb6	0.024000507
178	0x3d8036d3	0.06260457
179	0x3de54e50	0.111965775
180	0xbe736b39	-0.23771371
181	0xbf2bb921	-0.6707936
182	0xbf2e6261	-0.68118864
183	0xbdf4feb5	-0.11962644
184	0xbe8d4945	-0.27594963
185	0xbf387b12	-0.7206279
186	0x3f183b0e	0.5946511
187	0x3f4cc166	0.799826
188	0x3eeff8b8	0.46869445
189	0xbeca56cb	-0.39519343
190	0xbe1aa1e3	-0.15100817
191	0xbedec475	-0.4350926
192	0x3dea745b	0.11447974
193	0x3eaf725d	0.3426694
194	0x3f826b8c	1.0189071
195	0x400cda38	2.200819
196	0x400fbd92	2.2459455
197	0x3ead9588	0.33903146
198	0x3f0ce43c	0.5503576
199	0xbf3ffeaa	-0.7499796
200	0xbdb796b3	-0.089642905
201	0xbec2d2b1	-0.3805137
202	0xbed6bfe5	-0.4194328
203	0xbd8433bf	-0.06455182
204	0x3fb4b632	1.4118102
205	0x3fa6da12	1.30353
206	0x3f8def72	1.1088698
207	0x3d92d980	0.07170391
208	0xbcdb928b	-0.026803276
209	0x3e279cff	0.16368483
210	0xbda489f3	-0.08034124
211	0xbdeb052e	-0.11475597
212	0xbdf9d03e	-0.12197922
213	0xbe1de360	-0.15418768
214	0xbdd19c36	-0.10234873
215	0x3d9942cb	0.07483443
216	0xbf27eeb9	-0.65598637
217	0x3e0fb4f8	0.14033878
218	0x3ee8dabf	0.4547939
219	0xbf3c22e0	-0.73490715
220	0xbebb392d	-0.3656706
221	0x3f6eaa0d	0.93228227
222	0x3e86c2a1	0.26320365
223	0xbf13bfa1	-0.5771428
224	0xbc5f10a6	-0.013614809
225	0xbfd8c5ef	-1.6935405
226	0xbfa4d9a5	-1.287892
227	0x3f560b91	0.836114
228	0x3f3f1e73	0.74655837
229	0xc045364c	-3.081439
230	0xc0537e10	-3.3045692
231	0x4031f79f	2.7807386
232	0x400f3101	2.237366
233	0x3f0221a7	0.508326
234	0xc0181ab0	-2.3766289
235	0xbf0e2938	-0.55531645
236	0x3f051303	0.51982135
237	0xbe15f0c4	-0.14642626
238	0xbfa55a21	-1.291813
239	0xbf99d058	-1.2016706
240	0x3fb9cbf4	1.4515367
241	0x3fd2d941	1.6472551
242	0x3ddd348f	0.108010404
243	0xbde31a8b	-0.11089047
244	0xbd9f0a4b	-0.07765635
245	0x3c0f6c16	0.008753797
246	0x3e10bc24	0.1413427
247	0xbcc6daeb	-0.02427431
248	0x3e19d2ff	0.15021895
249	0xbe1e5eea	-0.15465894
250	0x3d463f86	0.048400424
251	0x3e1e207f	0.15442084
252	0xbec43cb5	-0.38327566
253	0xbd42888d	-0.047493506
254	0x3f15133d	0.5823248
255	0x3e233ab1	0.15940358

bias f4 [8]
0	0xbfee8ca5	-1.8636671
1	0x3fb6ba8e	1.4275682
2	0x3e3ae2aa	0.18250528
3	0xbf48c826	-0.784304
4	0xbf8a57a0	-1.0807991
5	0x3eecfc85	0.46286407
6	0x4008ed97	2.1395013
7	0x400a0375	2.156461

weight f4 [29, 512]
0	0x3e81f105	0.25379196
1	0x3e263705	0.16231926
2	0xbcde9658	-0.027171299
3	0xbed729e7	-0.42024156
4	0xbeec03eb	-0.4609674
5	0xbf0f22cf	-0.5591249
6	0xbe131981	-0.14365198
7	0xbedf0456	-0.43557996
8	0xbe194452	-0.14967468
9	0x3ef511da	0.47865182
10	0x3b930296	0.0044863923
11	0xbd7943f3	-0.060855817
12	0xbec2b15a	-0.38025934
13	0xbf74d19f	-0.95632356
14	0xbec2420c	-0.37941015
15	0xbe8aafd5	-0.27087274
16	0xbf156a23	-0.58365077
17	0x3f0f966f	0.5608892
18	0x3f1db0a2	0.61597645
19	0x3e25138e	0.16120741
20	0xbec0a08f	-0.37622496
21	0x3f4a5aa5	0.7904456
22	0xbf641506	-0.8909458
23	0xbe0a054a	-0.1347858
24	0x3e4c572d	0.1995513
25	0x3f0d422f	0.55179113
26	0xbe76f14c	-0.24115485
27	0x3edcacc3	0.43100557
28	0x3ec6369f	0.38713548
29	0xbea18399	-0.31545714
30	0xbeb92d20	-0.3616724
31	0xbe1d0535	-0.15334018
32	0x3e62265a	0.22084942
33	0x3f087fc1	0.53319937
34	0x3ea6b55b	0.32560238
35	0x3e95283d	0.29132262
36	0x3e002d9d	0.125174
37	0x3e914054	0.2836939
38	0x3edc92fe	0.43080896
39	0xbd533a75	-0.05156942
40	0x3f20c2cc	0.62797236
41	0x3eb53ec9	0.35399464
42	0x3e93ac7a	0.28842527
43	0xbe1109cd	-0.14163895
44	0x3e45c127	0.19311963
45	0xbd566eb4	-0.05235167
46	0x3e1ba25a	0.15198651
47	0x3ee4cc67	0.44687197
48	0x3e008110	0.12549233
49	0x3c4a5ad9	0.012350761
50	0xbec68c3b	-0.38778862
51	0xbf5a2be2	-0.8522321
52	0xbe621d24	-0.22081429
53	0x3efeac75	0.4974095
54	0xbf317fb6	-0.69335496
55	0x3e4163a7	0.1888567
56	0xbff3482b	-1.9006399
57	0xbe480966	-0.19534835
58	0x3ec46c5d	0.38363925
59	0xbefbc87e	-0.491764
60	0xbc796c70	-0.015223607
61	0x3e782f38	0.24236763
62	0xbf7fce06	-0.9992374
63	0x3eb7b5d9	0.35880926
64	0xc1a55f1b	-20.671438
65	0xc0a899b8	-5.2687645
66	0x3ee4ec40	0.44711494
67	0x3f3a3543	0.7273752
68	0x3e7e84e7	0.24855386
69	0x3eaf14aa	0.34195453
70	0x3eda81b8	0.42677093
71	0x3e80e6e5	0.2517616
72	0xbdea201a	-0.11431904
73	0x3f186e98	0.5954375
74	0x3ea4ffc2	0.32226378
75	0x3ebee077	0.37280628
76	0x3e99dbdc	0.30050552
77	0x3ee42773	0.44561347
78	0x3f837bee	1.0272195
79	0xbfc8e8d9	-1.569606
80	0x3fd5890a	1.6682446
81	0x3f33050d	0.6992958
82	0x3edb16d4	0.42790854
83	0x3f6265aa	0.8843638
84	0x3f33c0af	0.70215887
85	0x3f372976	0.7154764
86	0x3fd79bbe	1.6844404
87	0x3d8ec8b5	0.069718756
88	0x3f2f7571	0.68538576
89	0x3f499bb7	0.78753227
90	0x3e47c649	0.19509234
91	0x3eec1d46	0.46116084
92	0x3eb31059	0.3497341
93	0x3f36e17f	0.7143783
94	0x3f693580	0.9109726
95	0xbfb86225	-1.4404951
96	0x3c377c17	0.011199019
97	0x3e9659f7	0.29365513
98	0xbd9300f4	-0.07177916
99	0x3d4d90dc	0.050186977
100	0x3e8c3565	0.27384487
101	0xbda340a3	-0.07971313
102	0x3e20edec	0.1571576
103	0x3edc9541	0.43082622
104	0xbe9880c8	-0.29785752
105	0xbea09aff	-0.31368253
106	0x3e4939c7	0.19650947
107	0xbe2b0d77	-0.16704355
108	0x3f1e86a6	0.6192421
109	0x3eb971ad	0.3621954
110	0x3f5d1dbe	0.8637351
111	0x3dca506f	0.09878623
112	0x3fa7cb3b	1.3108896
113	0x3e7b7e2b	0.24559848
114	0x3d2b38d6	0.04180225
115	0xbef1ef0e	-0.47252697
116	0xbe020eeb	-0.12701003
117	0x3e0f0104	0.13965231
118	0xbdacaef4	-0.08431807
119	0x3d03e60c	0.03220181
120	0x3de95c86	0.113946006
121	0xbe50dfa5	-0.20397814
122	0xbe9590ca	-0.29212028
123	0xbe046c24	-0.12931877
124	0x3e0c9bcc	0.13731307
125	0x3d5a3f48	0.053283006
126	0xbe2689bf	-0.16263483
127	0x3e46fb39	0.19431771
128	0xc07e9552	-3.9778638
129	0xbf022a1e	-0.50845516
130	0xbee6ce52	-0.45079285
131	0xbd9fc7a1	-0.07801748
132	0xbe646b08	-0.22306454
133	0xbd86412a	-0.06555398
134	0xbcfd1e7f	-0.03089833
135	0xbefe64df	-0.49686334
136	0x3fd43563	1.6578792
137	0x3de72437	0.11286204
138	0x3befaa54	0.007314006
139	0xbddb582b	-0.10710176
140	0x3e86828f	0.26271483
141	0xbf334198	-0.70021963
142	0xbfc63ce0	-1.5487328
143	0xbeb34ae6	-0.3501808
144	0xbd92e435	-0.07172433
145	0xbc2516f3	-0.010076272
146	0xbe2f84a9	-0.1714045
147	0xbea58d74	-0.32334483
148	0xbec4f54c	-0.38468397
149	0x3ee32383	0.4436303
150	0xbe569e83	-0.20958905
151	0xbef54a76	-0.47908372
152	0x3f4b6cee	0.7946309
153	0xbddd9452	-0.108193055
154	0x3e67919a	0.22614136
155	0xbe88b506	-0.2670061
156	0xbee9b3c8	-0.45644975
157	0xbf4f2a9e	-0.80924404
158	0x3e691e4f	0.22765468
159	0xbe8210ca	-0.25403434
160	0x3eea00ff	0.45703885
161	0x3dfef494	0.12448993
162	0xbea783bc	-0.32717693
163	0xbda6f2bf	-0.08151769
164	0xbda5b4fd	-0.080911614
165	0x3f0cea9a	0.55045474
166	0x3f25d3ee	0.64776504
167	0x3dbbe69c	0.091748446
168	0xbde8a748	-0.11360031
169	0x3cc92bd4	0.024557032
170	0xb9160ff5	-0.00014311059
171	0x3e9dafc0	0.3079815
172	0xbefed72b	-0.49773535
173	0xbe994f21	-0.29943183
174	0x3f339775	0.7015298
175	0x3e1ddf4d	0.15417214
176	0x3f10df91	0.56591135
177	0xbe438630	-0.19094157
178	0xbd8356f3	-0.064130686
179	0x3d82ea4c	0.06392345
180	0x3d4fe03a	0.05075095
181	0x3e81ac23	0.25326642
182	0x3e82b2fe	0.25527185
183	0x3ea7fdbb	0.32810768
184	0x3ef2cabb	0.47420296
185	0x3e923800	0.2855835
186	0x3eaeeb38	0.34163833
187	0x3f545c3c	0.8295324
188	0x3f0e7420	0.5564594
189	0x3d6f31d6	0.058397137
190	0xbdd1c96b	-0.102434956
191	0x3e4f1664	0.20223385
192	0x3d4a8ab0	0.04944867
193	0xbfb2afff	-1.395996
194	0xbfbefb9c	-1.4920535
195	0xbe81f329	-0.2538083
196	0xbd606be2	-0.054790385
197	0x3d85cc41	0.06533099
198	0xbee40d3d	-0.4454135
199	0x3e244bcb	0.16044538
200	0xbe6e106d	-0.23248453
201	0x3ef0ff83	0.4706994
202	0x3eee77be	0.4657573
203	0x3d613fed	0.054992605
204	0x3e043d5e	0.12914035
205	0xbf028550	-0.5098467
206	0x3f89e1b4	1.0772004
207	0x3f6d1306	0.9260715
208	0x3f6633ae	0.89922607
209	0x3ec2f2c2	0.38075835
210	0xbf342e7c	-0.7038343
211	0xbf5da53e	-0.86580265
212	0xbe97b4c1	-0.29630092
213	0xbdcd085e	-0.100113615
214	0xbfb37438	-1.4019842
215	0x3e9f8357	0.31154892
216	0x3f4eb712	0.80748093
217	0xbfc41102	-1.531769
218	0xbf812802	-1.0090334
219	0xbe6cce22	-0.23125508
220	0xbf52dc13	-0.82367057
221	0xbf8e0595	-1.1095454
222	0xbf9969c8	-1.1985407
223	0x3efd4150	0.49463892
224	0x3f63ae23	0.88937587
225	0xbebb1bce	-0.3654465
226	0xbf167247	-0.58768123
227	0xbf36b49b	-0.7136933
228	0xbf0768b0	-0.52894115
229	0x3e001b8c	0.12510508
230	0xbec972df	-0.39345452
231	0xbf48b0dd	-0.7839487
232	0x3f7999ac	0.9750011
233	0xbf2eac30	-0.6823149
234	0xbf646812	-0.892213
235	0xbec175ff	-0.37785336
236	0xbeb41a5a	-0.35176355
237	0xbedf2758	-0.43584704
238	0xbdc3fd8c	-0.095698446
239	0xbf8e431d	-1.1114231
240	0x3fa54a6c	1.2913337
241	0x3ed85f3d	0.4226016
242	0x3f1fb86a	0.6239077
243	0xbf5f12ee	-0.8713826
244	0xbf488e5a	-0.7834221
245	0xbfaa2229	-1.3291675
246	0xbfe34602	-1.775574
247	0xbfa8e47e	-1.319473
248	0x3d674acb	0.056467813
249	0xbe8ecc5c	-0.2789029
250	0xbe6157e1	-0.2200618
251	0xbdb04f5a	-0.08608885
252	0x3e809c1c	0.25119102
253	0x3e277000	0.16351318
254	0x3e359bb8	0.17735183
255	0x3ecae4b6	0.39627618

bias f4 [29]
0	0xbdd38a50	-0.103291154
1	0x3e701fbd	0.23449607
2	0xbe7e89bd	-0.2485723
3	0x3e1e1e4e	0.15441248
4	0xbe016839	-0.12637414
5	0xbd8a7602	-0.067607895
6	0xbdf21a9d	-0.11821482
7	0x3db9e46e	0.09076773
8	0x3ee02c6a	0.43783885
9	0xbe116d96	-0.1420196
10	0x3eae87dc	0.34088027
11	0xbf0ec1af	-0.5576429
12	0xbeed1a84	-0.46309292
13	0x3e89c86d	0.26910725
14	0xbf3f3f26	-0.7470573
15	0xbea79555	-0.3273112
16	0xbd477204	-0.04869272
17	0x3f0cc9d8	0.5499549
18	0xbea25ab7	-0.31709835
19	0x3e93cec6	0.28868693
20	0xbeb7211a	-0.35767442
21	0x3efe0837	0.49615642
22	0x3d6b26c7	0.057410028
23	0x3f13b697	0.57700485
24	0xbee4e783	-0.4470788
25	0x3dedf525	0.11619023
26	0x3e311fdd	0.17297311
27	0x3e56896d	0.20950861
28	0xbe838ee7	-0.25694963
