workspace-rich/checkpoints_backup/230830/checkpoint_98.57.pth (torch, 64671 bytes, 6 tensors)

weight f4 [4, 1, 3, 3]
0.51731163 0.17399643 1.3140744 2.288994 2.442606 2.193822 1.4393148 1.9049143
2.093789 0.13403606 -0.7847239 -1.0096616 -0.725527 -0.5946014 -0.106742404 0.4684362
1.0405798 1.6395845 -0.4303873 -1.1587527 -1.2103682 1.3811501 0.66838443 -0.7278789
1.1525439 0.56978303 0.55085146 -0.0675089 -0.19068854 -0.120767236 -0.09143166 -0.13142256
0.28253657 0.22069085 -0.25274873 -0.07086055
00000000: 896e 043f 1f2c 323e 9733 a83f e17e 1240
00000010: a853 1c40 9467 0c40 783b b83f 3bd4 f33f
00000020: a400 0640 c040 093e aae3 48bf 973c 81bf
00000030: 23bc 39bf cc37 18bf c39b dabd dfd6 ef3e
00000040: b831 853f e8dd d13f b95b dcbe 0252 94bf
00000050: 58ed 9abf 87c9 b03f 3e1b 2b3f 4656 3abf
00000060: 8f86 933f 4ddd 113f 9a04 0d3f 1b42 8abd
00000070: db43 43be d054 f7bd 8640 bbbd a393 06be
00000080: a2a8 903e c8fc 613e 4868 81be 561f 91bd

bias f4 [4]
-2.2485516 -0.012645647 -0.24207595 -0.32699734
00000000: 45e8 0fc0 b02f 4fbc c2e2 77be 326c a7be

weight f4 [8, 4, 3, 3]
-0.25348917 -0.44095027 -0.16469046 0.22778206 -0.26487043 -0.17846972 0.57107747 0.39747185
0.29078245 0.30001545 0.17307468 0.12641707 -0.960567 -0.4205379 -1.0775144 -1.2749262
-0.703773 -0.9431973 0.63572824 -0.48046446 -0.17553638 0.6302693 1.1996983 0.2708444
-0.16388305 2.1249835 1.6155835 0.05513672 0.034613036 -0.09206897 0.15499231 0.14673173
0.081984125 -0.16263875 -0.056383155 -0.07438259 0.4545276 0.6610671 0.17613359 0.4945812
0.04639246 -0.77655756 0.19483808 -0.52949774 -0.51049614 3.663418 0.45571765 -1.9032546
-2.0341876 -3.539889 -0.48580554 -0.7542098 1.317753 2.6104486 -0.049375188 -0.18906596
-0.05086774 -1.9362997 -3.083987 -2.1519918 -1.8510451 -3.3284206 -1.5133936 0.13612989
-0.124241255 -0.09121617 0.053345524 -0.011146506 -0.019471686 0.15218589 0.020226836 0.10780561
0.6771529 0.14910701 -0.5467723 0.4725535 -0.4011548 -0.45777914 0.7266585 -0.84802014
-0.33684072 1.1787057 -0.29410923 0.7799092 0.16000828 -2.6243181 0.9830678 -1.454319
-1.2945178 0.86798024 -0.20242816 0.20777489 1.9003836 0.46929878 0.73144525 1.0136758
0.5282069 0.42468497 -0.36226967 0.024125597 0.1584785 0.12730893 -0.07905048 0.13409168
-0.008273065 0.14096962 0.07704687 -0.07375189 0.055189166 0.62169087 0.12991473 -0.51642954
-0.15845142 0.006054731 -0.13210556 -0.349472 -0.2612187 2.7329268 3.9220016 2.7194946
-1.2552463 -1.4010139 0.8623482 2.2957644 2.7894895 1.8509382 0.9763348 1.8296599
1.6137629 -0.23819497 -1.4921424 -0.27001312 0.30204332 0.24251395 -0.67865515 -0.066914104
0.12827055 -0.13260183 0.1220068 -0.021415254 -0.14824694 -0.04712367 -0.15833837 0.02756399
-0.41788706 0.008187034 0.00908908 0.156634 0.59285444 0.82532924 -0.14839965 -0.58608854
-0.3290436 -0.54410917 0.7393871 1.9756608 -0.30658826 0.90613407 0.8133451 -0.15118559
-1.6179581 -2.5513012 -2.3236718 -0.7995669 0.09947741 1.1342927 2.5610397 3.1035595
-1.1411824 -3.1498086 -1.8775219 -0.064272806 -0.106918275 -0.057373047 0.018474221 -0.07070845
0.04104976 0.024000507 0.06260457 0.111965775 -0.23961811 -0.6722671 -0.6839616 -0.12028925
-0.2765121 -0.7206995 0.5982508 0.80385166 0.47145334 -0.3923496 -0.14807057 -0.4342931
0.12038946 0.34639847 1.0259316 2.2093704 2.2557487 0.346229 0.5532842 -0.74609697
-0.084266506 -0.37610894 -0.4201801 -0.06528696 1.4181014 1.3080674 1.108789 0.07170391
-0.026803276 0.16368483 -0.08034124 -0.11475597 -0.12197922 -0.15418768 -0.10234873 0.07483443
-0.65717864 0.141461 0.4566431 -0.7349034 -0.3670475 0.933964 0.26462865 -0.5779605
-0.0125492355 -1.6933113 -1.28992 0.8334291 0.75317043 -3.0851986 -3.3109655 2.7835174
2.2386184 0.5140749 -2.3838153 -0.56335646 0.51767 -0.14145048 -1.2878935 -1.2050409
1.4547323 1.6505556 0.10666096 -0.11089047 -0.07765635 0.008753797 0.1413427 -0.02427431
0.15021895 -0.15465894 0.048400424 0.15442084 -0.38472036 -0.046618007 0.5834557 0.15978388
00000000: 55c9 81be 3cc4 e1be 9ea4 28be b33f 693e
00000010: 199d 87be c4c0 36be 2232 123f 6e81 cb3e
00000020: 70e1 943e a09b 993e 7d3a 313e 7a73 013e
00000030: b8e7 75bf be50 d7be feeb 89bf c830 a3bf
00000040: 782a 34bf 6175 71bf 16bf 223f 70ff f5be
00000050: cfbf 33be 5459 213f b78f 993f 1eac 8a3e
00000060: f5d0 27be bbff 0740 71cb ce3f 0bd7 613d
00000070: 66c6 0d3d a88e bcbd 4eb6 1e3e d840 163e
00000080: 4be7 a73d c68a 26be 06f2 66bd e655 98bd
00000090: d7b7 e83e b23b 293f 5d5c 343e bf39 fd3e
000000a0: 0506 3e3d 7acc 46bf a283 473e 2a8d 07bf
000000b0: e0af 02bf 7175 6a40 d353 e93e d99d f3bf
000000c0: 2130 02c0 8b8d 62c0 81bb f8be e513 41bf
000000d0: 21ac a83f 9711 2740 a33d 4abd 829a 41be
000000e0: b15a 50bd abd8 f7bf 0b60 45c0 3cba 09c0
000000f0: 0cef ecbf d804 55c0 e2b6 c1bf a265 0b3e
00000100: 3372 febd 8bcf babd d680 5a3d d69f 36bc
00000110: 1683 9fbc 9ed6 1b3e c0b2 a53c 30c9 dc3d
00000120: e459 2d3f 82af 183e 45f9 0bbf 88f2 f13e
00000130: 2964 cdbe 0762 eabe 4b06 3a3f d917 59bf
00000140: 6376 acbe d4df 963f 7c95 96be 21a8 473f
00000150: 36d9 233e d4f4 27c0 55aa 7b3f 2027 babf
00000160: c2b2 a5bf f433 5e3f 5449 4fbe f1c2 543e
00000170: c53f f33f ee47 f03e ff3f 3b3f 21c0 813f
00000180: 9138 073f 4f70 d93e 697b b9be 0ba3 c53c
00000190: 3048 223e 465d 023e 38e5 a1bd 544f 093e
000001a0: c08b 07bc 575a 103e c0ca 9d3d 3b0b 97bd
000001b0: 090e 623d 2227 1f3f 5e08 053e ba34 04bf
000001c0: 1741 22be c466 c63b ae46 07be feed b2be
000001d0: 75be 85be 46e8 2e40 1302 7b40 330c 2e40
000001e0: e9ab a0bf 6c54 b3bf dac2 5c3f ceed 1240
000001f0: ff86 3240 8beb ec3f 14f1 793f 4c32 ea3f
00000200: c88f ce3f 62e9 73be 86fe bebf 293f 8abe
00000210: 6ca5 9a3e 9455 783e 58bc 2dbf 430a 89bd
00000220: 5b59 033e c6c8 07be b3de f93d 0b6f afbc
00000230: 0cce 17be c004 41bd 7423 22be e0cd e13c
00000240: 4bf5 d5be e922 063c 5dea 143c aa64 203e
00000250: 4fc5 173f c748 533f 14f6 17be e609 16bf
00000260: 6778 a8be bd4a 0bbf 7948 3d3f 74e2 fc3f
00000270: 23f9 9cbe 67f8 673f 6237 503f 65d0 1abe
00000280: 4019 cfbf 8548 23c0 0ab7 14c0 6bb0 4cbf
00000290: d0ba cb3d 8130 913f 13e8 2340 b8a0 4640
000002a0: 4412 92bf 7796 49c0 a352 f0bf 76a1 83bd
000002b0: f8f7 dabd 0000 6bbd 4057 973c 98cf 90bd
000002c0: cb23 283d b69c c43c d336 803d 504e e53d
000002d0: 735e 75be b219 2cbf 1b18 2fbf 365a f6bd
000002e0: fe92 8dbe c37f 38bf f726 193f 39c9 4d3f
000002f0: 5562 f13e 0ce2 c8be d09f 17be aa5b debe
00000300: c08e f63d 245b b13e ba51 833f 5366 0d40
00000310: 305e 1040 ed44 b13e 09a4 0d3f 3600 3fbf
00000320: eb93 acbd 5a91 c0be d921 d7be 2bb5 85bd
00000330: 5984 b53f c16e a73f ccec 8d3f 80d9 923d
00000340: 8b92 dbbc ff9c 273e f389 a4bd 2e05 ebbd
00000350: 3ed0 f9bd 60e3 1dbe 369c d1bd cb42 993d
00000360: dc3c 28bf 27db 103e 20cd e93e a122 3cbf
00000370: a6ed bbbe 4418 6f3f 687d 873e 38f5 13bf
00000380: 4f9b 4dbc 6dbe d8bf 191c a5bf 9c5b 553f
00000390: c7cf 403f e573 45c0 dce6 53c0 2625 3240
000003a0: 8645 0f40 6a9a 033f 6e90 18c0 2138 10bf
000003b0: 0586 043f 65d8 10be b2d9 a4bf c83e 9abf
000003c0: ab34 ba3f 6845 d33f 1071 da3d 8b1a e3bd
000003d0: 4b0a 9fbd 166c 0f3c 24bc 103e ebda c6bc
000003e0: ffd2 193e ea5e 1ebe 863f 463d 7f20 1e3e
000003f0: 11fa c4be 86f2 3ebd 5a5d 153f 639e 233e

bias f4 [8]
-1.8731474 1.4402393 0.18609294 -0.7867272 -1.0894358 0.46519735 2.1448064 2.1667633
00000000: 4bc3 efbf c359 b83f 268f 3e3e f466 49bf
00000010: a272 8bbf 592e ee3e 8244 0940 40ac 0a40

weight f4 [29, 512]
0.25621742 0.16573837 -0.024911717 -0.42127556 -0.4623081 -0.5562478 -0.13895161 -0.43416682
-0.15008412 0.4808526 0.003995629 -0.059999626 -0.38116422 -0.95872486 -0.3762536 -0.26984274
-0.5825508 0.5638294 0.6176482 0.16022919 -0.37748095 0.78637284 -0.8839012 -0.13504042
0.19905277 0.5588585 -0.23874642 0.43207884 0.3900053 -0.31855953 -0.35544583 -0.15410317
0.21914804 0.5332275 0.3260386 0.28904906 0.12696844 0.27924737 0.43031234 -0.05361629
0.627942 0.35165697 0.2856998 -0.1429498 0.19188495 -0.051221997 0.147682 0.44656035
0.124909066 0.012160894 -0.38961005 -0.8549703 -0.21998726 0.50019467 -0.69858295 0.18813275
-1.9061573 -0.19673388 0.3845083 -0.4920836 -0.013742559 0.2508698 -1.0021245 0.35887775
-20.720085 -5.2746644 0.44477996 0.7256089 0.24812484 0.34121323 0.41863945 0.25182462
-0.13766448 0.5923837 0.3189842 0.37006614 0.2993155 0.44767407 1.0244999 -1.575422
1.6702542 0.69904655 0.42740324 0.88696116 0.6987222 0.70995873 1.6850955 0.07756561
0.6819513 0.78859615 0.19686025 0.4625467 0.34527853 0.72168726 0.9119933 -1.4429649
0.01738991 0.29659963 -0.069144584 0.05035678 0.27414432 -0.07777995 0.16670924 0.4384542
-0.29581574 -0.305414 0.18663353 -0.17163916 0.6237813 0.35985434 0.864494 0.09910733
1.3170693 0.24971949 0.03968936 -0.4779957 -0.13034765 0.13904609 -0.082786225 0.03570023
0.11407674 -0.20485255 -0.2930273 -0.1298309 0.13682114 0.05056291 -0.16630837 0.1939777
-3.9889135 -0.5186241 -0.45314866 -0.07871571 -0.22561845 -0.06649926 -0.029793415 -0.49809024
1.6711346 0.110015355 0.0070143114 -0.10758658 0.25784865 -0.70767874 -1.5439155 -0.3506192
-0.090461574 -0.00978735 -0.17674758 -0.32466573 -0.3883443 0.44133738 -0.20458794 -0.4794475
0.7956688 -0.10744844 0.22668463 -0.2639556 -0.45641705 -0.8072486 0.22433424 -0.25411987
0.46130556 0.13020265 -0.33080164 -0.08183426 -0.075573444 0.551857 0.64724106 0.09199879
-0.11815641 0.027525002 -0.004529555 0.30794534 -0.4964382 -0.30276656 0.6927295 0.1522946
0.57023966 -0.19251017 -0.06861895 0.06709907 0.047421746 0.2511203 0.2530691 0.32734925
0.48173055 0.28529888 0.33873454 0.8332114 0.55652463 0.060044695 -0.09921873 0.20183308
0.04877054 -1.3970696 -1.4938594 -0.25421536 -0.05493678 0.06533831 -0.44583747 0.16210191
-0.23373763 0.47034356 0.46698365 0.057228703 0.13265778 -0.50691086 1.0805632 0.9222239
0.9018058 0.36662647 -0.713138 -0.87085265 -0.29786184 -0.104647465 -1.4106352 0.31337857
0.8103284 -1.5521295 -1.0060847 -0.2416268 -0.8289973 -1.1109121 -1.2029173 0.50280124
0.8939258 -0.36190003 -0.5904582 -0.7162486 -0.5323995 0.12443478 -0.3966408 -0.7877884
0.97403854 -0.68969744 -0.89637715 -0.38223732 -0.3527654 -0.43849936 -0.10128597 -1.1123456
1.292294 0.43633425 0.62786996 -0.8715036 -0.7861783 -1.3349984 -1.7726343 -1.3110638
0.056147218 -0.28128254 -0.22151107 -0.08409957 0.2471637 0.16041711 0.17757177 0.39673895
00000000: ee2e 833e 52b7 293e a813 ccbc 6eb1 d7be
00000010: a6b3 ecbe 4166 0ebf 5549 0ebe 1d4b debe
00000020: a7af 19be 5032 f63e c4ed 823b 2bc2 75bd
00000030: f527 c3be fe6e 75bf 50a4 c0be d428 8abe
00000040: 0d22 15bf 2057 103f 311e 1e3f 1f13 243e
00000050: 2f45 c1be bb4f 493f 5947 62bf 0948 0abe
00000060: 7dd4 4b3e 5a11 0f3f f179 74be 7039 dd3e
00000070: c6ae c73e 3c1a a3be fffc b5be 39cd 1dbe
00000080: 5868 603e 9981 083f 88ee a63e 3dfe 933e
00000090: 0404 023e 83f9 8e3e e651 dc3e c19c 5bbd
000000a0: cfc0 203f 620c b43e 3f47 923e 6f61 12be
000000b0: 7d7d 443e 28ce 51bd f339 173e 8fa3 e43e
000000c0: 53d0 ff3d 7d3e 473c f87a c7be 55df 5abf
000000d0: 5744 61be c20c 003f 55d6 32bf dfa5 403e
000000e0: f6fc f3bf 9b74 49be 46de c43e 62f2 fbbe
000000f0: 7828 61bc 0272 803e 9e45 80bf d3be b73e
00000100: bcc2 a5c1 0dca a8c0 33ba e33e 81c1 393f
00000110: 7014 7e3e 80b3 ae3e e957 d63e 28ef 803e
00000120: ebf7 0cbe 75a6 173f e651 a33e 4f79 bd3e
00000130: e23f 993e 8935 e53e d022 833f 6ea7 c9bf
00000140: e4ca d53f b7f4 323f 99d4 da3e e30f 633f
00000150: 75df 323f dbbf 353f 36b1 d73f b8da 9e3d
00000160: 5c94 2e3f 70e1 493f bc95 493e ecd2 ec3e
00000170: 59c8 b03e 7fc0 383f 6578 693f 13b3 b8bf
00000180: 4975 8e3c e8db 973e ad9b 8dbd e942 4e3d
00000190: a55c 8c3e 184b 9fbd d4b5 2a3e 127d e03e
000001a0: 2975 97be 395f 9cbe dc1c 3f3e 2dc2 2fbe
000001b0: 22b0 1f3f d43e b83e 7b4f 5d3f c9f8 ca3d
000001c0: ba95 a83f 77b6 7f3e 4f91 223d dabb f4be
000001d0: db79 05be 1962 0e3e d38b a9bd 683a 123d
000001e0: 11a1 e93d dec4 51be ad07 96be 64f2 04be
000001f0: d71a 0c3e 0e1b 4f3d be4c 2abe 17a2 463e
00000200: 5c4a 7fc0 8dc4 04bf 1a03 e8be b435 a1bd
00000210: 8608 67be c430 88bd 5211 f4bc af05 ffbe
00000220: bde7 d53f bb4f e13d 4fd8 e53b 5a56 dcbd
00000230: bd04 843e 6f2a 35bf 069f c5bf 5c84 b3be
00000240: eb43 b9bd 1f5b 20bc 51fd 34be 963a a6be
00000250: 10d5 c6be f9f6 e13e 807f 51be 257a f5be
00000260: f3b0 4b3f ed0d dcbd 0420 683e 3025 87be
00000270: 7faf e9be d8a7 4ebf e0b7 653e 001c 82be
00000280: 3e30 ec3e d853 053e d55e a9be b898 a7bd
00000290: 40c6 9abd 8046 0d3f 97b1 253f dd69 bc3d
000002a0: fdfb f1bd 1d7c e13c a96c 94bb 03ab 9d3e
000002b0: 262d febe 3804 9bbe b856 313f 1ef3 1b3e
000002c0: 3afb 113f 6321 45be 1888 8cbd 3d6b 893d
000002d0: 4e3d 423d d792 803e 4692 813e 529a a73e
000002e0: 63a5 f63e b212 923e 9d6e ad3e 584d 553f
000002f0: 6678 0e3f 6df1 753d 3133 cbbd 55ad 4e3e
00000300: 9ec3 473d 2dd3 b2bf c936 bfbf 8428 82be
00000310: 6405 61bd 18d0 853d cf44 e4be 0bfe 253e
00000320: eb58 6fbe dfd0 f03e 7b18 ef3e a568 6a3d
00000330: 71d7 073e e9c4 01bf e54f 8a3f de16 6c3f
00000340: bfdc 663f 77b6 bb3e 3690 36bf 33f0 5ebf
00000350: 5981 98be 6951 d6bd b28f b4bf 2873 a03e
00000360: af71 4f3f 2eac c6bf 62c7 80bf 046d 77be
00000370: 2b39 54bf 5e32 8ebf 32f9 99bf 95b7 003f
00000380: 52d8 643f f64a b9be 4528 17bf 115c 37bf
00000390: 554b 08bf a9d7 fe3d 8114 cbbe 80ac 49bf
000003a0: 975a 793f 0390 30bf f978 65bf 9cb4 c3be
000003b0: ab9d b4be fd82 e0be 056f cfbd 5761 8ebf
000003c0: e469 a53f 3467 df3e 16bc 203f dc1a 5fbf
000003d0: fb42 49bf 3ae1 aabf aee5 e2bf f0d0 a7bf
000003e0: a0fa 653d 4404 90be ccd3 62be 653c acbd
000003f0: 7b18 7d3e 6244 243e 60d5 353e 5e21 cb3e

bias f4 [29]
-0.10344789 0.23479563 -0.24781433 0.15452674 -0.1261789 -0.068980746 -0.11761785 0.089797884
0.4386436 -0.14385171 0.34194645 -0.559279 -0.4658181 0.27042562 -0.74939483 -0.3299031
-0.048661586 0.55170035 -0.3175833 0.28839424 -0.35909966 0.498075 0.056445945 0.57868737
-0.4486794 0.114991665 0.17192659 0.21209303 -0.25755754
00000000: 7ddc d3bd 446e 703e 0ac3 7dbe 423c 1e3e
00000010: 0b35 01be c745 8dbd a1e1 f0bd f4e7 b73d
00000020: e595 e03e dd4d 13be 9b13 af3e e92c 0fbf
00000030: b67f eebe 3a75 8a3e 57d8 3fbf 0fe9 a8be
00000040: 5f51 47bd 3c3c 0d3f 479a a2be 69a8 933e
00000050: e9db b7be b003 ff3e dd33 673d db24 143f
00000060: 4eb9 e5be c080 eb3d 860d 303e ea2e 593e
00000070: 95de 83be
