workspace-rich/checkpoints_backup/230830/checkpoint_98.42.pth (torch, 64671 bytes, 6 tensors)

weight f4 [4, 1, 3, 3]
0	0x3f0273f8	0.50958204
1	0x3e2bd28d	0.16779537
2	0x3fa78403	1.3087162
3	0x4011c947	2.27791
4	0x401baf88	2.4325886
5	0x400bdc5b	2.1853244
6	0x3fb76870	1.4328747
7	0x3ff31962	1.8992121
8	0x40058aa2	2.0865865
9	0x3e0bf00a	0.13665786
10	0xbf480e1d	-0.78146535
11	0xbf809a5a	-1.0047104
12	0xbf3978f1	-0.72450167
13	0xbf17d660	-0.59311485
14	0xbdd7f371	-0.1054448
15	0x3eee9725	0.4659969
16	0x3f84b140	1.0366592
17	0x3fd17ba1	1.6365854
18	0xbedc4de3	-0.43028173
19	0xbf940830	-1.1564999
20	0xbf9a8d5f	-1.2074393
21	0x3fb06c19	1.3782989
22	0x3f2ada9b	0.66739815
23	0xbf39e5b7	-0.7261614
24	0x3f93263f	1.1496047
25	0x3f1140db	0.56739587
26	0x3f0c7e49	0.54880196
27	0xbd8a421b	-0.0675089
28	0xbe4343db	-0.19068854
29	0xbdf754d0	-0.120767236
30	0xbdbb4086	-0.09143166
31	0xbe0693a3	-0.13142256
32	0x3e90a8a2	0.28253657
33	0x3e61fcc8	0.22069085
34	0xbe816848	-0.25274873
35	0xbd911f56	-0.07086055

bias f4 [4]
0	0xc00f5b66	-2.2399535
1	0xbc54b30a	-0.012982139
2	0xbe75d49d	-0.24006887
3	0xbea76c32	-0.32699734

weight f4 [8, 4, 3, 3]
0	0xbe80f22f	-0.2518477
1	0xbee0f34f	-0.4393563
2	0xbe26d66b	-0.16292731
3	0x3e68c3bc	0.22730917
4	0xbe87cd7d	-0.26523963
5	0xbe35f903	-0.17770772
6	0x3f120693	0.5704128
7	0x3ecaa918	0.39582133
8	0x3e9463ca	0.28982383
9	0x3e989025	0.29797474
10	0x3e302f9a	0.17205659
11	0x3e009c07	0.1255952
12	0xbf75a3e5	-0.9595321
13	0xbed712f4	-0.42006648
14	0xbf8a1494	-1.078753
15	0xbfa2ecdc	-1.2728534
16	0xbf33fb24	-0.70305085
17	0xbf7161d5	-0.94289905
18	0x3f21c45f	0.63190264
19	0xbef5efd4	-0.48034537
20	0xbe35ad49	-0.17741884
21	0x3f208645	0.6270488
22	0x3f990370	1.1954174
23	0x3e884216	0.2661292
24	0xbe28637f	-0.16444205
25	0x4007a1c9	2.1192496
26	0x3fcdb5e6	1.6071136
27	0x3d61d70b	0.05513672
28	0x3d0dc666	0.034613036
29	0xbdbc8ea8	-0.09206897
30	0x3e1eb64e	0.15499231
31	0x3e1640d8	0.14673173
32	0x3da7e74b	0.081984125
33	0xbe268ac6	-0.16263875
34	0xbd66f206	-0.056383155
35	0xbd9855e6	-0.07438259
36	0x3ee76289	0.45192364
37	0x3f28682e	0.65783966
38	0x3e31becf	0.17357944
39	0x3efcc465	0.49368587
40	0x3d3b7c57	0.045772877
41	0xbf46ff07	-0.7773289
42	0x3e499055	0.19683965
43	0xbf06e3f8	-0.526916
44	0xbf0262d3	-0.50932044
45	0x4069f79a	3.6557374
46	0x3ee8cf7b	0.45470795
47	0xbff355c6	-1.9010551
48	0xc001e985	-2.029878
49	0xc062c2b5	-3.543134
50	0xbef921bd	-0.48658553
51	0xbf41164a	-0.75424635
52	0x3fa7ee52	1.3119605
53	0x4026f95c	2.6089697
54	0xbd411fc5	-0.04714944
55	0xbe3f6808	-0.18692029
56	0xbd47788d	-0.04869895
57	0xbff7076b	-1.9299139
58	0xc045289a	-3.0806031
59	0xc009f2ba	-2.1554399
60	0xbfec707c	-1.8471828
61	0xc054c95d	-3.3247902
62	0xbfc18698	-1.51192
63	0x3e0b65a2	0.13612989
64	0xbdfe7233	-0.124241255
65	0xbdbacf8b	-0.09121617
66	0x3d5a80d6	0.053345524
67	0xbc369fd6	-0.011146506
68	0xbc9f8316	-0.019471686
69	0x3e1bd69e	0.15218589
70	0x3ca5b2c0	0.020226836
71	0x3ddcc930	0.10780561
72	0x3f2c962c	0.67416644
73	0x3e1749c2	0.1477423
74	0xbf0b7094	-0.54468656
75	0x3ef084a0	0.46976185
76	0xbece3cca	-0.40280753
77	0xbee9cb27	-0.45662805
78	0x3f398b07	0.72477764
79	0xbf58d83b	-0.8470494
80	0xbeabd6ea	-0.33562404
81	0x3f96b0af	1.177267
82	0xbe983352	-0.29726654
83	0x3f4742a5	0.77836066
84	0x3e272e3d	0.16326232
85	0xc027c11a	-2.621161
86	0x3f7b5be4	0.9818709
87	0xbfba899a	-1.4573243
88	0xbfa61a08	-1.2976694
89	0x3f5daa3e	0.86587894
90	0xbe4e6265	-0.20154722
91	0x3e51c0ad	0.20483656
92	0x3ff30cb3	1.898825
93	0x3ef0a149	0.4699805
94	0x3f3a8e62	0.7287351
95	0x3f8154bf	1.0103987
96	0x3f067a4d	0.52530366
97	0x3ed7ca87	0.42146704
98	0xbeb8e12e	-0.36109298
99	0x3cc5a30b	0.024125597
100	0x3e224830	0.1584785
101	0x3e025d46	0.12730893
102	0xbda1e538	-0.07905048
103	0x3e094f54	0.13409168
104	0xbc078bc0	-0.008273065
105	0x3e105a57	0.14096962
106	0x3d9dcac0	0.07704687
107	0xbd970b3b	-0.07375189
108	0x3d615d8d	0.055020858
109	0x3f1ee0c4	0.62061715
110	0x3e045cdf	0.12926053
111	0xbf03f31c	-0.5154283
112	0xbe2152f9	-0.15754308
113	0x3bbe0110	0.0057984665
114	0xbe064a3c	-0.13114256
115	0xbeb19434	-0.34683383
116	0xbe85a444	-0.26101887
117	0x402ec5e0	2.7308273
118	0x407a838e	3.9142795
119	0x402d61c1	2.7090914
120	0xbfa10a9b	-1.2581362
121	0xbfb43e15	-1.4081446
122	0x3f5c2166	0.8598846
123	0x40128e5f	2.2899396
124	0x40325149	2.7862113
125	0x3fec255a	1.8448899
126	0x3f783f26	0.96971357
127	0x3fe91516	1.820956
128	0x3fcd82f3	1.6055588
129	0xbe776622	-0.24160054
130	0xbfbf0191	-1.4922353
131	0xbe8a4d73	-0.27012214
132	0x3e9a25ea	0.3010705
133	0x3e775591	0.24153735
134	0xbf2cf248	-0.6755719
135	0xbd890a43	-0.066914104
136	0x3e03595b	0.12827055
137	0xbe07c8c6	-0.13260183
138	0x3df9deb3	0.1220068
139	0xbcaf6f0b	-0.021415254
140	0xbe17ce0c	-0.14824694
141	0xbd4104c0	-0.04712367
142	0xbe222374	-0.15833837
143	0x3ce1cde0	0.02756399
144	0xbed4c631	-0.41557458
145	0x3c0373a9	0.008023181
146	0x3c1262fd	0.008934733
147	0x3e20a023	0.15686087
148	0x3f171c6a	0.5902773
149	0x3f52d4f4	0.8235619
150	0xbe15b072	-0.1461809
151	0xbf15aa3a	-0.5846287
152	0xbea7bc17	-0.3276069
153	0xbf0b6bee	-0.5446156
154	0x3f3c3a15	0.73526126
155	0x3ffcb4d3	1.9742683
156	0xbe9d19ac	-0.3068365
157	0x3f67360d	0.9031685
158	0x3f4ed39d	0.80791646
159	0xbe1935d1	-0.14961936
160	0xbfcea01e	-1.6142614
161	0xc022ebd3	-2.5456436
162	0xc0147db3	-2.320172
163	0xbf4c2a7f	-0.79752344
164	0x3dd49cc4	0.10381463
165	0x3f91285e	1.1340444
166	0x4023bfd3	2.558583
167	0x40465c78	3.0993938
168	0xbf920890	-1.1408863
169	0xc0492db9	-3.1434157
170	0xbfefabc9	-1.87243
171	0xbd83a176	-0.064272806
172	0xbddaf7f8	-0.106918275
173	0xbd6b0000	-0.057373047
174	0x3c975740	0.018474221
175	0xbd90cf98	-0.07070845
176	0x3d2823cb	0.04104976
177	0x3cc49cb6	0.024000507
178	0x3d8036d3	0.06260457
179	0x3de54e50	0.111965775
180	0xbe73898f	-0.23782943
181	0xbf2bb8f9	-0.6707912
182	0xbf2e5411	-0.68097025
183	0xbdf49033	-0.11941566
184	0xbe8d340a	-0.27578765
185	0xbf383d68	-0.719687
186	0x3f189b79	0.5961223
187	0x3f4d2526	0.8013481
188	0x3ef0d0ae	0.4703421
189	0xbec9dee7	-0.39427873
190	0xbe19d4b7	-0.1502255
191	0xbede57c1	-0.43426326
192	0x3dee741c	0.1164324
193	0x3eb0545b	0.34439358
194	0x3f82ca04	1.02179
195	0x400d0ebe	2.2040248
196	0x400ff9b2	2.2496152
197	0x3eaef9f3	0.3417507
198	0x3f0d1d90	0.55123234
199	0xbf3fe3be	-0.7495688
200	0xbdb2cc90	-0.087304235
201	0xbec21662	-0.37907702
202	0xbed6f1f3	-0.41981468
203	0xbd827be4	-0.063712865
204	0x3fb50ed4	1.414515
205	0x3fa6fd3f	1.3046035
206	0x3f8e1112	1.109896
207	0x3d92d980	0.07170391
208	0xbcdb928b	-0.026803276
209	0x3e279cff	0.16368483
210	0xbda489f3	-0.08034124
211	0xbdeb052e	-0.11475597
212	0xbdf9d03e	-0.12197922
213	0xbe1de360	-0.15418768
214	0xbdd19c36	-0.10234873
215	0x3d9942cb	0.07483443
216	0xbf27cf1b	-0.6555039
217	0x3e1019f7	0.14072405
218	0x3ee8fdba	0.45506078
219	0xbf3c00ac	-0.73438525
220	0xbebb84de	-0.36624807
221	0x3f6ea380	0.9321823
222	0x3e873e49	0.26414707
223	0xbf13cfe7	-0.5773911
224	0xbc604a1b	-0.013689543
225	0xbfd8d84c	-1.6941009
226	0xbfa50c10	-1.2894306
227	0x3f55c3c4	0.8350184
228	0x3f3f924e	0.7483262
229	0xc0454570	-3.0823631
230	0xc05398cd	-3.3062012
231	0x40320842	2.781754
232	0x400f3517	2.2376153
233	0x3f02689c	0.5094087
234	0xc0182731	-2.377392
235	0xbf0e9024	-0.5568869
236	0x3f04dedb	0.5190255
237	0xbe13ea2d	-0.144448
238	0xbfa51cba	-1.2899392
239	0xbf9a0646	-1.2033165
240	0x3fba03ea	1.4532444
241	0x3fd30344	1.6485372
242	0x3ddbbeec	0.10729775
243	0xbde31a8b	-0.11089047
244	0xbd9f0a4b	-0.07765635
245	0x3c0f6c16	0.008753797
246	0x3e10bc24	0.1413427
247	0xbcc6daeb	-0.02427431
248	0x3e19d2ff	0.15021895
249	0xbe1e5eea	-0.15465894
250	0x3d463f86	0.048400424
251	0x3e1e207f	0.15442084
252	0xbec4be9a	-0.38426667
253	0xbd451518	-0.04811582
254	0x3f14cdf4	0.5812676
255	0x3e22cee7	0.1589924

bias f4 [8]
0	0xbfeebf94	-1.8652215
1	0x3fb71b79	1.4305259
2	0x3e3b84d2	0.18312386
3	0xbf48b6dd	-0.7840403
4	0xbf8aba70	-1.0838146
5	0x3eedb5c0	0.46427727
6	0x4008f6ad	2.140056
7	0x400a2311	2.1583903

weight f4 [29, 512]
0	0x3e81fa2f	0.25386187
1	0x3e2690b2	0.16266134
2	0xbce0381f	-0.02737051
3	0xbed8111d	-0.42200556
4	0xbeecbd0a	-0.46237975
5	0xbf0f2e38	-0.559299
6	0xbe13b989	-0.14426245
7	0xbedfbe5e	-0.43699926
8	0xbe1949b2	-0.14969519
9	0x3ef541e0	0.4790182
10	0x3b985fd9	0.004650098
11	0xbd76d22b	-0.060259026
12	0xbec2cd91	-0.3804746
13	0xbf7519bc	-0.9574239
14	0xbec2e01d	-0.3806161
15	0xbe8b99da	-0.27265817
16	0xbf15580a	-0.5833746
17	0x3f0f8bde	0.56072795
18	0x3f1d830b	0.6152808
19	0x3e2503c9	0.16114725
20	0xbec123a0	-0.37722492
21	0x3f49f7ce	0.78893745
22	0xbf63cef0	-0.88987637
23	0xbe0bd0f0	-0.13653922
24	0x3e4c6e0c	0.19963855
25	0x3f0d8ca5	0.5529273
26	0xbe7704ec	-0.24122971
27	0x3edcd9aa	0.43134815
28	0x3ec6a54a	0.3879798
29	0xbea22e8b	-0.31676134
30	0xbeb86aff	-0.36019132
31	0xbe1e0138	-0.15430152
32	0x3e61a27b	0.22034638
33	0x3f0871b3	0.5329849
34	0x3ea658e8	0.32489705
35	0x3e952d9b	0.29136357
36	0x3e01a3bb	0.12660114
37	0x3e906bcd	0.28207245
38	0x3edbfd1b	0.42966542
39	0xbd55f364	-0.05223407
40	0x3f20decd	0.62839967
41	0x3eb509f3	0.35359153
42	0x3e92a356	0.2864024
43	0xbe117d4e	-0.14207956
44	0x3e46f0fa	0.19427863
45	0xbd57562f	-0.052572425
46	0x3e194fe6	0.14971885
47	0x3ee4883e	0.44635195
48	0x3e00b2e7	0.12568246
49	0x3c4a97a4	0.0123652555
50	0xbec781a9	-0.3896611
51	0xbf5a9562	-0.8538419
52	0xbe60b7b2	-0.21945074
53	0x3eff3c72	0.49850804
54	0xbf31e8a0	-0.6949558
55	0x3e40fa39	0.18845452
56	0xbff37109	-1.901887
57	0xbe481d90	-0.19542527
58	0x3ec3511e	0.38147825
59	0xbefca3a2	-0.49343592
60	0xbc6c2017	-0.014411948
61	0x3e7a5914	0.24448043
62	0xbf801324	-1.0005841
63	0x3eb79075	0.358524
64	0xc1a575a7	-20.682447
65	0xc0a8aa5e	-5.270797
66	0x3ee474e7	0.4462044
67	0x3f39f9a7	0.72646564
68	0x3e7f5163	0.2493339
69	0x3eaf7ea9	0.34276322
70	0x3ed93ae1	0.42427734
71	0x3e7fccea	0.24980512
72	0xbdf02d5a	-0.117274
73	0x3f184e8f	0.5949487
74	0x3ea40307	0.3203356
75	0x3ebce9dc	0.3689717
76	0x3e98afb7	0.2982156
77	0x3ee50783	0.44732293
78	0x3f83991d	1.0281101
79	0xbfc8dc49	-1.5692226
80	0x3fd59799	1.6686889
81	0x3f336f31	0.7009154
82	0x3edc008b	0.42969164
83	0x3f62c597	0.8858275
84	0x3f33d928	0.7025323
85	0x3f36e68b	0.7144553
86	0x3fd79b84	1.6844335
87	0x3d8f2f35	0.06991426
88	0x3f2eebb4	0.68328404
89	0x3f4923fa	0.7857052
90	0x3e473af1	0.19456078
91	0x3eeb2c89	0.45932415
92	0x3eb17c5a	0.34665185
93	0x3f36c109	0.713883
94	0x3f68baed	0.90910226
95	0xbfb8b955	-1.4431559
96	0x3c4ca99f	0.012491613
97	0x3e9627e3	0.29327306
98	0xbd96d8d7	-0.07365578
99	0x3d4268b8	0.04746315
100	0x3e8a8f65	0.27062526
101	0xbda8d1e5	-0.08243159
102	0x3e22648e	0.15858671
103	0x3edd1393	0.43178996
104	0xbe99c47f	-0.30032727
105	0xbea01458	-0.3126552
106	0x3e452ad4	0.19254619
107	0xbe2eb5d5	-0.17061551
108	0x3f1e7795	0.6190122
109	0x3eba1cb8	0.36350036
110	0x3f5cef30	0.8630247
111	0x3dc9ab00	0.09847069
112	0x3fa7a41d	1.3096958
113	0x3e7a0b65	0.24418409
114	0x3d27fdaf	0.041013416
115	0xbef3adbf	-0.47593495
116	0xbe016f3f	-0.12640093
117	0x3e0f87ef	0.14016698
118	0xbdadaefc	-0.08480641
119	0x3cfafbcb	0.030637642
120	0x3de9018b	0.113772474
121	0xbe51373e	-0.2043123
122	0xbe95b434	-0.29239047
123	0xbe04961d	-0.12947889
124	0x3e0daa2e	0.1383445
125	0x3d53dea6	0.051726006
126	0xbe27ae61	-0.16375114
127	0x3e467f0a	0.19384399
128	0xc07ead7c	-3.9793386
129	0xbf02bd7e	-0.5107039
130	0xbee6eef0	-0.4510417
131	0xbd9f1252	-0.07767166
132	0xbe63ef05	-0.22259147
133	0xbd849d24	-0.06475285
134	0xbd086aea	-0.033305086
135	0xbefeff5e	-0.49804205
136	0x3fd48dd2	1.660578
137	0x3de32d37	0.110926084
138	0x3bd7230b	0.0065654567
139	0xbddad7b6	-0.10685675
140	0x3e86bd8a	0.26316482
141	0xbf3321f6	-0.69973695
142	0xbfc640e8	-1.5488558
143	0xbeb3f45e	-0.35147375
144	0xbd96a71a	-0.07356091
145	0xbc36bb9f	-0.011153131
146	0xbe31b89a	-0.17355576
147	0xbea59356	-0.3233897
148	0xbec43a12	-0.38325554
149	0x3ee34458	0.4438808
150	0xbe554713	-0.20827894
151	0xbef612b0	-0.48061132
152	0x3f4c62ce	0.79838264
153	0xbddaa1e1	-0.10675407
154	0x3e662803	0.22476201
155	0xbe887e64	-0.26658928
156	0xbee90e91	-0.45518926
157	0xbf4f076c	-0.808707
158	0x3e681cf8	0.226673
159	0xbe82d23a	-0.25551015
160	0x3eeb8e6a	0.4600709
161	0x3e00d256	0.12580237
162	0xbea94e55	-0.33067575
163	0xbda83820	-0.0821383
164	0xbda3631c	-0.07977888
165	0x3f0cc238	0.54983854
166	0x3f25ab75	0.6471475
167	0x3dbaa14c	0.09112796
168	0xbdedbf71	-0.1160878
169	0x3cc0effc	0.023551933
170	0xbb852b1e	-0.004063978
171	0x3e9ca8ac	0.30597436
172	0xbefeae2b	-0.49742255
173	0xbe9921f1	-0.29908708
174	0x3f330a92	0.69938004
175	0x3e1cee61	0.1532531
176	0x3f10b023	0.56518763
177	0xbe45980c	-0.19296283
178	0xbd88fa0c	-0.06688318
179	0x3d7dd490	0.061970294
180	0x3d4f4d89	0.050611053
181	0x3e821843	0.25409135
182	0x3e826e26	0.25474662
183	0x3ea79bbb	0.32736
184	0x3ef30cd6	0.4747073
185	0x3e923e5a	0.28563195
186	0x3eadb7ea	0.33929378
187	0x3f540271	0.82816225
188	0x3f0eb59b	0.5574586
189	0x3d74faef	0.05980962
190	0xbdcf7d74	-0.1013135
191	0x3e4e93d4	0.2017358
192	0x3d4b2e6c	0.04960482
193	0xbfb29889	-1.39528
194	0xbfbee930	-1.4914913
195	0xbe81822e	-0.25294632
196	0xbd5db642	-0.054128893
197	0x3d863a03	0.065540336
198	0xbee4fe82	-0.44725424
199	0x3e226a74	0.15860921
200	0xbe6f8a1e	-0.23392531
201	0x3ef074c9	0.469641
202	0x3eee3a5e	0.46528906
203	0x3d5cfbfb	0.053951245
204	0x3e02ba19	0.12766303
205	0xbf024e2a	-0.5090052
206	0x3f89ed10	1.0775471
207	0x3f6cfbf6	0.9257196
208	0x3f666b04	0.9000704
209	0x3ebffa5d	0.374957
210	0xbf33ce2c	-0.7023647
211	0xbf5d03ea	-0.863341
212	0xbe96b358	-0.29433703
213	0xbdcef274	-0.10104838
214	0xbfb3d946	-1.4050682
215	0x3e9f0d17	0.31064674
216	0x3f4eafd6	0.80737054
217	0xbfc4ddc3	-1.5380176
218	0xbf80f97b	-1.0076135
219	0xbe7056c3	-0.23470597
220	0xbf536c6b	-0.8258731
221	0xbf8e1de0	-1.1102867
222	0xbf9996c5	-1.1999136
223	0x3efe7145	0.49695793
224	0x3f63df05	0.89012176
225	0xbebad47c	-0.36490238
226	0xbf16b9b0	-0.58877087
227	0xbf374369	-0.71587235
228	0xbf08d3dc	-0.5344827
229	0x3dfaf06b	0.12252887
230	0xbeca49e4	-0.395095
231	0xbf49617f	-0.7866439
232	0x3f7975d1	0.974454
233	0xbf2f5980	-0.6849594
234	0xbf64c2e0	-0.89359856
235	0xbec30301	-0.3808823
236	0xbeb617c3	-0.35565004
237	0xbedfd9ec	-0.4372095
238	0xbdc4acd9	-0.096032806
239	0xbf8e2bd0	-1.110712
240	0x3fa562b4	1.2920747
241	0x3eda0066	0.4257843
242	0x3f1fae1b	0.6237504
243	0xbf60095e	-0.87514293
244	0xbf4932df	-0.7859325
245	0xbfaa741b	-1.3316683
246	0xbfe3515d	-1.7759205
247	0xbfa91c25	-1.3211714
248	0x3d6714d7	0.05641636
249	0xbe8f26b0	-0.27959204
250	0xbe627ae4	-0.22117192
251	0xbdae21b3	-0.08502521
252	0x3e7eb35f	0.24873112
253	0x3e25c1b4	0.16187173
254	0x3e35f78e	0.17770216
255	0x3ecabf04	0.39598858

bias f4 [29]
0	0xbdd4f044	-0.103973895
1	0x3e707312	0.23481396
2	0xbe7d0d30	-0.24712062
3	0x3e1eacd5	0.15495618
4	0xbe015298	-0.12629163
5	0xbd8cc0fc	-0.06872746
6	0xbdf1f8c5	-0.11815027
7	0x3db95736	0.09049837
8	0x3ee08a69	0.438556
9	0xbe1207eb	-0.14260833
10	0x3eaeb5b0	0.34122992
11	0xbf0eb37f	-0.5574264
12	0xbeedb518	-0.46427226
13	0x3e89ca4b	0.2691215
14	0xbf3f8590	-0.74813175
15	0xbea8ce0f	-0.3296971
16	0xbd45e2d4	-0.048312023
17	0x3f0ccc09	0.5499883
18	0xbea18fe4	-0.31555092
19	0x3e93c0f3	0.28858146
20	0xbeb736ed	-0.35784093
21	0x3efe57ad	0.49676266
22	0x3d67f426	0.056629322
23	0x3f13e8e6	0.5777725
24	0xbee5368d	-0.4476818
25	0x3dedb97e	0.116076455
26	0x3e2ff2ca	0.1718246
27	0x3e573603	0.21016698
28	0xbe83a3f9	-0.2571104
