workspace-rich/checkpoints_backup/230830/checkpoint_98.47.pth (torch, 64671 bytes, 6 tensors)

weight f4 [4, 1, 3, 3]
00000000: bbb1 003f 27c5 253e 68bc a63f 9f1a 1140
00000010: fd05 1b40 2f47 0b40 1787 b63f 1c43 f23f
00000020: 6102 0540 fc86 0e3e dc8b 47bf bb2a 80bf
00000030: 5043 39bf 35d9 17bf eee2 d7bd 436b ed3e
00000040: 1214 843f 2002 d13f e3db dbbe 8fa1 93bf
00000050: 9318 9abf 5815 b03f eda4 2a3f 9a7f 39bf
00000060: 5abc 923f 2393 103f 6fe6 0b3f 1b42 8abd
00000070: db43 43be d054 f7bd 8640 bbbd a393 06be
00000080: a2a8 903e c8fc 613e 4868 81be 561f 91bd
0.50271195 0.16188489 1.3026247 2.2672498 2.4222405 2.1762197 1.4259976 1.892673
2.0782702 0.1391868 -0.77947783 -1.001304 -0.72368336 -0.59315807 -0.1054133 0.46370897
1.0318625 1.6328773 -0.42941198 -1.1533679 -1.203875 1.3756514 0.66657907 -0.7246033
1.146373 0.5647451 0.5464849 -0.0675089 -0.19068854 -0.120767236 -0.09143166 -0.13142256
0.28253657 0.22069085 -0.25274873 -0.07086055

bias f4 [4]
00000000: 01ef 0ec0 302a 5dbc 30d6 75be 326c a7be
-2.2333376 -0.013498828 -0.24007487 -0.32699734

weight f4 [8, 4, 3, 3]
00000000: 836a 80be 3309 e0be aecc 24be 35bc 673e
00000010: f6a9 87be 298f 34be 8dac 113f 7504 ca3e
00000020: a91c 943e 560a 983e cc61 2f3e a885 ff3d
00000030: da70 75bf 94bb d6be f53e 8abf e0ab a2bf
00000040: 0cef 33bf 6b92 71bf ed12 203f 3447 f6be
00000050: 3cea 36be 63e0 1e3f cc58 983f 2200 873e
00000060: a0fb 2bbe dd35 0740 37df cc3f 0bd7 613d
00000070: 66c6 0d3d a88e bcbd 4eb6 1e3e d840 163e
00000080: 4be7 a73d c68a 26be 06f2 66bd e655 98bd
00000090: d07f e63e 35e5 273f f1ab 313e 8a5b fc3e
000000a0: 82f4 383d 09b2 46bf ac8b 4b3e dd36 06bf
000000b0: 4a8b 01bf 4f7c 6940 b87a e83e 46e9 f2bf
000000c0: 17ba 01c0 86cc 62c0 9bb8 f7be 8d95 40bf
000000d0: 91aa a73f 091c 2740 3bcf 36bd 322d 3dbe
000000e0: 0ffb 39bd 866d f6bf 9e21 45c0 2d46 0ac0
000000f0: 1ecb ebbf 9e8c 54c0 3900 c1bf a265 0b3e
00000100: 3372 febd 8bcf babd d680 5a3d d69f 36bc
00000110: 1683 9fbc 9ed6 1b3e c0b2 a53c 30c9 dc3d
00000120: 7842 2c3f b2a6 173e 49b3 0abf 887b ef3e
00000130: 8171 cebe a9d6 e8be e722 393f ad71 58bf
00000140: 69cd aabe 1093 963f 9ba3 99be 26cc 463f
00000150: 4bab 293e 87a0 27c0 a4eb 7a3f 71d8 babf
00000160: 0864 a6bf 666d 5d3f c54b 4dbe 8db6 4f3e
00000170: c1ed f23f a262 f03e ecf2 393f b8fa 803f
00000180: 7ad3 053f e153 d63e dbbe b7be 0ba3 c53c
00000190: 3048 223e 465d 023e 38e5 a1bd 544f 093e
000001a0: c08b 07bc 575a 103e c0ca 9d3d 3b0b 97bd
000001b0: ee77 623d 474f 1e3f ba5a 023e 58de 03bf
000001c0: 68d2 21be 24f4 a53b 3203 05be 9572 b0be
000001d0: ab87 85be 2985 2e40 a2f9 7940 bbec 2c40
000001e0: fb7b a1bf ccdd b4bf 0c62 5c3f c649 1240
000001f0: 0c2c 3240 737c eb3f 4bc2 763f 2b2e e83f
00000200: c7ac cc3f 5433 79be 4602 bfbf 0600 8abe
00000210: f717 9a3e dd85 773e e87c 2cbf 430a 89bd
00000220: 5b59 033e c6c8 07be b3de f93d 0b6f afbc
00000230: 0cce 17be c004 41bd 7423 22be e0cd e13c
00000240: 23e3 d3be 7a0d e33b cf61 073c df9f 1f3e
00000250: b959 163f b258 523f af69 14be 867b 15bf
00000260: ec17 a7be d345 0bbf 18fc 3b3f 18ea fc3f
00000270: 405f 9dbe 36a0 663f db9c 4d3f e2f7 13be
00000280: 4110 cebf 8a96 22c0 3b31 14c0 1988 4bbf
00000290: 86db de3d 8efa 903f d88b 2340 2515 4640
000002a0: 51df 91bf edde 48c0 6c3b efbf 76a1 83bd
000002b0: f8f7 dabd 0000 6bbd 4057 973c 98cf 90bd
000002c0: cb23 283d b69c c43c d336 803d 504e e53d
000002d0: 3d96 71be a45c 2bbf d6d8 2dbf 0cf2 f1bd
000002e0: e2d6 8cbe 3238 38bf 582c 183f 7085 4c3f
000002f0: 03e5 ef3e e496 cabe c938 1bbe 640a debe
00000300: 38d1 e63d ae03 af3e bf30 823f 2baa 0c40
00000310: 2b84 0f40 627c ac3e 6ce8 0c3f d940 40bf
00000320: 2742 b9bd 9af3 c2be 4455 d6be 9873 82bd
00000330: 58ac b43f c1b1 a63f 971d 8e3f 80d9 923d
00000340: 8b92 dbbc ff9c 273e f389 a4bd 2e05 ebbd
00000350: 3ed0 f9bd 60e3 1dbe 369c d1bd cb42 993d
00000360: e36f 27bf 8a89 0f3e f372 e83e 5dd7 3bbf
00000370: a9c7 babe 8779 6e3f 32a1 863e 62b4 13bf
00000380: 8068 64bc 62d0 d8bf 09c6 a4bf 1b48 563f
00000390: 8e58 3e3f 7f19 45c0 513e 53c0 1be1 3140
000003a0: 0521 0f40 5e8c 013f c2d1 17c0 db15 0dbf
000003b0: c0a1 053f 04dd 17be d988 a5bf 8775 99bf
000003c0: 2c95 b93f a1a4 d23f ce29 e03d 8b1a e3bd
000003d0: 4b0a 9fbd 166c 0f3c 24bc 103e ebda c6bc
000003e0: ffd2 193e ea5e 1ebe 863f 463d 7f20 1e3e
000003f0: dbb9 c3be 48bf 45bd 1cf2 143f 2a7e 233e
-0.25081262 -0.43757018 -0.16093704 0.22630389 -0.26496857 -0.17632736 0.56903917 0.39456525
0.28928116 0.29695386 0.1712715 0.12476665 -0.9587532 -0.41939986 -1.0800463 -1.2708702
-0.7028663 -0.9436404 0.6252888 -0.481012 -0.17862791 0.62061137 1.1902099 0.2636729
-0.16795206 2.1126626 1.600562 0.05513672 0.034613036 -0.09206897 0.15499231 0.14673173
0.081984125 -0.16263875 -0.056383155 -0.07438259 0.45019388 0.6558412 0.17350747 0.4928859
0.045155056 -0.7761541 0.198775 -0.52427465 -0.50603163 3.6482122 0.45406127 -1.8977439
-2.026983 -3.5437331 -0.4838303 -0.75228196 1.3098928 2.6110861 -0.044631224 -0.18474272
-0.045405444 -1.9252174 -3.0801768 -2.1605332 -1.8421361 -3.3210826 -1.5078193 0.13612989
-0.124241255 -0.09121617 0.053345524 -0.011146506 -0.019471686 0.15218589 0.020226836 0.10780561
0.67288923 0.14809683 -0.5417982 0.46773934 -0.40320972 -0.45476273 0.7231888 -0.84548455
-0.3335984 1.176363 -0.30007634 0.77655256 0.1656925 -2.6191728 0.9801581 -1.4597303
-1.2999277 0.86495054 -0.20048435 0.20284481 1.8978807 0.4695025 0.72636294 1.0076513
0.5227581 0.4186087 -0.358878 0.024125597 0.1584785 0.12730893 -0.07905048 0.13409168
-0.008273065 0.14096962 0.07704687 -0.07375189 0.055290155 0.6183972 0.12729922 -0.51511145
-0.1580292 0.005064504 -0.129895 -0.3446242 -0.2608007 2.7268775 3.9058614 2.701949
-1.2615961 -1.4130187 0.8608711 2.2857528 2.7839384 1.8397354 0.9639022 1.8139089
1.5990227 -0.24335986 -1.4922569 -0.26953143 0.3009641 0.24172159 -0.6737809 -0.066914104
0.12827055 -0.13260183 0.1220068 -0.021415254 -0.14824694 -0.04712367 -0.15833837 0.02756399
-0.4138423 0.0069290968 0.0082630655 0.1558833 0.58730656 0.8216659 -0.1449344 -0.58391607
-0.32635438 -0.5440342 0.7343154 1.975894 -0.30736732 0.9008821 0.8031747 -0.14450029
-1.609871 -2.5404382 -2.3155048 -0.79504544 0.108817145 1.1326463 2.5554104 3.0950406
-1.1396276 -3.1386063 -1.8690009 -0.064272806 -0.106918275 -0.057373047 0.018474221 -0.07070845
0.04104976 0.024000507 0.06260457 0.111965775 -0.23592468 -0.66938233 -0.6790899 -0.11813745
-0.27507693 -0.7196075 0.59442663 0.7989111 0.4685441 -0.39568245 -0.1515838 -0.43367302
0.11270374 0.34182495 1.0171126 2.1978862 2.242442 0.33688647 0.5504215 -0.7509895
-0.09045821 -0.38076478 -0.41861928 -0.06369704 1.4115095 1.3022996 1.110278 0.07170391
-0.026803276 0.16368483 -0.08034124 -0.11475597 -0.12197922 -0.15418768 -0.10234873 0.07483443
-0.654051 0.1401731 0.454002 -0.73375493 -0.36480454 0.93154186 0.26294857 -0.5769712
-0.01394093 -1.6938593 -1.2872936 0.83703774 0.74353874 -3.0796812 -3.3006785 2.7793643
2.2363904 0.5060481 -2.3721776 -0.55111474 0.52199936 -0.14830405 -1.2932388 -1.1988991
1.4498649 1.6456491 0.109454736 -0.11089047 -0.07765635 0.008753797 0.1413427 -0.02427431
0.15021895 -0.15465894 0.048400424 0.15442084 -0.38227734 -0.048278123 0.5818193 0.15966097

bias f4 [8]
00000000: 30f2 edbf 5f6a b63f b094 383e d34d 48bf
00000010: 87eb 89bf de3a ed3e 8dbe 0840 b29c 0940
-1.8589535 1.4251212 0.1802547 -0.7824375 -1.0775002 0.46333975 2.1366303 2.150189

weight f4 [29, 512]
00000000: bfcd 813e aaa6 253e 86b5 debc 2869 d7be
00000010: ea8e ecbe 81af 0fbf af2b 15be 42c0 dfbe
00000020: 4e4d 18be c7df f43e 41cc a83b ceaa 76bd
00000030: 655a c3be 6536 75bf 1045 c3be 7f65 8bbe
00000040: e20a 15bf c052 0f3f f229 1d3f 4c49 253e
00000050: 76f4 c0be ba9e 4a3f 2f1b 65bf bc37 0bbe
00000060: 5062 4f3e fa1c 0d3f 7604 79be a240 dc3e
00000070: 824b c43e 67b7 a0be 0c18 bbbe a21c 1ebe
00000080: 43d3 613e cc82 083f 5c4c a53e 3b1b 963e
00000090: a18c fe3d 3c3e 923e 98d2 db3e 162b 54bd
000000a0: 4421 213f b833 b63e cd30 933e 096b 11be
000000b0: 84f5 483e 7b7a 5bbd ea79 1a3e 0c5d e43e
000000c0: 013c 023e 4fce 4f3c 708a c7be ba33 5abf
000000d0: 0f5c 5fbe 6e4c fd3e e545 32bf c8e4 403e
000000e0: a5a9 f2bf aa63 46be ee11 c23e aa20 fdbe
000000f0: 628c 39bc 6dfd 753e 7381 80bf da2c b73e
00000100: cc2d a5c1 0583 a8c0 18a3 e53e b421 3a3f
00000110: 941b 803e 7838 b03e de1c dd3e f6d9 7e3e
00000120: b5d0 d5bd e489 183f 4b25 a63e d676 c03e
00000130: ebba 993e 747f e03e a9d8 833f 4987 c8bf
00000140: 42e2 d43f 71b0 333f 49de dc3e 9711 623f
00000150: c4fa 323f 371e 373f 638f d73f 670e 873d
00000160: b6d3 2f3f 87fc 4a3f 1fa9 463e ffc2 ea3e
00000170: b3b5 b23e abcf 363f 2763 693f 3187 b8bf
00000180: 2d4a 393c 3a25 973e 26e1 98bd 6cb2 4d3d
00000190: 194e 8c3e d9b0 a3bd 1c44 1b3e 4f75 da3e
000001a0: efcb 98be 4921 a3be d757 493e 65d0 2dbe
000001b0: 99d7 1d3f 61bc b93e ae5e 5d3f c621 c53d
000001c0: e23f a73f 7fdd 773e ea25 2a3d ff6f f2be
000001d0: 7317 01be 3446 133e deba b9bd 1b9d f63c
000001e0: 05dd e73d 2927 51be 07b1 95be a70f 04be
000001f0: e1b8 0d3e a93d 583d dea3 26be da2e 463e
00000200: 1831 7ec0 0427 00bf f8a8 e5be fded 99bd
00000210: 6dc9 60be 1569 82bd dbeb 01bd 2120 ffbe
00000220: c45a d33f 22f4 e93d ec99 f23b 9d91 d6bd
00000230: 07b5 873e dcc9 33bf 0bfd c6bf ed90 b3be
00000240: 8c1c 7ebd f902 06bc a844 2dbe e6e4 a4be
00000250: 4c66 c4be 7f47 e23e 3c0f 57be 79b4 f5be
00000260: 7571 4a3f 0624 cfbd 8f92 643e 3ec4 89be
00000270: 1ff7 eabe 1be5 4ebf caa6 693e 288f 82be
00000280: 7d60 e93e 8f0d 043e 12ff a8be 720a aabd
00000290: 1be1 a9bd 5429 0d3f 2263 253f 18fc b73d
000002a0: 36ae e3bd 3744 e03c 7d7b 6fbb 32e9 9b3e
000002b0: c428 ffbe 75f4 97be 298f 343f 7d50 1d3e
000002c0: 3e1b 103f b89b 3cbe 332f 89bd 2d04 6d3d
000002d0: 1f72 5b3d 785a 833e 6d6b 823e 03b7 a73e
000002e0: 8c2d f23e 03f5 923e 4489 ad3e 49c8 523f
000002f0: dcf7 0e3f e865 763d 62c2 e2bd 3245 4e3e
00000300: 143b 503d e772 b2bf 89b9 bebf 5547 81be
00000310: a461 5dbd 43bc 853d eb38 e5be 9065 203e
00000320: eba0 6ebe 084c f03e 0f0b ee3e 2ffd 543d
00000330: 005f fb3d 039a 03bf 2d5b 893f 6209 6d3f
00000340: dd1b 663f 0a95 c53e e563 33bf 8826 5dbf
00000350: 6250 97be f6cf c8bd 19d6 b2bf 8445 9e3e
00000360: 0e3a 4e3f 3235 c3bf f0ee 81bf 5d3b 6bbe
00000370: 50ab 52bf ed22 8dbf 1643 99bf 183d fa3e
00000380: d278 633f 7c9c babe 39fa 15bf ee4a 36bf
00000390: 6997 06bf 4207 f83d 023f cabe 0f3a 48bf
000003a0: 8566 793f 5073 2dbf 0a5d 63bf 947b c0be
000003b0: abad b6be bd3c e2be 1840 c6bd 2fee 8dbf
000003c0: bd49 a53f e8bc d53e fc2d 1f3f 04bb 5fbf
000003d0: e14b 4abf b8c6 aabf ab62 e3bf 0848 a9bf
000003e0: e2b1 663d 8e93 8ebe 491a 62be 0e4b adbd
000003f0: 87fd 7e3e 3339 243e 5e56 363e 5d7c ca3e
0.25352284 0.16176859 -0.027186166 -0.42072415 -0.46202785 -0.5612717 -0.14567445 -0.4370137
-0.1487324 0.4782698 0.005151302 -0.060221486 -0.38154903 -0.95786124 -0.38138628 -0.27225873
-0.5821973 0.5598564 0.6139213 0.16141242 -0.3768651 0.7914845 -0.89494604 -0.1359548
0.20252347 0.5512234 -0.24318108 0.4301806 0.38338858 -0.31389925 -0.36541784 -0.1544061
0.22053246 0.5332458 0.3228482 0.2931765 0.124291666 0.28563106 0.42934108 -0.051798902
0.62941384 0.35586333 0.2874817 -0.14200987 0.19624907 -0.053583603 0.15085569 0.4460224
0.12718202 0.012683465 -0.38972807 -0.8523518 -0.21812461 0.49472374 -0.696379 0.18837273
-1.8958021 -0.19373956 0.37904304 -0.49438983 -0.011324974 0.24022456 -1.0039505 0.35776407
-20.647362 -5.2659936 0.44850993 0.72707677 0.2502104 0.34418082 0.43186086 0.24887833
-0.10440198 0.59585404 0.32450327 0.37590665 0.3002542 0.4384724 1.0300494 -1.5666286
1.6631548 0.70191103 0.4313834 0.8830809 0.6991389 0.7153048 1.6840633 0.06594544
0.6868242 0.79291576 0.19400452 0.45851895 0.3490425 0.71410626 0.9116692 -1.4416257
0.011309189 0.2952059 -0.07464819 0.050218984 0.27403334 -0.079927154 0.151627 0.42667624
-0.2984309 -0.31861332 0.19662414 -0.16974027 0.616571 0.36276534 0.86472595 0.096255824
1.306637 0.24205588 0.041540064 -0.4735107 -0.12606601 0.14382249 -0.09068845 0.03010421
0.11321453 -0.20425095 -0.29236624 -0.12896596 0.13840057 0.05279318 -0.16273448 0.1935381
-3.9717464 -0.50059533 -0.44855475 -0.07516096 -0.21951838 -0.06367699 -0.03171907 -0.498292
1.6512074 0.11423518 0.007403603 -0.10476992 0.265053 -0.7022989 -1.5545973 -0.35071507
-0.062038943 -0.00817942 -0.16920722 -0.32205886 -0.38359296 0.44195172 -0.21001905 -0.47989252
0.7907937 -0.10114293 0.22321533 -0.26907533 -0.45891663 -0.8081834 0.22817531 -0.25499845
0.45581427 0.12895797 -0.33007103 -0.083027735 -0.082948886 0.55141187 0.6460439 0.0898363
-0.111172125 0.027376277 -0.003654211 0.3045135 -0.4983579 -0.29678693 0.70530945 0.15362735
0.5629157 -0.18418777 -0.06698456 0.05786531 0.05357563 0.2565496 0.25472584 0.32756814
0.47300375 0.28702554 0.33893788 0.8233686 0.55846953 0.06015578 -0.11072232 0.20143583
0.05083759 -1.3941315 -1.4900371 -0.25249735 -0.054048195 0.06530049 -0.44769987 0.15663743
-0.23303573 0.46933007 0.46492812 0.051999267 0.12273979 -0.5140688 1.073095 0.9259244
0.89886266 0.3859027 -0.700743 -0.8638692 -0.29553515 -0.098052904 -1.3971587 0.3091241
0.80557334 -1.5250609 -1.0151043 -0.22971864 -0.8229265 -1.1026284 -1.1973598 0.48874736
0.8885623 -0.36447513 -0.58584934 -0.71208084 -0.52574784 0.12110759 -0.39501196 -0.7821359
0.9742206 -0.6775408 -0.8881384 -0.37594283 -0.35679373 -0.44186965 -0.09680194 -1.1088313
1.2913128 0.41745687 0.6217954 -0.8739474 -0.7902203 -1.3341894 -1.7764486 -1.3225107
0.056321986 -0.2784695 -0.2208034 -0.08461581 0.249014 0.16037445 0.17806384 0.39548007

bias f4 [29]
00000000: a552 d5bd 6487 6f3e c242 7dbe cc59 1e3e
00000010: 4c29 00be 7518 8abd ee71 f0bd e6df b83d
00000020: dce8 df3e 23a2 10be 4739 ae3e 8976 0ebf
00000030: 05b1 ecbe b079 893e b2e8 3ebf 826c a8be
00000040: fa2f 43bd a38b 0c3f 7788 a1be 879e 933e
00000050: 4374 b6be d4c1 fd3e 9231 683d b295 133f
00000060: 79f2 e4be 5eb3 ef3d 712d 313e d771 563e
00000070: db92 83be
-0.10416154 0.23391491 -0.24732497 0.15463942 -0.12515754 -0.06742946 -0.1174048 0.0902708
0.43732345 -0.1412435 0.34028074 -0.5564962 -0.46228805 0.26850653 -0.74573815 -0.32895285
-0.047653176 0.5490057 -0.31549427 0.28831884 -0.35635576 0.49561942 0.0566879 0.5765029
-0.44716242 0.117041335 0.17302491 0.20941864 -0.2569798
