workspace-rich/checkpoints_backup/230830/checkpoint_98.40.pth (torch, 64671 bytes, 6 tensors)

weight f4 [4, 1, 3, 3]
0.5018952 0.16120817 1.3026582 2.2655087 2.4205396 2.175317 1.4255959 1.8922945
2.077582 0.1402095 -0.7781151 -0.99957556 -0.7234251 -0.59240234 -0.104821816 0.46219128
1.0301135 1.6313733 -0.43022364 -1.1534976 -1.2034001 1.3742374 0.6656708 -0.7241978
1.1449922 0.56343514 0.54575425 -0.0675089 -0.19068854 -0.120767236 -0.09143166 -0.13142256
0.28253657 0.22069085 -0.25274873 -0.07086055
00000000: 347c 003f c113 253e 81bd a63f 18fe 1040
00000010: 1fea 1a40 6538 0b40 ed79 b63f b536 f23f
00000020: 1af7 0440 1493 0f3e 8d32 47bf 2fe4 7fbf
00000030: 6332 39bf aea7 17bf d2ac d6bd 56a4 ec3e
00000040: c2da 833f d7d0 d03f 4646 dcbe cfa5 93bf
00000050: 0409 9abf 03e7 af3f 6769 2a3f 0765 39bf
00000060: 1b8f 923f 493d 103f 8db6 0b3f 1b42 8abd
00000070: db43 43be d054 f7bd 8640 bbbd a393 06be
00000080: a2a8 903e c8fc 613e 4868 81be 561f 91bd

bias f4 [4]
-2.2293239 -0.014959876 -0.2393722 -0.32699734
00000000: 3ead 0ec0 451a 75bc fc1d 75be 326c a7be

weight f4 [8, 4, 3, 3]
-0.25164723 -0.43823814 -0.1610692 0.22499499 -0.2662704 -0.17665653 0.5678794 0.39309257
0.28849044 0.2958508 0.16937932 0.12330783 -0.9585436 -0.41882113 -1.0792712 -1.2701957
-0.7022739 -0.94355583 0.6229612 -0.4828855 -0.17918159 0.6192836 1.1880817 0.26370746
-0.1682076 2.110543 1.5988005 0.05513672 0.034613036 -0.09206897 0.15499231 0.14673173
0.081984125 -0.16263875 -0.056383155 -0.07438259 0.4506034 0.6562552 0.17331906 0.49394965
0.04640539 -0.7760962 0.19958365 -0.52337486 -0.5061845 3.6453967 0.45378834 -1.8970208
-2.0248299 -3.5456922 -0.48562896 -0.7526392 1.3067021 2.6095676 -0.04358918 -0.1830653
-0.044356115 -1.9216973 -3.0781155 -2.1621025 -1.8406646 -3.3204257 -1.5089927 0.13612989
-0.124241255 -0.09121617 0.053345524 -0.011146506 -0.019471686 0.15218589 0.020226836 0.10780561
0.67146975 0.14732826 -0.5413576 0.46649766 -0.4041453 -0.4545761 0.72221494 -0.8455734
-0.3333918 1.1763844 -0.30084056 0.77630943 0.16790703 -2.6168296 0.980171 -1.4596188
-1.2999897 0.864755 -0.20036997 0.20183623 1.8976635 0.47008148 0.72531134 1.0063598
0.52222663 0.41733152 -0.35794964 0.024125597 0.1584785 0.12730893 -0.07905048 0.13409168
-0.008273065 0.14096962 0.07704687 -0.07375189 0.055837788 0.6194192 0.12749483 -0.5147656
-0.1565872 0.005826865 -0.13018745 -0.3434941 -0.26092058 2.7246993 3.9018555 2.6981537
-1.26389 -1.4165795 0.8600041 2.2829678 2.7821753 1.8375939 0.96139085 1.8114626
1.5977771 -0.24447978 -1.49283 -0.2686731 0.30018923 0.24105889 -0.67247766 -0.066914104
0.12827055 -0.13260183 0.1220068 -0.021415254 -0.14824694 -0.04712367 -0.15833837 0.02756399
-0.41307867 0.0070277904 0.008857886 0.15582024 0.58662796 0.8215954 -0.14492616 -0.58390325
-0.32605323 -0.5450442 0.73253083 1.9751107 -0.30779433 0.899753 0.8013792 -0.1433894
-1.6081125 -2.5383537 -2.314448 -0.7952061 0.10799423 1.13234 2.553999 3.0922654
-1.1397902 -3.1374621 -1.8698285 -0.064272806 -0.106918275 -0.057373047 0.018474221 -0.07070845
0.04104976 0.024000507 0.06260457 0.111965775 -0.23569418 -0.6693348 -0.67869157 -0.11857403
-0.27539316 -0.7199882 0.5930487 0.7975387 0.46743685 -0.3981844 -0.15387133 -0.43501547
0.11087534 0.3407285 1.0148182 2.1962297 2.2403219 0.33464462 0.54897153 -0.75291365
-0.09275187 -0.3823303 -0.41888615 -0.064051285 1.4097947 1.3017218 1.1099813 0.07170391
-0.026803276 0.16368483 -0.08034124 -0.11475597 -0.12197922 -0.15418768 -0.10234873 0.07483443
-0.65375745 0.14014864 0.45371786 -0.73365587 -0.36389795 0.93156725 0.2627771 -0.5764261
-0.013852694 -1.6950293 -1.2864858 0.83779234 0.74202204 -3.0784743 -3.2991045 2.7783585
2.235495 0.50442046 -2.3707602 -0.5492774 0.5218476 -0.14947864 -1.2941546 -1.1984801
1.448985 1.644602 0.10909039 -0.11089047 -0.07765635 0.008753797 0.1413427 -0.02427431
0.15021895 -0.15465894 0.048400424 0.15442084 -0.3826201 -0.049125474 0.58071697 0.15898193
00000000: e8d7 80be c060 e0be 53ef 24be 1665 663e
00000010: 9854 88be 73e5 34be 8b60 113f 6e43 c93e
00000020: 05b5 933e c279 973e c671 2d3e d188 fc3d
00000030: 1d63 75bf b96f d6be 8f25 8abf c695 a2bf
00000040: 39c8 33bf e08c 71bf 637a 1f3f c53c f7be
00000050: 617b 37be 5f89 1e3f 1013 983f aa04 873e
00000060: 9d3e 2cbe 2313 0740 7fa5 cc3f 0bd7 613d
00000070: 66c6 0d3d a88e bcbd 4eb6 1e3e d840 163e
00000080: 4be7 a73d c68a 26be 06f2 66bd e655 98bd
00000090: 7db5 e63e 5700 283f 8d7a 313e f8e6 fc3e
000000a0: 9413 3e3d 3eae 46bf a85f 4c3e e5fb 05bf
000000b0: 4f95 01bf 2e4e 6940 f256 e83e 94d1 f2bf
000000c0: d096 01c0 9fec 62c0 5ca4 f8be f6ac 40bf
000000d0: 0442 a73f 2803 2740 918a 32bd 7875 3bbe
000000e0: c2ae 35bd 2dfa f5bf d8ff 44c0 e35f 0ac0
000000f0: e69a ebbf db81 54c0 ac26 c1bf a265 0b3e
00000100: 3372 febd 8bcf babd d680 5a3d d69f 36bc
00000110: 1683 9fbc 9ed6 1b3e c0b2 a53c 30c9 dc3d
00000120: 71e5 2b3f 38dd 163e 6996 0abf c8d8 ee3e
00000130: 22ec cebe 33be e8be 14e3 383f 8077 58bf
00000140: 54b2 aabe c493 963f c607 9abe 37bc 463f
00000150: d2ef 2b3e 237a 27c0 7dec 7a3f cad4 babf
00000160: 1066 a6bf 9560 5d3f c92d 4dbe 28ae 4e3e
00000170: a3e6 f23f 85ae f03e 01ae 393f 66d0 803f
00000180: a5b0 053f 7aac d53e 2d45 b7be 0ba3 c53c
00000190: 3048 223e 465d 023e 38e5 a1bd 544f 093e
000001a0: c08b 07bc 575a 103e c0ca 9d3d 3b0b 97bd
000001b0: 2ab6 643d 4292 1e3f 018e 023e aec7 03bf
000001c0: 6558 20be 49ef be3b dc4f 05be 75de afbe
000001d0: 6297 85be 7961 2e40 00b8 7940 8dae 2c40
000001e0: 26c7 a1bf 7a52 b5bf 3b29 5c3f 251c 1240
000001f0: 290f 3240 4736 eb3f b61d 763f 02de e73f
00000200: f683 cc3f e858 7abe 0e15 bfbf 858f 89be
00000210: 67b2 993e 24d8 763e 7f27 2cbf 430a 89bd
00000220: 5b59 033e c6c8 07be b3de f93d 0b6f afbc
00000230: 0cce 17be c004 41bd 7423 22be e0cd e13c
00000240: 0c7f d3be 6149 e63b ab20 113c 578f 1f3e
00000250: 402d 163f 1354 523f 8667 14be af7a 15bf
00000260: 73f0 a6be 0488 0bbf 2487 3b3f 6dd0 fc3f
00000270: 3897 9dbe 3656 663f 3027 4d3f acd4 12be
00000280: a1d6 cdbf 6374 22c0 eb1f 14c0 a192 4bbf
00000290: 142c dd3d 84f0 903f b874 2340 ade7 4540
000002a0: a5e4 91bf 2ecc 48c0 8a56 efbf 76a1 83bd
000002b0: f8f7 dabd 0000 6bbd 4057 973c 98cf 90bd
000002c0: cb23 283d b69c c43c d336 803d 504e e53d
000002d0: d159 71be 8759 2bbf bbbe 2dbf f1d6 f2bd
000002e0: 5500 8dbe 2651 38bf 0ad2 173f 7f2b 4c3f
000002f0: e253 ef3e d3de cbbe 7290 1dbe 59ba debe
00000300: 9c12 e33d f773 ae3e 90e5 813f 078f 0c40
00000310: 6f61 0f40 8a56 ab3e 6689 0c3f f3be 40bf
00000320: b1f4 bdbd ccc0 c3be 3f78 d6be 522d 83bd
00000330: 2774 b43f d29e a63f de13 8e3f 80d9 923d
00000340: 8b92 dbbc ff9c 273e f389 a4bd 2e05 ebbd
00000350: 3ed0 f9bd 60e3 1dbe 369c d1bd cb42 993d
00000360: a65c 27bf 2083 0f3e b54d e83e dfd0 3bbf
00000370: d550 babe 317b 6e3f b88a 863e a990 13bf
00000380: 69f6 62bc b8f6 d8bf 91ab a4bf 8f79 563f
00000390: 28f5 3d3f b905 45c0 8724 53c0 a0d0 3140
000003a0: 5a12 0f40 b321 013f 89ba 17c0 729d 0cbf
000003b0: ce97 053f ee10 19be dca6 a5bf cc67 99bf
000003c0: 5778 b93f 5182 d23f c86a df3d 8b1a e3bd
000003d0: 4b0a 9fbd 166c 0f3c 24bc 103e ebda c6bc
000003e0: ffd2 193e ea5e 1ebe 863f 463d 7f20 1e3e
000003f0: c8e6 c3be cb37 49bd dea9 143f 29cc 223e

bias f4 [8]
-1.8581371 1.4211004 0.180129 -0.78209305 -1.0752646 0.4614622 2.1353552 2.1476333
00000000: 70d7 edbf 9ee6 b53f bd73 383e 4037 48bf
00000010: 45a2 89bf c644 ec3e a9a9 0840 d372 0940

weight f4 [29, 512]
0.25426796 0.1623913 -0.026131192 -0.41888672 -0.46109256 -0.5610261 -0.1440203 -0.43504545
-0.14887585 0.47780696 0.0052005537 -0.060674477 -0.38339046 -0.9586258 -0.37913722 -0.269632
-0.5811884 0.5610112 0.61443895 0.16126831 -0.37856945 0.79000646 -0.8944418 -0.13404445
0.20416124 0.5508394 -0.24250789 0.43040732 0.38171896 -0.3150898 -0.3680394 -0.15442173
0.22185485 0.5336984 0.32319477 0.2945634 0.12400134 0.28513336 0.4283087 -0.0521118
0.6278473 0.3558519 0.28755227 -0.14204957 0.19739631 -0.052191425 0.15243451 0.44612622
0.12551852 0.012029591 -0.38982153 -0.8521596 -0.21753988 0.49531242 -0.6958418 0.18850854
-1.8968911 -0.19461995 0.37815282 -0.49464893 -0.011285025 0.2400918 -1.0045317 0.35785952
-20.63635 -5.2649765 0.44929224 0.72775316 0.24904044 0.34287196 0.43394607 0.25017434
-0.10264403 0.5953272 0.32605523 0.37886742 0.3018387 0.43870604 1.028856 -1.5671439
1.6623963 0.70326895 0.43277818 0.88247037 0.6994408 0.717273 1.6843119 0.066981465
0.69015056 0.79445654 0.19469391 0.45912448 0.35370114 0.71631956 0.91551954 -1.4372891
0.012719588 0.29666635 -0.07193944 0.053325113 0.27639538 -0.07974782 0.1528048 0.42570084
-0.29683897 -0.31872624 0.19992766 -0.16750629 0.61729574 0.36051238 0.86597383 0.09563488
1.3078743 0.24219088 0.04199599 -0.4720165 -0.12842652 0.14434513 -0.08896568 0.032499164
0.112900674 -0.2043586 -0.29254082 -0.12893082 0.13814645 0.05376913 -0.16281486 0.19379187
-3.9697 -0.5004948 -0.44864616 -0.07557836 -0.22031103 -0.06490067 -0.03184294 -0.4981239
1.6469439 0.11658419 0.009094173 -0.1030828 0.2652484 -0.70354384 -1.5578955 -0.34893164
-0.059729703 -0.007063537 -0.1668504 -0.32078856 -0.38491985 0.43971685 -0.21066824 -0.4777656
0.7889122 -0.0993891 0.22544536 -0.26840854 -0.45859233 -0.8082975 0.22926523 -0.25370002
0.45449054 0.12961884 -0.3274216 -0.08213105 -0.08242119 0.5523099 0.64638734 0.089436896
-0.111895464 0.028748162 -0.0013958702 0.3043086 -0.4978143 -0.29549727 0.70819515 0.15387744
0.5584195 -0.18152781 -0.06539218 0.05655231 0.05382078 0.2574936 0.2567832 0.32797265
0.46953633 0.28719673 0.33951128 0.8218654 0.5580545 0.061305545 -0.111032814 0.20169057
0.050663546 -1.3953694 -1.4911218 -0.25384724 -0.055430483 0.06416979 -0.44676557 0.15796179
-0.23091647 0.47161895 0.46641287 0.053295825 0.12387202 -0.5127378 1.074243 0.9260413
0.8978436 0.39111015 -0.6970547 -0.86462605 -0.295888 -0.09591918 -1.3944774 0.30978087
0.80645627 -1.5199617 -1.0157638 -0.22766726 -0.82073146 -1.0975196 -1.1939462 0.4894585
0.88985056 -0.3615364 -0.5833914 -0.7107533 -0.5222199 0.12289028 -0.3937452 -0.77888393
0.97446346 -0.67731035 -0.8874189 -0.37454805 -0.35709077 -0.44216737 -0.09587523 -1.1069648
1.2896866 0.41277254 0.61901367 -0.8734388 -0.7885644 -1.3319261 -1.7744414 -1.3196564
0.055684324 -0.27859956 -0.22045788 -0.084308214 0.24988022 0.1604028 0.17870852 0.39587465
00000000: 692f 823e e849 263e 1511 d6bc 5278 d6be
00000010: 5314 ecbe 689f 0fbf 0f7a 13be 47be debe
00000020: e972 18be 1da3 f43e 6869 aa3b cd85 78bd
00000030: c14b c4be 8068 75bf 461e c2be 350d 8abe
00000040: c3c8 14bf 6e9e 0f3f df4b 1d3f 8523 253e
00000050: dbd3 c1be dd3d 4a3f 23fa 64bf f342 09be
00000060: a50f 513e d003 0d3f fd53 78be 595e dc3e
00000070: ab70 c33e 7353 a1be a96f bcbe bb20 1ebe
00000080: eb2d 633e 75a0 083f c979 a53e 04d1 963e
00000090: 6af4 fd3d 00fd 913e 474b db3e 2f73 55bd
000000a0: 9aba 203f 3832 b63e 0d3a 933e 7175 11be
000000b0: 4222 4a3e adc6 55bd cb17 1c3e a86a e43e
000000c0: ed87 003e c317 453c b096 c7be 2227 5abf
000000d0: c6c2 5ebe 9799 fd3e b022 32bf 6208 413e
000000e0: 54cd f2bf 744a 47be 3f9d c13e a042 fdbe
000000f0: d3e4 38bc a0da 753e 7f94 80bf 5d39 b73e
00000100: 3f17 a5c1 b07a a8c0 a209 e63e 084e 3a3f
00000110: 7504 7f3e ea8c af3e 2e2e de3e da16 803e
00000120: 0837 d2bd 5d67 183f b6f0 a63e e9fa c13e
00000130: 9a8a 9a3e 149e e03e 8eb1 833f 2c98 c8bf
00000140: 67c9 d43f 6f09 343f 1a95 dd3e 94e9 613f
00000150: 8d0e 333f 349f 373f 8897 d73f 942d 893d
00000160: b5ad 303f 8161 4b3f d75d 473e 5d12 eb3e
00000170: 5118 b53e b860 373f 7d5f 6a3f 17f9 b7bf
00000180: d265 503c a7e4 973e fc54 93bd 6f6b 5a3d
00000190: b283 8d3e d352 a3bd dd78 1c3e 76f5 d93e
000001a0: 47fb 97be 1630 a3be d6b9 4c3e c586 2bbe
000001b0: 1807 1e3f 1495 b83e 76b0 5d3f 38dc c33d
000001c0: 6d68 a73f e300 783e fd03 2c3d 26ac f1be
000001d0: 3e82 03be 36cf 133e a333 b6bd d81d 053d
000001e0: 7838 e73d 6143 51be e9c7 95be 7106 04be
000001f0: 4376 0d3e 053d 5c3d f0b8 26be 6071 463e
00000200: 910f 7ec0 6d20 00bf f3b4 e5be d4c8 9abd
00000210: 3799 61be a4ea 84bd be6d 02bd 190a ffbe
00000220: 0fcf d23f b1c3 ee3d baff 143c 131d d3bd
00000230: a3ce 873e 731b 34bf 1f69 c7bf 2ba7 b2be
00000240: 22a7 74bd 3e75 e7bb d5da 2abe 663e a4be
00000250: 3714 c5be 9122 e13e 6ab9 57be b19d f4be
00000260: 26f6 493f 838c cbbd 26db 663e d86c 89be
00000270: 9dcc eabe 96ec 4ebf 81c4 6a3e f8e4 81be
00000280: fcb2 e83e cdba 043e cea3 a7be 5334 a8bd
00000290: 71cc a8bd 2e64 0d3f a479 253f b12a b73d
000002a0: 7329 e5bd 4481 eb3c a2f5 b6ba 56ce 9b3e
000002b0: 84e1 febe 6b4b 97be 474c 353f 0c92 1d3e
000002c0: 95f4 0e3f 6de2 39be 56ec 85bd 65a3 673d
000002d0: 2e73 5c3d 33d6 833e 1679 833e 08ec a73e
000002e0: 1167 f03e 730b 933e 6cd4 ad3e c565 523f
000002f0: a9dc 0e3f 861b 7b3d 2c65 e3bd f987 4e3e
00000300: 9484 4f3d 779b b2bf 14dd bebf 44f8 81be
00000310: 130b 63bd 736b 833d 75be e4be bcc0 213e
00000320: 5e75 6cbe 0a78 f13e abcd ee3e b94c 5a3d
00000330: 9db0 fd3d c942 03bf cb80 893f 0b11 6d3f
00000340: 14d9 653f 973f c83e 2d72 32bf 2258 5dbf
00000350: a27e 97be 4671 c4bd 3c7e b2bf 999b 9e3e
00000360: eb73 4e3f 1b8e c2bf 8c04 82bf 9b21 69be
00000370: 751b 52bf 867b 8cbf 3bd3 98bf 4e9a fa3e
00000380: 3fcd 633f 4d1b b9be 2459 15bf eef3 35bf
00000390: 34b0 05bf e6ad fb3d f998 c9be f064 47bf
000003a0: 7076 793f 3664 2dbf e32d 63bf c3c4 bfbe
000003b0: 9ad4 b6be c363 e2be 3c5a c4bd 06b1 8dbf
000003c0: 7314 a53f ec56 d33e ae77 1e3f af99 5fbf
000003d0: 5bdf 49bf 8e7c aabf e520 e3bf 80ea a8bf
000003e0: 3f15 643d 9aa4 8ebe b6bf 61be c9a9 acbd
000003f0: 9ae0 7f3e a240 243e 5eff 363e 15b0 ca3e

bias f4 [29]
-0.10373634 0.23434724 -0.2468246 0.1536328 -0.12561265 -0.06751586 -0.11862988 0.09073242
0.43679658 -0.14170085 0.34106955 -0.5563152 -0.461424 0.26836076 -0.74619526 -0.32875976
-0.04746927 0.5484351 -0.31506124 0.28765506 -0.35568246 0.49500307 0.05704848 0.5754251
-0.44611362 0.117008746 0.17218348 0.21023093 -0.25649795
00000000: b873 d4bd b9f8 6f3e 97bf 7cbe eb51 1d3e
00000010: 9aa0 00be c145 8abd 39f4 f2bd ebd1 b93d
00000020: cda3 df3e 071a 11be aba0 ae3e ac6a 0ebf
00000030: c43f ecbe 9566 893e a706 3fbf 3353 a8be
00000040: 236f 42bd 3e66 0c3f b54f a1be 8647 933e
00000050: 031c b6be 0b71 fd3e abab 693d 0f4f 133f
00000060: 0169 e4be 48a2 ef3d de50 303e c746 573e
00000070: b353 83be
