workspace-rich/checkpoints_backup/230830/checkpoint_98.41.pth (torch, 64671 bytes, 6 tensors)

weight f4 [4, 1, 3, 3]
000000 4a f4 ef 3e 0b f7 06 3e a0 4a a3 3f f0 55 0e 40
       0.46866065 0.13180177 1.2757149 2.2239952
000010 74 4f 18 40 5d f7 08 40 c9 cb b2 3f ff b1 ee 3f
       2.3798494 2.1400979 1.396844 1.864807
000020 5d f1 02 40 28 96 19 3e 71 e9 44 bf 1a 37 7c bf
       2.0459816 0.14998686 -0.76918703 -0.9852158
000030 03 d2 38 bf af 4d 17 bf 9a 7c d1 bd ad 89 e7 3e
       -0.7219545 -0.5910291 -0.10228844 0.45222226
000040 6f b4 81 3f d7 51 cf 3f 03 07 db be 27 45 92 bf
       1.0133189 1.619685 -0.42778787 -1.1427354
000050 4f 48 98 bf c1 d6 ae 3f 2e 0a 2a 3f 84 42 37 bf
       -1.1897067 1.3659288 0.6642178 -0.7158587
000060 95 7d 91 3f c6 90 0e 3f 4f 2a 0a 3f 1b 42 8a bd
       1.136645 0.55689657 0.5397081 -0.0675089
000070 db 43 43 be d0 54 f7 bd 86 40 bb bd a3 93 06 be
       -0.19068854 -0.120767236 -0.09143166 -0.13142256
000080 a2 a8 90 3e c8 fc 61 3e 48 68 81 be 56 1f 91 bd
       0.28253657 0.22069085 -0.25274873 -0.07086055

bias f4 [4]
000000 ed 69 0d c0 aa 22 95 bc a2 84 72 be 32 6c a7 be
       -2.2095902 -0.018205006 -0.23683408 -0.32699734

weight f4 [8, 4, 3, 3]
000000 96 f7 7d be 46 e8 db be c9 0f 1c be 53 0f 62 3e
       -0.24801478 -0.42950648 -0.15240397 0.22076158
000010 90 a3 87 be b8 fe 2f be d3 05 10 3f 06 53 c7 3e
       -0.26491976 -0.17187011 0.5625889 0.3893053
000020 e4 b1 92 3e ec c0 95 3e 47 67 1d 3e f9 f4 d5 3d
       0.28651345 0.2924875 0.15371428 0.104471155
000030 e5 b9 75 bf b8 5f d8 be f7 fc 8b bf 34 e3 a2 bf
       -0.9598678 -0.42260528 -1.0936574 -1.2725587
000040 a6 2c 36 bf 0c 2b 74 bf af df 17 3f ae 7f fc be
       -0.7116188 -0.95378184 0.5932569 -0.49316162
000050 a6 4a 40 be 9a 16 17 3f a7 84 95 3f 35 16 81 3e
       -0.18778476 0.5901886 1.1681107 0.25212255
000060 53 a0 41 be d3 9a 05 40 11 55 c9 3f 0b d7 61 3d
       -0.18908815 2.0875747 1.5729085 0.05513672
000070 66 c6 0d 3d a8 8e bc bd 4e b6 1e 3e d8 40 16 3e
       0.034613036 -0.09206897 0.15499231 0.14673173
000080 4b e7 a7 3d c6 8a 26 be 06 f2 66 bd e6 55 98 bd
       0.081984125 -0.16263875 -0.056383155 -0.07438259
000090 56 86 e0 3e cb 1c 25 3f bd cf 2b 3e 87 81 fa 3e
       0.4385249 0.6449706 0.16778465 0.48926947
0000a0 44 0a 33 3d f8 d9 46 bf b9 0f 52 3e ec 94 03 bf
       0.043710962 -0.77676344 0.2051381 -0.5139911
0000b0 78 b2 fe be 78 58 68 40 61 2a ea 3e c7 82 f1 bf
       -0.49745536 3.6303997 0.45735458 -1.8868035
0000c0 9b 66 00 c0 50 c4 63 c0 e6 d2 f6 be 42 a1 3f bf
       -2.0062625 -3.558857 -0.48207778 -0.74855435
0000d0 a0 47 a4 3f 71 c5 26 40 9a eb 07 bd 7d 58 31 be
       1.2834358 2.6058009 -0.03318367 -0.17318912
0000e0 f1 0c 10 bd 74 ed f3 bf 70 78 44 c0 72 62 0b c0
       -0.035168592 -1.905684 -3.069851 -2.1778836
0000f0 05 03 ea bf bd 12 54 c0 a1 2d c1 bf a2 65 0b 3e
       -1.8282171 -3.3136437 -1.509205 0.13612989
000100 33 72 fe bd 8b cf ba bd d6 80 5a 3d d6 9f 36 bc
       -0.124241255 -0.09121617 0.053345524 -0.011146506
000110 16 83 9f bc 9e d6 1b 3e c0 b2 a5 3c 30 c9 dc 3d
       -0.019471686 0.15218589 0.020226836 0.10780561
000120 d5 aa 29 3f 4b 7e 13 3e c3 c3 07 bf b8 9c ea 3e
       0.66276294 0.14403646 -0.53033084 0.45822692
000130 7a 24 d1 be e4 a7 e4 be 3d 7b 37 3f f6 7a 57 bf
       -0.40848142 -0.4465934 0.7167242 -0.84172
000140 3d ff a6 be b0 e4 95 3f d5 ed 9f be b7 1e 46 3f
       -0.32616606 1.1710415 -0.3123614 0.7739062
000150 da 95 36 3e 3d d2 26 c0 f2 ef 78 3f f1 40 bc bf
       0.17830601 -2.606582 0.9724113 -1.4707319
000160 40 4f a8 bf 0c d4 5a 3f 98 bb 47 be 52 ac 44 3e
       -1.3149185 0.8547981 -0.19505155 0.1920636
000170 27 8c f2 3f 4f 84 f3 3e e6 59 36 3f f0 bc 7d 3f
       1.8949021 0.4756188 0.71230924 0.9911642
000180 ee c0 03 3f 9a f9 ce 3e 1d 16 b6 be 0b a3 c5 3c
       0.5146626 0.40424806 -0.35563746 0.024125597
000190 30 48 22 3e 46 5d 02 3e 38 e5 a1 bd 54 4f 09 3e
       0.1584785 0.12730893 -0.07905048 0.13409168
0001a0 c0 8b 07 bc 57 5a 10 3e c0 ca 9d 3d 3b 0b 97 bd
       -0.008273065 0.14096962 0.07704687 -0.07375189
0001b0 0f 16 68 3d e4 b6 1c 3f bd a1 f3 3d ff 3d 03 bf
       0.05666166 0.6121657 0.118960835 -0.51266474
0001c0 f1 60 22 be fd 0e e8 39 f5 2c 00 be 01 90 ab be
       -0.15857293 0.00044261655 -0.1251715 -0.33508304
0001d0 1d 52 85 be 4b 62 2d 40 af ab 77 40 35 88 2a 40
       -0.2603921 2.7091243 3.8698537 2.6645634
0001e0 a7 5e a3 bf 3b 04 b9 bf b1 c0 5b 3f 23 e5 10 40
       -1.2763261 -1.4454416 0.858409 2.2639854
0001f0 5e aa 31 40 d8 c7 e9 3f 50 fd 6f 3f 2c 9f e4 3f
       2.7760234 1.8264112 0.937459 1.7861075
000200 e7 69 c9 3f 5f 4c 81 be 9d 4a bf bf c5 c8 87 be
       1.5735444 -0.2525358 -1.4944645 -0.26520362
000210 f9 13 9a 3e 78 66 7a 3e e1 43 27 bf 43 0a 89 bd
       0.30093363 0.24453151 -0.6533795 -0.066914104
000220 5b 59 03 3e c6 c8 07 be b3 de f9 3d 0b 6f af bc
       0.12827055 -0.13260183 0.1220068 -0.021415254
000230 0c ce 17 be c0 04 41 bd 74 23 22 be e0 cd e1 3c
       -0.14824694 -0.04712367 -0.15833837 0.02756399
000240 42 14 d0 be 8a 0b 1f 3b 69 9a 9e 3b af f5 1d 3e
       -0.40640455 0.0024268352 0.0048401845 0.15425752
000250 f4 32 13 3f 5e 61 50 3f 31 d1 0c be 47 14 15 bf
       0.57499623 0.8139857 -0.13751675 -0.58234066
000260 08 2f a5 be 8c cb 0c bf 96 8d 38 3f 34 65 fc 3f
       -0.32262444 -0.5499809 0.72091043 1.9718385
000270 b6 10 9d be 70 5f 64 3f c7 0a 49 3f 31 62 02 be
       -0.30676812 0.89208126 0.7853207 -0.1273277
000280 91 58 cb bf 68 d8 20 c0 b7 a4 13 c0 96 05 4c bf
       -1.5886403 -2.5132084 -2.3069284 -0.79696023
000290 19 da f2 3d f9 bb 90 3f f2 c1 22 40 24 12 45 40
       0.11858005 1.1307365 2.5430875 3.0792322
0002a0 25 d1 90 bf 34 98 47 c0 69 33 ed bf 76 a1 83 bd
       -1.1313826 -3.1186647 -1.8531314 -0.064272806
0002b0 f8 f7 da bd 00 00 6b bd 40 57 97 3c 98 cf 90 bd
       -0.106918275 -0.057373047 0.018474221 -0.07070845
0002c0 cb 23 28 3d b6 9c c4 3c d3 36 80 3d 50 4e e5 3d
       0.04104976 0.024000507 0.06260457 0.111965775
0002d0 f2 4b 6b be e0 69 2a bf af 7b 2c bf f2 f0 ef bd
       -0.2297819 -0.665678 -0.67376226 -0.117158785
0002e0 d6 ab 8d be f2 24 39 bf 23 90 15 3f c0 0c 49 3f
       -0.27670163 -0.72322 0.5842306 0.7853508
0002f0 67 60 ea 3e 73 4a cf be f1 26 21 be 9b 66 dd be
       0.45776674 -0.40486488 -0.15737511 -0.43242344
000300 4a 84 c0 3d df fe a7 3e 8b ae 7e 3f e4 65 0b 40
       0.09400232 0.3281164 0.9948508 2.178094
000310 fc f0 0d 40 99 00 a2 3e 66 e7 0b 3f 75 7b 41 bf
       2.2178335 0.3164108 0.5464996 -0.75579005
000320 9c f0 ce bd 7d 41 cb be f0 e1 d6 be fb cb 8c bd
       -0.10104486 -0.396984 -0.41969252 -0.06874844
000330 46 f8 b2 3f 0a 18 a6 3f d9 45 8e 3f 80 d9 92 3d
       1.3982017 1.2976086 1.1115066 0.07170391
000340 8b 92 db bc ff 9c 27 3e f3 89 a4 bd 2e 05 eb bd
       -0.026803276 0.16368483 -0.08034124 -0.11475597
000350 3e d0 f9 bd 60 e3 1d be 36 9c d1 bd cb 42 99 3d
       -0.12197922 -0.15418768 -0.10234873 0.07483443
000360 c5 d3 25 bf 27 e3 0c 3e a4 a1 e5 3e c1 b8 3b bf
       -0.6477626 0.13758527 0.44849885 -0.7332879
000370 07 f7 b9 be f2 62 6d 3f 91 74 84 3e 63 c0 13 bf
       -0.3632128 0.92729104 0.25870183 -0.57715434
000380 7a a9 94 bc fd 67 d9 bf 5d 89 a4 bf 89 70 57 3f
       -0.018147219 -1.698486 -1.285442 0.8415609
000390 6e 47 38 3f c5 7a 44 c0 d6 b7 51 c0 fb 78 31 40
       0.71983993 -3.0699933 -3.2768455 2.773009
0003a0 d7 ff 0e 40 13 e6 fc 3e a0 63 16 c0 36 b4 06 bf
       2.2343652 0.49394283 -2.3498306 -0.5261873
0003b0 0f cf 06 3f 28 05 2b be 8c 15 a7 bf f0 10 98 bf
       0.52659696 -0.16701186 -1.305345 -1.1880169
0003c0 e2 95 b8 3f 61 86 d1 3f e0 ef e6 3d 8b 1a e3 bd
       1.4420741 1.6369134 0.11276221 -0.11089047
0003d0 4b 0a 9f bd 16 6c 0f 3c 24 bc 10 3e eb da c6 bc
       -0.07765635 0.008753797 0.1413427 -0.02427431
0003e0 ff d2 19 3e ea 5e 1e be 86 3f 46 3d 7f 20 1e 3e
       0.15021895 -0.15465894 0.048400424 0.15442084
0003f0 1c 01 c2 be d7 9c 55 bd 64 6f 13 3f f5 ee 23 3e
       -0.3789147 -0.052151527 0.57591844 0.16009124

bias f4 [8]
000000 53 5d ec bf 7b dc b1 3f 5a 78 2c 3e 7c 34 48 bf
       -1.846598 1.389541 0.16842785 -0.78205085
000010 e4 b2 86 bf da 84 e8 3e ee c5 07 40 cb d1 07 40
       -1.0523343 0.45413858 2.1214557 2.1221797

weight f4 [29, 512]
000000 54 04 80 3e 28 e9 1f 3e cb 92 e6 bc 3c a0 d5 be
       0.25003302 0.15616286 -0.028146168 -0.41723812
000010 fc 8b eb be 2a 5e 11 bf 98 05 1b be 93 f2 de be
       -0.46005237 -0.5678431 -0.15138853 -0.43544444
000020 df 9f 18 be 11 10 f1 3e c0 53 91 3b 59 85 80 bd
       -0.14904736 0.4708257 0.0044350326 -0.06275434
000030 9e e6 c6 be 80 fd 72 bf a1 0a c4 be 1c d5 88 be
       -0.38847822 -0.9491806 -0.3828936 -0.2672509
000040 a0 c1 14 bf 3f 24 0f 3f ff 8f 1c 3f f4 55 21 3e
       -0.5810795 0.5591468 0.6115722 0.15755445
000050 86 1e ca be 2d 72 4b 3f 0b 37 69 bf 96 05 04 be
       -0.39476413 0.79471093 -0.91099614 -0.12892756
000060 49 a8 53 3e 58 d9 08 3f 71 69 7a be f0 10 db 3e
       0.20669664 0.5345664 -0.24454285 0.4278636
000070 03 ed b5 3e 4a 95 9a be 78 83 c6 be 4a e9 1c be
       0.35532388 -0.30192024 -0.38772178 -0.15323368
000080 27 38 63 3e 03 0b 08 3f 0c 83 a5 3e cd 06 9d 3e
       0.22189389 0.531418 0.32326543 0.3066925
000090 a9 0b e4 3d 4e a3 95 3e 97 37 d8 3e ae b9 34 bd
       0.111350365 0.29226154 0.42229912 -0.04412239
0000a0 62 14 21 3f 04 44 b7 3e c5 8f 93 3e 81 b3 0b be
       0.62921727 0.3579408 0.28820625 -0.13642694
0000b0 cf 79 4a 3e 6e 4b 81 bd c5 28 25 3e 62 db e4 3e
       0.19773029 -0.06313215 0.16128834 0.44698626
0000c0 fc 0a 02 3e 6a 43 23 3c 1c 28 c9 be eb 93 57 bf
       0.12699503 0.009964803 -0.39288414 -0.8421008
0000d0 11 4d 5a be 2a 5f fa 3e 04 b2 30 bf ad c8 41 3e
       -0.21318461 0.4890073 -0.6902163 0.18924208
0000e0 e9 94 f0 bf 1c 36 43 be 33 54 ba 3e 31 cc fd be
       -1.8795444 -0.1906361 0.36392364 -0.49569848
0000f0 52 99 67 bb 24 20 74 3e d9 07 7f bf 95 9b b6 3e
       -0.0035339189 0.23840386 -0.9962135 0.35665575
000100 c9 09 a4 c1 2b 21 a8 c0 b6 95 eb 3e e5 87 3c 3f
       -20.504778 -5.254049 0.46012658 0.7364486
000110 1b 63 7f 3e 34 41 b0 3e 87 00 eb 3e 68 86 80 3e
       0.2494015 0.34424746 0.4589884 0.25102544
000120 2e b7 8e bd 6b 13 18 3f aa 8d ab 3e 6e 5f c9 3e
       -0.069685325 0.5940463 0.3350652 0.3933062
000130 47 23 99 3e c9 9f d7 3e a5 e9 83 3f 1a 54 c7 bf
       0.29909727 0.42114094 1.0305678 -1.5572541
000140 22 36 d1 3f 39 85 2f 3f 3d 06 db 3e c0 68 62 3f
       1.6344645 0.68562657 0.42778197 0.88441086
000150 a2 31 36 3f fe 93 3c 3f 7e 37 d7 3f 50 66 43 3d
       0.71169484 0.7366332 1.681381 0.047704995
000160 c1 a3 36 3f bb e2 4c 3f 56 5e 4e 3e f1 a0 ed 3e
       0.7134362 0.80033463 0.20153174 0.4641185
000170 fc b6 b7 3e fc 2a 33 3f 81 50 6d 3f 91 e3 b5 bf
       0.35881793 0.69987464 0.92700964 -1.4210073
000180 69 b3 06 3c f9 ed 9f 3e 19 32 5c bd 61 44 6f 3d
       0.008221486 0.31236246 -0.053758714 0.05841482
000190 1b 24 85 3e 4d 36 8a bd 88 8d 1b 3e 14 3e ce 3e
       0.2600411 -0.06748638 0.15190709 0.40281737
0001a0 76 f2 94 be 6b 17 a0 be 5f 08 73 3e ca 5f 1c be
       -0.29091233 -0.31267866 0.23733662 -0.15270916
0001b0 48 9a 1d 3f 58 7e c8 3e 64 a1 61 3f 51 3f bf 3d
       0.6156354 0.39158893 0.8813689 0.093382485
0001c0 a2 70 a5 3f f5 d6 7a 3e 06 2e 4c 3d 56 4f ef be
       1.2924998 0.24496062 0.04984858 -0.46740216
0001d0 23 f4 f5 bd 4d 84 18 3e 46 4b df bd b5 7e 06 3d
       -0.12009456 0.14894219 -0.10903029 0.03283568
0001e0 7e 8f e1 3d 6c e9 51 be 7c 7f 96 be 6b 3e 00 be
       0.11013697 -0.204992 -0.29394138 -0.1252381
0001f0 37 5a 0d 3e d5 ee 6d 3d fb b7 19 be 9e 0e 46 3e
       0.13803945 0.058089096 -0.15011589 0.19341514
000200 ba 41 7c c0 b0 87 f2 be a9 c5 e4 be 27 71 92 bd
       -3.9415116 -0.47369146 -0.44682053 -0.07150488
000210 9e d0 5d be a1 20 85 bd 9e 1e 11 bd be 55 ff be
       -0.21661612 -0.06500364 -0.03542959 -0.49870104
000220 ae ec cc 3f aa 0d 07 3e d9 27 98 3b f9 be cc bd
       1.6009729 0.13188806 0.004643422 -0.09997363
000230 b7 4a 85 3e c3 e8 33 bf 4e 16 cd bf 95 f3 b0 be
       0.26033565 -0.7027704 -1.6022432 -0.34560838
000240 1a 89 3f bd 30 07 4c bc de ea 26 be d9 70 a1 be
       -0.04676161 -0.0124528855 -0.16300532 -0.31531408
000250 5f 7a c9 be 1c f7 de 3e 85 a1 68 be 20 32 f2 be
       -0.39351174 0.43547904 -0.22717865 -0.47303867
000260 6e a8 44 3f 15 96 cc bd a5 06 62 3e d8 0f 88 be
       0.76819503 -0.099895634 0.22072847 -0.26574588
000270 9d 4a f7 be 45 38 4f bf ad cc 63 3e e7 05 7e be
       -0.48299113 -0.80945235 0.22246046 -0.24806939
000280 e5 d3 e9 3e 54 d4 f3 3d f5 b4 a3 be 6d ff a1 bd
       0.45669475 0.11905733 -0.31973997 -0.07910047
000290 ba 90 e4 bd e6 eb 0e 3f 78 8e 1e 3f f3 bc b2 3d
       -0.11160417 0.558287 0.6193614 0.087274455
0002a0 b4 77 b3 bd 3f 19 2b 3d 64 a9 aa bb d6 f2 97 3e
       -0.08763066 0.041772123 -0.005208181 0.29677457
0002b0 bd 37 01 bf aa 60 8e be 69 30 36 3f f6 84 25 3e
       -0.50475675 -0.27808124 0.7116762 0.16164002
0002c0 f3 5d 0b 3f 17 05 21 be 32 f4 96 bd 59 04 1d 3d
       0.5444023 -0.15724598 -0.07370795 0.038334224
0002d0 cf 17 8a 3d dd 05 8a 3e b6 3c 73 3e 3f ae a9 3e
       0.067428224 0.26957598 0.23753628 0.33140752
0002e0 fc 82 f1 3e cd 70 95 3e 0a 94 aa 3e c4 2b 4e 3f
       0.47170246 0.29187623 0.3331607 0.8053553
0002f0 8d a2 10 3f 95 ef 84 3d 2c 70 04 be 21 9f 4e 3e
       0.5649803 0.06491009 -0.12933415 0.2017789
000300 95 28 5a 3d 9c 6f b2 bf 54 9f be bf e4 1f 83 be
       0.05326136 -1.394031 -1.4892373 -0.25610268
000310 19 8e 71 bd 6a 3c 79 3d aa e4 e3 be cf 02 1e 3e
       -0.058973406 0.06084863 -0.44510394 0.15430759
000320 62 e9 67 be 7f 56 f2 3e 7d c7 ee 3e 71 d3 37 3d
       -0.22647622 0.47331616 0.46636572 0.04487938
000330 a5 e2 e0 3d a6 80 05 bf b3 cf 87 3f 20 22 6e 3f
       0.10980729 -0.52149427 1.061026 0.9302082
000340 5b c1 63 3f be 32 d5 3e 5d 6b 31 bf fa 54 59 bf
       0.8896691 0.41640276 -0.6930445 -0.8489529
000350 df 69 90 be 40 99 92 bd 7b 97 ab bf d7 94 9a 3e
       -0.28205773 -0.07158136 -1.3405603 0.3019168
000360 95 be 4c 3f 45 f1 bb bf 26 40 83 bf 87 89 57 be
       0.79978305 -1.4683005 -1.0253952 -0.21048556
000370 95 5c 50 bf c7 e2 8a bf 23 8f 96 bf cf c7 eb 3e
       -0.8139127 -1.0850457 -1.1762432 0.4605088
000380 d0 cb 61 3f 94 01 b4 be 61 93 0f bf c3 12 37 bf
       0.8820162 -0.35157454 -0.5608426 -0.71513003
000390 64 31 03 bf d5 ef f5 3d 69 82 c3 be 3a 73 43 bf
       -0.5124724 0.12008635 -0.38185433 -0.76347697
0003a0 2a dc 79 3f ff 9c 24 bf 61 cc 5d bf 65 b7 bb be
       0.9760157 -0.6430206 -0.8663998 -0.36663356
0003b0 6a b8 bb be 92 a6 e1 be 05 22 b7 bd 49 57 8d bf
       -0.36664134 -0.44072396 -0.089420356 -1.1042262
0003c0 0b 8f a4 3f 80 99 c4 3e fc 5b 1c 3f e4 01 61 bf
       1.2856153 0.3839836 0.61077857 -0.8789351
0003d0 97 ff 4d bf 8e c1 a9 bf bc 28 e3 bf c3 eb ab bf
       -0.80468124 -1.3262193 -1.7746806 -1.3431324
0003e0 e2 06 5f 3d ef 80 8c be 90 4f 58 be b4 79 a9 bd
       0.054449923 -0.2744212 -0.211241 -0.08275166
0003f0 52 0d 82 3e 06 6d 2f 3e 6d 66 39 3e 1b 81 c8 3e
       0.25400788 0.17131433 0.18105479 0.39161

bias f4 [29]
000000 e0 e3 d4 bd 0c 97 6d 3e 4e 9b 7b be 76 1c 1e 3e
       -0.10395026 0.23202151 -0.24570963 0.15440544
000010 9d ac 00 be ef 8b 82 bd d8 60 ed bd 83 f5 b4 3d
       -0.12565847 -0.063743465 -0.11590737 0.0883589
000020 25 75 df 3e bc a5 0c be 9f 56 ac 3e 9c f0 0c bf
       0.43644062 -0.13735098 0.33659837 -0.5505464
000030 8f d7 e8 be 2d 23 86 3e 5c 2a 3e bf b0 53 a6 be
       -0.45476958 0.26198712 -0.74283385 -0.32485723
000040 bc 29 3d bd c6 9c 0b 3f 79 ca 9e be ea a3 92 3e
       -0.04618238 0.5453609 -0.3101385 0.28640682
000050 c6 a3 b3 be 1d 52 fb 3e 8a 78 6a 3d 6b f4 11 3f
       -0.35085887 0.49086085 0.05724386 0.5701358
000060 f6 2e e2 be c5 b3 f4 3d 76 31 2f 3e 3b 4c 50 3e
       -0.44176453 0.11948351 0.17108712 0.2034158
000070 bd 32 81 be
       -0.25234023
