workspace-rich/checkpoints_backup/230830/checkpoint_98.54.pth (torch, 64671 bytes, 6 tensors)

weight f4 [4, 1, 3, 3]
0	0x3f02f8ad	0.511607
1	0x3e2d6dcb	0.16936414
2	0x3fa7ad3b	1.3099741
3	0x4011f528	2.2805882
4	0x401bd681	2.4349673
5	0x400bfef8	2.187437
6	0x3fb790e3	1.4341091
7	0x3ff33876	1.9001606
8	0x4005a208	2.0880146
9	0x3e0b2249	0.13587297
10	0xbf485942	-0.78261197
11	0xbf80cdd7	-1.0062817
12	0xbf3987ac	-0.72472644
13	0xbf17eb19	-0.59343106
14	0xbdd82204	-0.10553363
15	0x3eef0a1c	0.466874
16	0x3f84e23d	1.0381542
17	0x3fd1a64c	1.6378875
18	0xbedc0353	-0.42971286
19	0xbf9409b4	-1.1565461
20	0xbf9a9f5e	-1.2079885
21	0x3fb0936a	1.3794987
22	0x3f2b0784	0.6680834
23	0xbf39fbff	-0.7265014
24	0x3f934d08	1.1507883
25	0x3f1181fb	0.5683896
26	0x3f0ca8ba	0.54944956
27	0xbd8a421b	-0.0675089
28	0xbe4343db	-0.19068854
29	0xbdf754d0	-0.120767236
30	0xbdbb4086	-0.09143166
31	0xbe0693a3	-0.13142256
32	0x3e90a8a2	0.28253657
33	0x3e61fcc8	0.22069085
34	0xbe816848	-0.25274873
35	0xbd911f56	-0.07086055

bias f4 [4]
0	0xc00f9185	-2.2432568
1	0xbc4eccbe	-0.0126220565
2	0xbe7657d3	-0.2405694
3	0xbea76c32	-0.32699734

weight f4 [8, 4, 3, 3]
0	0xbe814cc6	-0.25253886
1	0xbee130f2	-0.43982655
2	0xbe2763f2	-0.1634672
3	0x3e68cc79	0.2273425
4	0xbe87b118	-0.265023
5	0xbe361a8d	-0.17783566
6	0x3f12058c	0.57039714
7	0x3ecac2d9	0.39601782
8	0x3e947788	0.28997445
9	0x3e98f623	0.29875287
10	0x3e314f43	0.17315392
11	0x3e021973	0.1270502
12	0xbf75b6b1	-0.9598189
13	0xbed7402d	-0.4204115
14	0xbf8a0dc3	-1.078545
15	0xbfa32605	-1.2745978
16	0xbf345cb6	-0.70453966
17	0xbf71a315	-0.9438947
18	0x3f21fd78	0.6327739
19	0xbef5ec9a	-0.48032075
20	0xbe34e37a	-0.176649
21	0x3f20c039	0.6279331
22	0x3f992309	1.1963817
23	0x3e892b01	0.26790622
24	0xbe28aa1a	-0.16471139
25	0x4007ad18	2.1199398
26	0x3fcdec41	1.6087724
27	0x3d61d70b	0.05513672
28	0x3d0dc666	0.034613036
29	0xbdbc8ea8	-0.09206897
30	0x3e1eb64e	0.15499231
31	0x3e1640d8	0.14673173
32	0x3da7e74b	0.081984125
33	0xbe268ac6	-0.16263875
34	0xbd66f206	-0.056383155
35	0xbd9855e6	-0.07438259
36	0x3ee7d49c	0.45279396
37	0x3f28b0b9	0.6589466
38	0x3e3337ba	0.17501727
39	0x3efce67e	0.49394602
40	0x3d3bf780	0.04589033
41	0xbf46c81d	-0.776491
42	0x3e48ce56	0.19609961
43	0xbf072d63	-0.5280363
44	0xbf025adc	-0.5091989
45	0x406a2f69	3.6591437
46	0x3ee96aef	0.45589396
47	0xbff34fa1	-1.9008676
48	0xc001f4bf	-2.030563
49	0xc062aaeb	-3.541682
50	0xbef8ab59	-0.48568228
51	0xbf40f1a4	-0.75368714
52	0x3fa83cbf	1.3143538
53	0x40271251	2.610493
54	0xbd40e43b	-0.047092658
55	0xbe3fce75	-0.18731101
56	0xbd45694f	-0.048196133
57	0xbff73bd7	-1.9315137
58	0xc0454a09	-3.0826437
59	0xc009d728	-2.153757
60	0xbfec83d5	-1.8477732
61	0xc054e3a6	-3.3263946
62	0xbfc178bd	-1.5114971
63	0x3e0b65a2	0.13612989
64	0xbdfe7233	-0.124241255
65	0xbdbacf8b	-0.09121617
66	0x3d5a80d6	0.053345524
67	0xbc369fd6	-0.011146506
68	0xbc9f8316	-0.019471686
69	0x3e1bd69e	0.15218589
70	0x3ca5b2c0	0.020226836
71	0x3ddcc930	0.10780561
72	0x3f2cf2f0	0.67558193
73	0x3e180ab0	0.14847827
74	0xbf0b980c	-0.5452888
75	0x3ef11820	0.47088718
76	0xbecde3d1	-0.40212873
77	0xbee9e005	-0.45678726
78	0x3f39ddfa	0.72604334
79	0xbf58d0a4	-0.8469336
80	0xbeabc3f4	-0.33547938
81	0x3f96b568	1.1774111
82	0xbe97c105	-0.2963945
83	0x3f47648f	0.77887815
84	0x3e252bff	0.16130064
85	0xc027e884	-2.6235666
86	0x3f7b4c11	0.98162943
87	0xbfba639a	-1.4561646
88	0xbfa5fa6d	-1.2967049
89	0x3f5dd8ce	0.8665894
90	0xbe4e9860	-0.20175314
91	0x3e52d8f0	0.20590568
92	0x3ff32ac1	1.8997422
93	0x3ef04bf8	0.4693296
94	0x3f3a99ac	0.72890735
95	0x3f81703b	1.0112375
96	0x3f06e49a	0.5269257
97	0x3ed86b11	0.42269185
98	0xbeb91582	-0.36149222
99	0x3cc5a30b	0.024125597
100	0x3e224830	0.1584785
101	0x3e025d46	0.12730893
102	0xbda1e538	-0.07905048
103	0x3e094f54	0.13409168
104	0xbc078bc0	-0.008273065
105	0x3e105a57	0.14096962
106	0x3d9dcac0	0.07704687
107	0xbd970b3b	-0.07375189
108	0x3d613306	0.0549803
109	0x3f1ed453	0.6204273
110	0x3e0421fc	0.12903589
111	0xbf03fa5a	-0.5155388
112	0xbe21f67c	-0.15816683
113	0x3bb1ba66	0.0054238318
114	0xbe065052	-0.13116577
115	0xbeb2366a	-0.3480714
116	0xbe85feda	-0.26171
117	0x402eccf1	2.7312586
118	0x407aa291	3.9161723
119	0x402d938d	2.7121308
120	0xbfa0db10	-1.2566853
121	0xbfb3ee01	-1.4057008
122	0x3f5c6350	0.8608904
123	0x4012b7aa	2.29246
124	0x40326c5d	2.787864
125	0x3fec7b7f	1.8475188
126	0x3f7898be	0.97108066
127	0x3fe95f5f	1.823223
128	0x3fcdac4a	1.6068203
129	0xbe75ddba	-0.24010363
130	0xbfbef241	-1.491768
131	0xbe8b09d7	-0.27155945
132	0x3e9ab28c	0.30214345
133	0x3e78bfbe	0.24291894
134	0xbf2d7467	-0.6775574
135	0xbd890a43	-0.066914104
136	0x3e03595b	0.12827055
137	0xbe07c8c6	-0.13260183
138	0x3df9deb3	0.1220068
139	0xbcaf6f0b	-0.021415254
140	0xbe17ce0c	-0.14824694
141	0xbd4104c0	-0.04712367
142	0xbe222374	-0.15833837
143	0x3ce1cde0	0.02756399
144	0xbed5e3bf	-0.4177532
145	0x3bd5841d	0.0065159933
146	0x3bf2a1eb	0.007404556
147	0x3e1ee0a1	0.15515377
148	0x3f16e355	0.5894063
149	0x3f528855	0.82239276
150	0xbe17e456	-0.14833197
151	0xbf1630e8	-0.58668375
152	0xbea8cfe3	-0.32971105
153	0xbf0b3f99	-0.5439392
154	0x3f3cb81d	0.73718435
155	0x3ffce20f	1.9756488
156	0xbe9d4ef8	-0.3072431
157	0x3f6749e3	0.9034712
158	0x3f4f11a6	0.80886304
159	0xbe1aeaf1	-0.15128686
160	0xbfced7f0	-1.6159649
161	0xc0230d9d	-2.547706
162	0xc0148e7e	-2.321197
163	0xbf4c5e39	-0.7983127
164	0x3dd19bfe	0.10234831
165	0x3f910e82	1.1332552
166	0x4023bd14	2.5584154
167	0x40465eec	3.0995436
168	0xbf923923	-1.1423687
169	0xc049667c	-3.1468801
170	0xbff00b07	-1.8753365
171	0xbd83a176	-0.064272806
172	0xbddaf7f8	-0.106918275
173	0xbd6b0000	-0.057373047
174	0x3c975740	0.018474221
175	0xbd90cf98	-0.07070845
176	0x3d2823cb	0.04104976
177	0x3cc49cb6	0.024000507
178	0x3d8036d3	0.06260457
179	0x3de54e50	0.111965775
180	0xbe73c4c5	-0.2380553
181	0xbf2bc311	-0.6709452
182	0xbf2e96f2	-0.68199074
183	0xbdf4720a	-0.11935814
184	0xbe8d46de	-0.2759313
185	0xbf38546f	-0.72003835
186	0x3f18cf44	0.5969126
187	0x3f4d5728	0.80211115
188	0x3ef0f755	0.470637
189	0xbec9496b	-0.39313826
190	0xbe18db5d	-0.1492743
191	0xbede1c08	-0.4338076
192	0x3df093f5	0.117469706
193	0x3eb06160	0.3444929
194	0x3f82f2fb	1.0230402
195	0x400d23d3	2.2053115
196	0x401013af	2.2512014
197	0x3eafce94	0.34337294
198	0x3f0d4ef8	0.5519862
199	0xbf3f897e	-0.7481917
200	0xbdb0ee03	-0.08639147
201	0xbec197e9	-0.3781121
202	0xbed70a6b	-0.42000136
203	0xbd84832a	-0.0647033
204	0x3fb52dbf	1.4154586
205	0x3fa720cf	1.3056887
206	0x3f8dfa31	1.1091977
207	0x3d92d980	0.07170391
208	0xbcdb928b	-0.026803276
209	0x3e279cff	0.16368483
210	0xbda489f3	-0.08034124
211	0xbdeb052e	-0.11475597
212	0xbdf9d03e	-0.12197922
213	0xbe1de360	-0.15418768
214	0xbdd19c36	-0.10234873
215	0x3d9942cb	0.07483443
216	0xbf28164e	-0.65659034
217	0x3e0fbbb4	0.14036447
218	0x3ee9058c	0.45512044
219	0xbf3c2614	-0.734956
220	0xbebbd313	-0.36684474
221	0x3f6eb965	0.9325164
222	0x3e870487	0.26370642
223	0xbf13fb6f	-0.5780553
224	0xbc5e2920	-0.01355961
225	0xbfd8e077	-1.6943501
226	0xbfa51a6e	-1.2898691
227	0x3f55a293	0.83451194
228	0x3f3fe505	0.7495883
229	0xc04557ea	-3.0834908
230	0xc053b66a	-3.3080087
231	0x40321174	2.7823153
232	0x400f3ab1	2.2379572
233	0x3f02d025	0.51098853
234	0xc01859bf	-2.3804777
235	0xbf0f4b8d	-0.55974656
236	0x3f04a235	0.5181001
237	0xbe13ed39	-0.14445962
238	0xbfa5145a	-1.2896836
239	0xbf9a2886	-1.2043617
240	0x3fba0335	1.4532229
241	0x3fd310c2	1.6489489
242	0x3ddad8f6	0.10685913
243	0xbde31a8b	-0.11089047
244	0xbd9f0a4b	-0.07765635
245	0x3c0f6c16	0.008753797
246	0x3e10bc24	0.1413427
247	0xbcc6daeb	-0.02427431
248	0x3e19d2ff	0.15021895
249	0xbe1e5eea	-0.15465894
250	0x3d463f86	0.048400424
251	0x3e1e207f	0.15442084
252	0xbec44a0e	-0.3833775
253	0xbd3f7dab	-0.046750706
254	0x3f153686	0.5828632
255	0x3e23fa5b	0.16013472

bias f4 [8]
0	0xbfef124e	-1.8677461
1	0x3fb782f1	1.4336835
2	0x3e3c2998	0.18375242
3	0xbf48fa40	-0.7850685
4	0xbf8b079b	-1.0861696
5	0x3eee092a	0.46491367
6	0x40090ff8	2.1415997
7	0x400a4f7c	2.1611013

weight f4 [29, 512]
0	0x3e82aad6	0.25520962
1	0x3e284a78	0.16434658
2	0xbcd06266	-0.025437545
3	0xbed6db65	-0.4196426
4	0xbeebf970	-0.46088743
5	0xbf0ec89e	-0.5577487
6	0xbe10501d	-0.14093061
7	0xbede4652	-0.43413025
8	0xbe19a3bc	-0.15003866
9	0x3ef5797d	0.4794425
10	0x3b932bd1	0.0044913073
11	0xbd7527ee	-0.059852533
12	0xbec27353	-0.3797861
13	0xbf74b5e8	-0.95590067
14	0xbec11be2	-0.37716585
15	0xbe8a0e41	-0.26964
16	0xbf15327b	-0.5828015
17	0x3f102389	0.5630422
18	0x3f1dc717	0.6163191
19	0x3e24f142	0.16107658
20	0xbec10b48	-0.3770392
21	0x3f4a4f86	0.79027593
22	0xbf62c5d1	-0.88583094
23	0xbe0a5caa	-0.13511911
24	0x3e4c8eef	0.199764
25	0x3f0e1a45	0.55508834
26	0xbe7691d1	-0.24079062
27	0x3edc6aa6	0.43050116
28	0x3ec61a09	0.38691738
29	0xbea2b11b	-0.31775746
30	0xbeb7bfaf	-0.3588843
31	0xbe1e8b81	-0.15482904
32	0x3e60d226	0.21955165
33	0x3f087b12	0.5331279
34	0x3ea68623	0.32524213
35	0x3e9446cc	0.28960264
36	0x3dffb2e5	0.12485293
37	0x3e8f29de	0.2796163
38	0x3edb7a96	0.42866963
39	0xbd5b396f	-0.05352157
40	0x3f20d958	0.6283164
41	0x3eb461a6	0.3523075
42	0x3e92df2c	0.28685892
43	0xbe11d08a	-0.14239708
44	0x3e43c066	0.19116363
45	0xbd55e3f8	-0.05221936
46	0x3e1778ce	0.14792177
47	0x3ee40402	0.44534308
48	0x3e009767	0.12557755
49	0x3c3c4f09	0.011493453
50	0xbec76948	-0.3894751
51	0xbf5aa482	-0.8540727
52	0xbe635007	-0.22198497
53	0x3f002834	0.50061345
54	0xbf325c14	-0.6967175
55	0x3e3fe8ca	0.18741146
56	0xbff37177	-1.9019002
57	0xbe491175	-0.19635566
58	0x3ec3d5e7	0.38249132
59	0xbefc1c2d	-0.49240246
60	0xbc846294	-0.016160287
61	0x3e7de40e	0.24794027
62	0xbf8048b0	-1.0022182
63	0x3eb72735	0.357721
64	0xc1a58d6d	-20.694056
65	0xc0a8be43	-5.2732253
66	0x3ee390e5	0.44446483
67	0x3f39da26	0.72598493
68	0x3e7ec4a5	0.24879701
69	0x3eaf16cf	0.3419709
70	0x3ed7ce72	0.42149693
71	0x3e815d31	0.25266412
72	0xbdf67c33	-0.12035408
73	0x3f18f7d1	0.5975314
74	0x3ea42f39	0.32067278
75	0x3ebdde47	0.37083647
76	0x3e986d6c	0.29770982
77	0x3ee410df	0.44544122
78	0x3f832483	1.0245517
79	0xbfc963e7	-1.5733613
80	0x3fd5c686	1.670121
81	0x3f33774b	0.701039
82	0x3edaf0a2	0.42761713
83	0x3f62a2bd	0.8852957
84	0x3f337100	0.700943
85	0x3f36a4c0	0.7134514
86	0x3fd7a26b	1.6846441
87	0x3d95647d	0.07294557
88	0x3f2f76e9	0.6854082
89	0x3f496cac	0.78681445
90	0x3e4860ed	0.19568224
91	0x3eec5762	0.46160418
92	0x3eb340a4	0.35010254
93	0x3f37aec0	0.7175102
94	0x3f68f9bb	0.9100606
95	0xbfb86fe1	-1.4409143
96	0x3c6b5ff0	0.014366135
97	0x3e974c9f	0.29550645
98	0xbd8f33f2	-0.0699233
99	0x3d53b194	0.051683024
100	0x3e8b531b	0.27211842
101	0xbda17a26	-0.07884626
102	0x3e2a167a	0.16610137
103	0x3ede394a	0.43403083
104	0xbe97631e	-0.29567808
105	0xbe9cac5f	-0.3060026
106	0x3e440074	0.19140798
107	0xbe2e3e4a	-0.17015949
108	0x3f1ed8b0	0.6204939
109	0x3eba753f	0.36417577
110	0x3f5e387d	0.86804944
111	0x3dca72b3	0.098851584
112	0x3fa81f34	1.3134522
113	0x3e7bfa48	0.24607193
114	0x3d230c4c	0.03980665
115	0xbef35853	-0.47528324
116	0xbe04646c	-0.12928933
117	0x3e0d8096	0.13818583
118	0xbda6901e	-0.08132957
119	0x3d09560c	0.033529326
120	0x3de842f0	0.11340892
121	0xbe51f4a8	-0.20503485
122	0xbe961b10	-0.29317522
123	0xbe04f4cb	-0.12984006
124	0x3e0b718a	0.1361753
125	0x3d53ebb6	0.051738463
126	0xbe294748	-0.16531098
127	0x3e45d4f0	0.1931951
128	0xc07eda6d	-3.9820817
129	0xbf030fde	-0.51196086
130	0xbee692d1	-0.45033887
131	0xbd9fb3e3	-0.077979825
132	0xbe64ba7b	-0.22336762
133	0xbd863e4d	-0.06554852
134	0xbcf3d938	-0.029766664
135	0xbefe78f4	-0.49701655
136	0x3fd4d606	1.6627815
137	0x3de5643d	0.112007596
138	0x3bc0ac99	0.0058799502
139	0xbddc1a5f	-0.107472174
140	0x3e85860e	0.26078838
141	0xbf34064a	-0.70322096
142	0xbfc59ec7	-1.543908
143	0xbeb364d2	-0.35037857
144	0xbd9922b1	-0.0747732
145	0xbc19092e	-0.0093405675
146	0xbe339cdb	-0.17540304
147	0xbea605ca	-0.32426292
148	0xbec54d76	-0.3853566
149	0x3ee339e9	0.4438012
150	0xbe547d32	-0.20750883
151	0xbef53d03	-0.4789811
152	0x3f4ce60b	0.8003852
153	0xbddb5cc2	-0.107110515
154	0x3e665d2a	0.22496477
155	0xbe8834ef	-0.26602885
156	0xbee99e49	-0.45628574
157	0xbf4f3f52	-0.80955994
158	0x3e66dfc2	0.22546294
159	0xbe82074e	-0.25396198
160	0x3eec58e1	0.4616156
161	0x3e01af1b	0.12664454
162	0xbea87859	-0.32904318
163	0xbda6d0d9	-0.08145303
164	0xbda13054	-0.07870546
165	0x3f0cbe21	0.54977614
166	0x3f25d64d	0.6478012
167	0x3dba0907	0.09083753
168	0xbdeb5799	-0.11491317
169	0x3cd739d5	0.026272694
170	0xbb4cbcb4	-0.0031240406
171	0x3e9d3262	0.30702502
172	0xbeff37d4	-0.4984728
173	0xbe9a1ffd	-0.3010253
174	0x3f330e54	0.6994374
175	0x3e1bc4a6	0.15211734
176	0x3f11cbd0	0.5695162
177	0xbe445ef6	-0.1917685
178	0xbd8a3be8	-0.067497075
179	0x3d8329ac	0.06404433
180	0x3d4320a2	0.047638543
181	0x3e8149de	0.2525167
182	0x3e83c2d8	0.2573459
183	0x3ea741fe	0.32667536
184	0x3ef50e2a	0.4786237
185	0x3e91e0f7	0.28491947
186	0x3ead877b	0.33892426
187	0x3f5489d4	0.8302281
188	0x3f0e09f2	0.55483925
189	0x3d7701fd	0.06030463
190	0xbdc74313	-0.0972959
191	0x3e4ddc0f	0.20103477
192	0x3d49618e	0.0491653
193	0xbfb2be03	-1.3964237
194	0xbfbf102a	-1.4926808
195	0xbe81d52e	-0.25357956
196	0xbd5e7bfa	-0.054317452
197	0x3d871586	0.06595902
198	0xbee3aa53	-0.44465885
199	0x3e25c9ea	0.16190305
200	0xbe6f8996	-0.23392329
201	0x3ef04851	0.46930173
202	0x3eedf012	0.46472222
203	0x3d5df66d	0.054190088
204	0x3e03ddb0	0.12877536
205	0xbf023339	-0.5085941
206	0x3f8a1411	1.0787374
207	0x3f6c854b	0.9239089
208	0x3f66aecd	0.90110475
209	0x3ebf03d2	0.37307602
210	0xbf34cd06	-0.7062534
211	0xbf5df8b4	-0.86707616
212	0xbe97ac19	-0.29623488
213	0xbdd188c9	-0.10231168
214	0xbfb3c70d	-1.404512
215	0x3e9f6c89	0.31137493
216	0x3f4ecab0	0.80778027
217	0xbfc53c11	-1.5408956
218	0xbf80f03c	-1.0073314
219	0xbe71e13b	-0.23621075
220	0xbf5352db	-0.825483
221	0xbf8dbace	-1.1072633
222	0xbf99b1d2	-1.2007391
223	0x3efed6ef	0.49773356
224	0x3f643d50	0.89156055
225	0xbeb9ef20	-0.3631525
226	0xbf1611d6	-0.58620965
227	0xbf36e66f	-0.71445364
228	0xbf08762b	-0.5330531
229	0x3dfe4aba	0.12416597
230	0xbeca61a4	-0.3952762
231	0xbf498ef7	-0.7873377
232	0x3f794c2e	0.97381866
233	0xbf30152c	-0.68782306
234	0xbf657fba	-0.8964802
235	0xbec2f5b4	-0.38078082
236	0xbeb53822	-0.35394388
237	0xbee003a0	-0.43752766
238	0xbdcb06f2	-0.09913434
239	0xbf8dfd60	-1.1092949
240	0x3fa552fd	1.2915951
241	0x3eda9341	0.4269047
242	0x3f1fe85a	0.62463915
243	0xbf603398	-0.87578726
244	0xbf490301	-0.7852021
245	0xbfaa644a	-1.3311856
246	0xbfe32038	-1.7744207
247	0xbfa886a5	-1.316609
248	0x3d64b093	0.055832457
249	0xbe8fdbe8	-0.28097463
250	0xbe628b3b	-0.22123425
251	0xbdb252e6	-0.08707218
252	0x3e7f5cd0	0.24937749
253	0x3e248ba7	0.16068898
254	0x3e35770e	0.17721197
255	0x3eca8a98	0.39558864

bias f4 [29]
0	0xbdd53358	-0.10410184
1	0x3e703a7c	0.2345981
2	0xbe7bb76b	-0.24581687
3	0x3e1dd58e	0.15413496
4	0xbe009c9d	-0.12559743
5	0xbd8b6e6b	-0.0680817
6	0xbdee8f67	-0.116484456
7	0x3dbb3cb0	0.091424346
8	0x3ee09a0e	0.43867534
9	0xbe1350a1	-0.14386226
10	0x3eae1f0a	0.34008056
11	0xbf0ec99a	-0.5577637
12	0xbeed8847	-0.46393034
13	0x3e89bd36	0.2690217
14	0xbf3f9322	-0.7483388
15	0xbea87c42	-0.329073
16	0xbd4690fa	-0.048478104
17	0x3f0cfbef	0.5507192
18	0xbea1ec69	-0.3162568
19	0x3e939fea	0.28832942
20	0xbeb780bf	-0.35840413
21	0x3efe6214	0.49684203
22	0x3d6a42ad	0.057192493
23	0x3f13f7fc	0.5780027
24	0xbee57859	-0.4481838
25	0x3ded9524	0.11600712
26	0x3e310730	0.17287898
27	0x3e5a0b19	0.21293296
28	0xbe83b452	-0.2572351
