workspace-rich/checkpoints_backup/230830/checkpoint_98.58.pth (torch, 64671 bytes, 6 tensors)

weight f4 [4, 1, 3, 3]
000000 58 59 04 3f b0 ef 31 3e 77 2d a8 3f 50 78 12 40
       0.5169883 0.1737659 1.3138875 2.2885933
000010 d7 4d 1c 40 89 62 0c 40 69 34 b8 3f 1d ce f3 3f
       2.442251 2.193514 1.4390994 1.9047276
000020 bc fc 05 40 d3 9a 09 3e 36 c9 48 bf b2 2e 81 bf
       2.0935507 0.13437967 -0.78432024 -1.0092375
000030 c1 ac 39 bf 34 25 18 bf 3b 19 da bd 8e e0 ef 3e
       -0.72529227 -0.5943177 -0.106493436 0.4685101
000040 93 32 85 3f cf df d1 3f bf 56 dc be 90 4d 94 bf
       1.0406059 1.6396426 -0.43034932 -1.158617
000050 f7 e6 9a bf ad c6 b0 3f ca 1a 2b 3f dc 4c 3a bf
       -1.2101735 1.3810631 0.6683775 -0.7277353
000060 f3 83 93 3f b9 d8 11 3f 7f 03 0d 3f 1b 42 8a bd
       1.1524643 0.5697132 0.5508346 -0.0675089
000070 db 43 43 be d0 54 f7 bd 86 40 bb bd a3 93 06 be
       -0.19068854 -0.120767236 -0.09143166 -0.13142256
000080 a2 a8 90 3e c8 fc 61 3e 48 68 81 be 56 1f 91 bd
       0.28253657 0.22069085 -0.25274873 -0.07086055

bias f4 [4]
000000 88 e5 0f c0 18 51 4e bc fa e0 77 be 32 6c a7 be
       -2.2483845 -0.012592576 -0.24206915 -0.32699734

weight f4 [8, 4, 3, 3]
000000 c6 c7 81 be ab bb e1 be 3a 92 28 be 98 23 69 3e
       -0.25347728 -0.44088492 -0.16462031 0.22767484
000010 44 a4 87 be 33 c8 36 be c1 2a 12 3f cf 72 cb 3e
       -0.26492512 -0.17849807 0.5709649 0.3973603
000020 b4 d6 94 3e d1 7e 99 3e 2c e3 30 3e 3e 03 01 3e
       0.29070055 0.29979566 0.17274159 0.12598893
000030 fb f3 75 bf 13 77 d7 be 28 f6 89 bf 51 30 a3 bf
       -0.9607541 -0.42083034 -1.0778246 -1.274912
000040 79 31 34 bf 92 7a 71 bf 54 a4 22 3f 73 10 f6 be
       -0.7038799 -0.9432765 0.63531995 -0.48059425
000050 c3 e7 33 be de 35 21 3f fe 81 99 3f e9 7e 8a 3e
       -0.17568879 0.6297282 1.1992795 0.2704995
000060 73 0e 28 be 31 fa 07 40 be be ce 3f 0b d7 61 3d
       -0.16411762 2.1246455 1.615196 0.05513672
000070 66 c6 0d 3d a8 8e bc bd 4e b6 1e 3e d8 40 16 3e
       0.034613036 -0.09206897 0.15499231 0.14673173
000080 4b e7 a7 3d c6 8a 26 be 06 f2 66 bd e6 55 98 bd
       0.081984125 -0.16263875 -0.056383155 -0.07438259
000090 fb a0 e8 3e 1d 30 29 3f eb 38 34 3e b1 32 fd 3e
       0.45435318 0.6608904 0.17599837 0.49452737
0000a0 1f bf 3d 3d 3d d2 46 bf ae 66 47 3e 21 90 07 bf
       0.046324845 -0.7766455 0.19472763 -0.529543
0000b0 94 b6 02 bf 98 6b 6a 40 a7 30 e9 3e c1 a3 f3 bf
       -0.5105984 3.662817 0.4554493 -1.9034349
0000c0 26 2c 02 c0 8d 8a 62 c0 f2 a4 f8 be ad 23 41 bf
       -2.0339446 -3.5397065 -0.48563343 -0.7544506
0000d0 7f ad a8 3f 86 14 27 40 19 e0 4a bd 53 b4 41 be
       1.3177947 2.6106277 -0.049530122 -0.18916444
0000e0 aa ea 50 bd c6 d0 f7 bf f5 5c 45 c0 24 be 09 c0
       -0.051005043 -1.9360588 -3.0837986 -2.1522303
0000f0 e9 f1 ec bf 2c 02 55 c0 3b b1 c1 bf a2 65 0b 3e
       -1.8511325 -3.3282576 -1.5132211 0.13612989
000100 33 72 fe bd 8b cf ba bd d6 80 5a 3d d6 9f 36 bc
       -0.124241255 -0.09121617 0.053345524 -0.011146506
000110 16 83 9f bc 9e d6 1b 3e c0 b2 a5 3c 30 c9 dc 3d
       -0.019471686 0.15218589 0.020226836 0.10780561
000120 b9 4a 2d 3f b5 88 18 3e cd f2 0b bf e9 d9 f1 3e
       0.6769214 0.148959 -0.5466736 0.47236565
000130 c2 72 cd be 77 56 ea be 5c fa 39 3f 24 1d 59 bf
       -0.40126616 -0.45769092 0.72647643 -0.8481009
000140 46 77 ac be 0a d8 96 3f bd ba 96 be b8 98 47 3f
       -0.33684748 1.178468 -0.29439345 0.77967405
000150 11 e4 23 3e 87 f3 27 c0 3d a2 7b 3f 20 30 ba bf
       0.16004969 -2.6242387 0.9829443 -1.4545937
000160 36 be a5 bf 73 20 5e 3f 6a 7c 4f be 06 70 54 3e
       -1.2948673 0.86768264 -0.20262304 0.20745859
000170 e2 39 f3 3f 25 3f f0 3e be 31 3b 3f 50 bc 81 3f
       1.900204 0.46923175 0.73122776 1.0135593
000180 ac 24 07 3f c0 46 d9 3e f9 84 b9 be 0b a3 c5 3c
       0.5279033 0.4243679 -0.36234263 0.024125597
000190 30 48 22 3e 46 5d 02 3e 38 e5 a1 bd 54 4f 09 3e
       0.1584785 0.12730893 -0.07905048 0.13409168
0001a0 c0 8b 07 bc 57 5a 10 3e c0 ca 9d 3d 3b 0b 97 bd
       -0.008273065 0.14096962 0.07704687 -0.07375189
0001b0 27 b8 61 3d f8 1e 1f 3f 5f e8 04 3e b8 3a 04 bf
       0.055107262 0.6215663 0.12979268 -0.516521
0001c0 e0 5b 22 be 86 06 c2 3b 1f 5d 07 be 91 fc b2 be
       -0.1585536 0.005921188 -0.13219117 -0.34958318
0001d0 42 ca 85 be 7a e5 2e 40 d3 fa 7a 40 97 06 2e 40
       -0.26130873 2.7327561 3.921559 2.7191522
0001e0 4e b2 a0 bf a7 5d b3 bf 58 c3 5c 3f 8b ea 12 40
       -1.2554414 -1.4012955 0.8623557 2.2955654
0001f0 31 86 32 40 34 e7 ec 3f 6a e4 79 3f b1 28 ea 3f
       2.7894404 1.8508058 0.9761416 1.8293668
000200 cd 82 ce 3f 1c 02 74 be 56 00 bf bf bd 5c 8a be
       1.6133667 -0.2382893 -1.4921978 -0.2702388
000210 00 a4 9a 3e 38 47 78 3e 12 c7 2d bf 43 0a 89 bd
       0.30203247 0.24245918 -0.6788188 -0.066914104
000220 5b 59 03 3e c6 c8 07 be b3 de f9 3d 0b 6f af bc
       0.12827055 -0.13260183 0.1220068 -0.021415254
000230 0c ce 17 be c0 04 41 bd 74 23 22 be e0 cd e1 3c
       -0.14824694 -0.04712367 -0.15833837 0.02756399
000240 21 e7 d5 be f6 c7 06 3c 92 46 16 3c 25 8e 20 3e
       -0.417779 0.008226385 0.009172099 0.15679224
000250 d0 c8 17 3f 5c 4d 53 3f a4 e5 17 be 88 06 16 bf
       0.5929079 0.82539916 -0.14833695 -0.58603716
000260 6d 6e a8 be 9c 56 0b bf f4 37 3d 3f 97 dc fc 3f
       -0.32896748 -0.5442903 0.739135 1.9754819
000270 aa dc 9c be 17 fd 67 3f db 33 50 3f 97 95 1a be
       -0.30637103 0.9062056 0.81329125 -0.15096126
000280 02 0f cf bf 5c 42 23 c0 7e b4 14 c0 74 b1 4c bf
       -1.6176455 -2.5509253 -2.3235164 -0.7995827
000290 b4 a4 cb 3d 0d 38 91 3f 53 e9 23 40 6a 9f 46 40
       0.09943524 1.134523 2.561116 3.1034799
0002a0 3b 0d 92 bf e8 91 49 c0 c7 4d f0 bf 76 a1 83 bd
       -1.1410288 -3.1495304 -1.8773736 -0.064272806
0002b0 f8 f7 da bd 00 00 6b bd 40 57 97 3c 98 cf 90 bd
       -0.106918275 -0.057373047 0.018474221 -0.07070845
0002c0 cb 23 28 3d b6 9c c4 3c d3 36 80 3d 50 4e e5 3d
       0.04104976 0.024000507 0.06260457 0.111965775
0002d0 70 01 75 be b6 07 2c bf 35 0d 2f bf 20 ee f5 bd
       -0.2392633 -0.67199266 -0.6837953 -0.12008309
0002e0 50 7d 8d be 95 7b 38 bf b5 2c 19 3f aa cb 4d 3f
       -0.27634668 -0.7206357 0.5983384 0.8038889
0002f0 2d 60 f1 3e cd f1 c8 be 44 bb 17 be 12 5d de be
       0.4714369 -0.3924698 -0.1481753 -0.43430382
000300 19 47 f6 3d 43 4a b1 3e 0d 4a 83 3f c7 64 0d 40
       0.120252796 0.3462697 1.0256974 2.209276
000310 2a 5b 10 40 3f 33 b1 3e 98 aa 0d 3f e1 fa 3e bf
       2.2555642 0.3460941 0.5533843 -0.7460156
000320 b8 9a ac bd 34 93 c0 be fb 0b d7 be 6c af 85 bd
       -0.08427948 -0.37612307 -0.42001328 -0.065276
000330 de 85 b5 3f a1 74 a7 3f 58 f0 8d 3f 80 d9 92 3d
       1.4181478 1.3082467 1.1088972 0.07170391
000340 8b 92 db bc ff 9c 27 3e f3 89 a4 bd 2e 05 eb bd
       -0.026803276 0.16368483 -0.08034124 -0.11475597
000350 3e d0 f9 bd 60 e3 1d be 36 9c d1 bd cb 42 99 3d
       -0.12197922 -0.15418768 -0.10234873 0.07483443
000360 b1 2f 28 bf 4c f1 10 3e cc ce e9 3e 1a 1e 3c bf
       -0.6569777 0.14154547 0.45665586 -0.7348343
000370 e1 e8 bb be b9 16 6f 3f 7a 73 87 3e 1b fa 13 bf
       -0.3670111 0.9339405 0.2645529 -0.57803506
000380 ec 49 4f bc 0d bf d8 bf 2e 1b a5 bf a1 62 55 3f
       -0.012651902 -1.6933304 -1.289892 0.8335362
000390 af be 40 3f 23 74 45 c0 35 e4 53 c0 64 21 32 40
       0.7529096 -3.0852134 -3.3108037 2.783288
0003a0 90 42 0f 40 28 88 03 3f f4 8c 18 c0 d7 1f 10 bf
       2.2384377 0.5137963 -2.383603 -0.56298584
0003b0 98 8d 04 3f 28 11 11 be 90 de a4 bf 58 3f 9a bf
       0.51778555 -0.14166701 -1.2880421 -1.2050581
0003c0 81 2d ba 3f f5 3e d3 3f 5f 3e da 3d 8b 1a e3 bd
       1.4545137 1.6503588 0.106564276 -0.11089047
0003d0 4b 0a 9f bd 16 6c 0f 3c 24 bc 10 3e eb da c6 bc
       -0.07765635 0.008753797 0.1413427 -0.02427431
0003e0 ff d2 19 3e ea 5e 1e be 86 3f 46 3d 7f 20 1e 3e
       0.15021895 -0.15465894 0.048400424 0.15442084
0003f0 31 19 c5 be 0c b8 3f bd c6 55 15 3f 37 51 23 3e
       -0.38495782 -0.04680638 0.58334005 0.1594895

bias f4 [8]
000000 ad be ef bf 52 53 b8 3f e5 50 3e 3e 41 61 49 bf
       -1.8730065 1.4400427 0.18585546 -0.7866402
000010 64 66 8b bf 9b 36 ee 3e b8 41 09 40 a6 a6 0a 40
       -1.0890622 0.46526036 2.1446362 2.1664214

weight f4 [29, 512]
000000 04 23 83 3e 31 99 29 3e 58 7a cc bc 08 9c d7 be
       0.25612652 0.16562344 -0.024960682 -0.4211123
000010 23 b7 ec be 68 6e 0e bf 95 23 0e be 23 42 de be
       -0.46233472 -0.55637217 -0.13880761 -0.43409833
000020 88 e7 19 be e6 10 f6 3e 1a cf 78 3b c6 94 76 bd
       -0.15029728 0.48059767 0.003796524 -0.060200475
000030 64 4b c3 be d2 7a 75 bf 29 8c c0 be 1c 12 8a be
       -0.38143456 -0.95890534 -0.37606934 -0.2696694
000040 40 2e 15 bf 1d 4a 10 3f 01 17 1e 3f b3 f5 23 3e
       -0.58273697 0.5636309 0.6175385 0.16011696
000050 35 79 c1 be b8 37 49 3f 5a 55 62 bf 10 33 0a be
       -0.37787786 0.78600645 -0.88411486 -0.13496041
000060 88 a7 4b 3e 92 01 0f 3f 80 75 74 be 09 3a dd 3e
       0.19888127 0.5586177 -0.23872948 0.4320834
000070 74 89 c7 3e 88 41 a3 be 35 23 b6 be 30 c5 1d be
       0.38972056 -0.31885934 -0.35573736 -0.15407252
000080 41 97 60 3e e9 85 08 3f c7 ff a6 3e cc 29 94 3e
       0.21932699 0.5332933 0.32617018 0.28938138
000090 0f 20 02 3e 09 e2 8e 3e 83 3b dc 3e fc 95 5b bd
       0.12707542 0.27906826 0.43014154 -0.053609833
0000a0 59 a5 20 3f d6 e4 b3 3e cd 2f 92 3e 7d 5e 12 be
       0.627523 0.35135525 0.28552094 -0.14293857
0000b0 dd b1 44 3e 0e f0 51 bd a9 52 17 3e cd a4 e4 3e
       0.19208474 -0.051254325 0.14777626 0.44656983
0000c0 ec f4 fe 3d ec c9 40 3c db 9f c7 be b2 e3 5a bf
       0.12449059 0.011766892 -0.38989148 -0.85503685
0000d0 ce 3f 61 be f5 ff ff 3e 6f d5 32 bf 60 a9 40 3e
       -0.21996996 0.49999967 -0.69856924 0.18814611
0000e0 72 07 f4 bf 7a ed 49 be a4 9f c4 3e ef 02 fc be
       -1.9064772 -0.19719496 0.38403046 -0.49220988
0000f0 5d 20 60 bc f3 56 80 3e 10 47 80 bf c9 c0 b7 3e
       -0.013679591 0.25066337 -1.0021687 0.3588927
000100 38 c1 a5 c1 ee c8 a8 c0 34 ce e3 3e 39 c8 39 3f
       -20.719345 -5.2745275 0.44493258 0.7257114
000110 1d b8 7d 3e 53 7e ae 3e df 77 d6 3e 3d 15 81 3e
       0.24777265 0.34080753 0.4188833 0.25211516
000120 25 62 0c be ad a3 17 3f 59 64 a3 3e fa 94 bd 3e
       -0.13709314 0.59234124 0.31912497 0.37027723
000130 ed 44 99 3e 2f 2e e5 3e 17 21 83 3f 49 aa c9 bf
       0.299354 0.44761798 1.0244473 -1.5755092
000140 08 c6 d5 3f d0 e7 32 3f f6 d3 da 3e 54 14 63 3f
       1.6701059 0.6988497 0.42739838 0.88702893
000150 6a f3 32 3f f8 d5 35 3f 16 ad d7 3f ab e9 9e 3d
       0.6990267 0.71029615 1.6849697 0.077594124
000160 d4 a4 2e 3f bb da 49 3f 1b 74 49 3e 14 d3 ec 3e
       0.6822026 0.7884938 0.19673197 0.4625479
000170 fb e3 b0 3e 74 c7 38 3f 4b 86 69 3f cd a8 b8 bf
       0.34548935 0.7217934 0.9122054 -1.4426514
000180 f9 79 8f 3c fc fd 97 3e 70 45 8d bd 48 3c 4e 3d
       0.017514216 0.29685962 -0.0689801 0.050350457
000190 97 52 8c 3e 2c 18 9f bd a4 b9 2a 3e fb 65 e0 3e
       0.2740676 -0.07768282 0.16672379 0.43827805
0001a0 52 3f 97 be b2 3a 9c be 05 6b 3f 3e 1f d1 2f be
       -0.29540497 -0.3051353 0.18693168 -0.17169617
0001b0 aa a5 1f 3f 86 33 b8 3e 82 57 5d 3f 1c c1 ca 3d
       0.6236216 0.3597681 0.8646165 0.09900114
0001c0 e9 9f a8 3f 0b 0a 80 3e f3 67 23 3d 3c ab f4 be
       1.3173801 0.25007662 0.039894056 -0.4778689
0001d0 90 67 05 be 1c 58 0e 3e 98 8b a8 bd 2f ab 12 3d
       -0.13027787 0.13900799 -0.082297504 0.035807785
0001e0 c1 5b e9 3d 06 df 51 be 5b 13 96 be 38 f7 04 be
       0.11394454 -0.20495233 -0.29311642 -0.12984931
0001f0 fa 0c 0c 3e 58 9b 4e 3d bf 42 2a be 32 a2 46 3e
       0.13676825 0.050441116 -0.16627024 0.1939781
000200 94 45 7f c0 d8 d4 04 bf c6 35 e8 be 84 d4 a1 bd
       -3.9886217 -0.51887274 -0.45353526 -0.07901862
000210 16 6f 67 be ea 1e 89 bd 39 1d f3 bc 44 10 ff be
       -0.2260097 -0.066953495 -0.02967702 -0.49817097
000220 36 de d5 3f dc b6 e1 3d ef 41 eb 3b c7 40 dc bd
       1.6708438 0.11021206 0.0071794908 -0.10754543
000230 49 fe 83 3e b4 3d 35 bf e0 a3 c5 bf a0 83 b3 be
       0.25779942 -0.70797276 -1.5440636 -0.3506136
000240 27 5c b8 bd a0 45 20 bc 0d ae 34 be 4f 36 a6 be
       -0.09001952 -0.009782225 -0.1764452 -0.3246331
000250 c2 e3 c6 be 4e d7 e1 3e 42 c0 51 be 40 70 f5 be
       -0.3884564 0.44109577 -0.20483497 -0.47937202
000260 9c ad 4b 3f ce fe db bd 4c 2b 68 3e b9 23 87 be
       0.7956178 -0.107419595 0.22672766 -0.26394442
000270 1a a7 e9 be e4 ac 4e bf 4e 92 65 3e 0a 18 82 be
       -0.456353 -0.8073256 0.22419092 -0.25408965
000280 f8 23 ec 3e 2f 34 05 3e 03 55 a9 be d6 83 a7 bd
       0.46121192 0.13008188 -0.3307267 -0.081794426
000290 45 b0 9a bd 2c 44 0d 3f 11 a1 25 3f 38 62 bc 3d
       -0.07553152 0.5518215 0.6469889 0.09198421
0002a0 27 9f f1 bd 82 7e e1 3c 68 6f 93 bb d6 a3 9d 3e
       -0.11797934 0.027526144 -0.0044993646 0.3078906
0002b0 22 15 fe be 13 f7 9a be 7d 5b 31 3f 87 f5 1b 3e
       -0.49625498 -0.30266628 0.69280225 0.1523038
0002c0 e3 f4 11 3f cf 07 45 be 76 a6 8c bd 4a 04 89 3d
       0.5701429 -0.1924126 -0.068676874 0.06690271
0002d0 ad 22 43 3d 49 9a 80 3e 1e 92 81 3e 6c 9c a7 3e
       0.04764049 0.2511771 0.2530679 0.32736528
0002e0 89 73 f6 3e 94 e4 91 3e 3d 54 ad 3e a2 40 55 3f
       0.4813502 0.28494704 0.3385333 0.83301747
0002f0 f5 7f 0e 3f ec e7 75 3d ba 0d cc bd ad af 4e 3e
       0.55663997 0.06003563 -0.09963556 0.20184202
000300 ee f0 46 3d 24 dd b2 bf ad 41 bf bf 40 5b 82 be
       0.048569612 -1.3973737 -1.4941918 -0.25460243
000310 ab a4 62 bd 14 11 85 3d 16 42 e4 be 74 29 26 3e
       -0.05533282 0.06497398 -0.4458167 0.1622675
000320 4a 31 6f be 71 f5 f0 3e ac 34 ef 3e bc 80 6b 3d
       -0.23358646 0.47062257 0.46719873 0.057495818
000330 cb 21 08 3e a0 c0 01 bf 74 55 8a 3f fb 27 6c 3f
       0.13294141 -0.5068455 1.0807328 0.92248505
000340 e9 c3 66 3f 44 d4 bb 3e 08 93 36 bf ba e7 5e bf
       0.90142685 0.36685383 -0.713181 -0.87072337
000350 1b 7c 98 be 78 0a d6 bd f2 89 b4 bf 53 7e a0 3e
       -0.29782185 -0.104512155 -1.4104598 0.31346378
000360 39 6f 4f 3f e0 99 c6 bf 78 cf 80 bf 35 1f 77 be
       0.8102909 -1.5515709 -1.0063314 -0.24132998
000370 59 31 54 bf a8 21 8e bf af f0 99 bf ff b0 00 3f
       -0.828878 -1.1104021 -1.2026576 0.50270075
000380 ce da 64 3f dc 14 b9 be 58 14 17 bf 0a 4e 37 bf
       0.8939637 -0.36148727 -0.5901542 -0.71603453
000390 54 39 08 bf 84 45 ff 3d c4 fc ca be 10 9f 49 bf
       -0.53212476 0.12464431 -0.3964597 -0.78758335
0003a0 7e 61 79 3f d4 76 30 bf 50 63 65 bf 4b a2 c3 be
       0.97414386 -0.6893132 -0.89604664 -0.38209757
0003b0 85 a8 b4 be b2 73 e0 be 55 df ce bd 08 5e 8e bf
       -0.3528482 -0.4383827 -0.10101191 -1.1122446
0003c0 41 5f a5 3f 84 2a df 3e 14 ad 20 3f 39 22 5f bf
       1.2919694 0.43587124 0.62764096 -0.87161595
0003d0 a9 40 49 bf 29 da aa bf 9e e1 e2 bf fb cc a7 bf
       -0.7861429 -1.3347827 -1.7725103 -1.310943
0003e0 c1 40 65 3d 87 18 90 be 0d da 62 be f0 5a ac bd
       0.055969957 -0.28143713 -0.22153492 -0.084157825
0003f0 f3 f7 7c 3e 48 4d 24 3e fb f3 35 3e d3 24 cb 3e
       0.2470396 0.16045105 0.17768852 0.39676532

bias f4 [29]
000000 e7 ea d3 bd 56 81 70 3e 1e 9d 7d be af 3f 1e 3e
       -0.103475384 0.23486838 -0.24766967 0.15453981
000010 ba 2b 01 be ad 30 8d bd 5f c6 f0 bd 03 54 b7 3d
       -0.12614337 -0.0689405 -0.11756586 0.08951571
000020 45 a9 e0 3e ae 74 13 be 00 19 af 3e 3c 30 0f bf
       0.43879142 -0.14399979 0.3419876 -0.55932975
000030 51 75 ee be 49 6c 8a 3e 51 c6 3f bf 87 e0 a8 be
       -0.4657388 0.2703574 -0.7491198 -0.329838
000040 86 0e 47 bd 62 36 0d 3f b3 89 a2 be b4 9d 93 3e
       -0.048597835 0.55161107 -0.3174568 0.28831255
000050 24 d9 b7 be cd ef fe 3e 73 b2 67 3d c8 29 14 3f
       -0.35907853 0.49792328 0.056566667 0.57876253
000060 7d c0 e5 be 28 16 eb 3d 26 de 2f 3e cd 04 59 3e
       -0.4487342 0.11478835 0.17174587 0.21193238
000070 34 e4 83 be
       -0.25760043
