workspace-rich/checkpoints_backup/230830/checkpoint_98.53.pth (torch, 64671 bytes, 6 tensors)

weight f4 [4, 1, 3, 3]
00000000: 3e49 fd3e 97dd 1e3e 31ef a53f 114b 1040
00000010: 6d45 1a40 a5a0 0a40 7185 b53f 505b f13f
00000020: d572 0440 3fb3 103e b6fb 46bf 853a 7fbf
00000030: 3448 39bf 5de4 17bf fef4 d7bd 3826 eb3e
00000040: 1a2e 833f ef51 d03f 2cb4 dbbe a732 93bf
00000050: 3971 99bf 9292 af3f 9d42 2a3f afc5 38bf
00000060: 1929 923f 9ea4 0f3f 464d 0b3f 1b42 8abd
00000070: db43 43be d054 f7bd 8640 bbbd a393 06be
00000080: a2a8 903e c8fc 613e 4868 81be 561f 91bd
0.49469942 0.15514217 1.296362 2.2545817 2.4104874 2.166055 1.4181348 1.8855991
2.0695088 0.14130877 -0.7772783 -0.9969867 -0.723758 -0.5933283 -0.105447754 0.45927596
1.0248444 1.6275004 -0.42910898 -1.1499833 -1.1987678 1.3716605 0.66507894 -0.7217664
1.1418792 0.5611056 0.54414785 -0.0675089 -0.19068854 -0.120767236 -0.09143166 -0.13142256
0.28253657 0.22069085 -0.25274873 -0.07086055

bias f4 [4]
00000000: 9848 0ec0 aef0 7bbc 30bf 75be 326c a7be
-2.2231808 -0.015377207 -0.23998713 -0.32699734

weight f4 [8, 4, 3, 3]
00000000: be54 80be b224 dfbe 2a8d 22be 466c 653e
00000010: e316 88be 67fa 33be 2822 113f 0bc7 c83e
00000020: cf42 933e de7a 973e 6352 2c3e 1e26 f33d
00000030: bc75 75bf a42b d7be 58b8 8abf 2e73 a2bf
00000040: 2e25 34bf b3dc 71bf 36dc 1d3f baec f7be
00000050: 31ad 39be d781 1c3f ae54 973f 166f 843e
00000060: 7ff7 2fbe a4b5 0640 b286 cb3f 0bd7 613d
00000070: 66c6 0d3d a88e bcbd 4eb6 1e3e d840 163e
00000080: 4be7 a73d c68a 26be 06f2 66bd e655 98bd
00000090: b0f2 e43e ed25 273f 5663 2f3e 0c07 fc3e
000000a0: 32f3 373d edfb 46bf 468a 4e3e 7635 05bf
000000b0: a41c 01bf 2e05 6940 18e4 e83e e16a f2bf
000000c0: 1a3a 01c0 d9e7 62c0 40d2 f6be 866e 40bf
000000d0: 20fe a63f f926 2740 7fed 26bd 781d 38be
000000e0: 8d80 29bd e837 f5bf 70c7 44c0 c5a6 0ac0
000000f0: beff eabf 6a2c 54c0 869d c0bf a265 0b3e
00000100: 3372 febd 8bcf babd d680 5a3d d69f 36bc
00000110: 1683 9fbc 9ed6 1b3e c0b2 a53c 30c9 dc3d
00000120: ad8c 2b3f 6dcf 163e 839a 09bf df25 ee3e
00000130: d7f6 cebe fc3d e7be 4af5 383f 79bc 57bf
00000140: 3a13 a9be a58a 963f 11cf 9abe 6fe6 463f
00000150: eec3 303e e129 27c0 2fc8 7a3f 92f7 babf
00000160: fda2 a6bf 9642 5d3f 3f43 4abe aa58 4d3e
00000170: 77f0 f23f 23e0 f13e 9a28 393f cb6e 803f
00000180: 32ac 053f 46e7 d43e 37c6 b5be 0ba3 c53c
00000190: 3048 223e 465d 023e 38e5 a1bd 544f 093e
000001a0: c08b 07bc 575a 103e c0ca 9d3d 3b0b 97bd
000001b0: 42ad 603d 3db5 1d3f a2c2 fd3d 28ce 03bf
000001c0: 0beb 21be 4bdb 443b 6fad 03be 33a5 aebe
000001d0: 458f 85be bd32 2e40 8135 7940 0320 2c40
000001e0: 1521 a2bf c548 b6bf 1805 5c3f 4bc8 1140
000001f0: 95e8 3140 68cf ea3f 6d8b 743f 8ae2 e63f
00000200: d886 cb3f 4e74 7dbe ba10 bfbf 36b8 89be
00000210: 8438 993e 892b 773e ca13 2bbf 430a 89bd
00000220: 5b59 033e c6c8 07be b3de f93d 0b6f afbc
00000230: 0cce 17be c004 41bd 7423 22be e0cd e13c
00000240: 8cb3 d2be 4bff cf3b 181c 083c 2191 1e3e
00000250: 726d 153f f3db 513f 40ee 12be d751 15bf
00000260: 883d a6be 295f 0bbf 857c 3b3f 7f08 fd3f
00000270: 519e 9dbe 7bb8 653f 5be2 4b3f 5ed9 0fbe
00000280: 2b5e cdbf 7a26 22c0 d6e4 13c0 5c11 4bbf
00000290: 3430 e93d 35c7 903f 3234 2340 1aa9 4540
000002a0: 1cca 91bf d191 48c0 2e99 eebf 76a1 83bd
000002b0: f8f7 dabd 0000 6bbd 4057 973c 98cf 90bd
000002c0: cb23 283d b69c c43c d336 803d 504e e53d
000002d0: a863 6fbe 25f7 2abf 703d 2dbf 547a f1bd
000002e0: 82da 8cbe 855b 38bf e94e 173f 207e 4b3f
000002f0: 335c ee3e a0ab ccbe 3d7c 1ebe e73c debe
00000300: 96c6 db3d 3f08 ad3e d444 813f bb47 0c40
00000310: 1bfe 0e40 e934 a93e 613a 0c3f 2f25 41bf
00000320: b6fb c1bd 44ac c5be 188c d6be ffe6 83bd
00000330: 0a17 b43f 6265 a63f a32f 8e3f 80d9 923d
00000340: 8b92 dbbc ff9c 273e f389 a4bd 2e05 ebbd
00000350: 3ed0 f9bd 60e3 1dbe 369c d1bd cb42 993d
00000360: f580 27bf af51 0c3e e778 e63e fe3d 3cbf
00000370: 614a bbbe 75bf 6d3f 2ab4 853e afe0 13bf
00000380: b316 79bc 9214 d9bf 7fda a4bf 7a5a 563f
00000390: 109d 3c3f e4e8 44c0 2ac3 52c0 33ac 3140
000003a0: dcfd 0e40 205d 003f 3955 17c0 436d 0bbf
000003b0: 2277 053f 31b5 1cbe 2204 a6bf dd0a 99bf
000003c0: cd4c b93f f72c d23f 2a4e e13d 8b1a e3bd
000003d0: 4b0a 9fbd 166c 0f3c 24bc 103e ebda c6bc
000003e0: ffd2 193e ea5e 1ebe 863f 463d 7f20 1e3e
000003f0: 6b30 c3be 9a03 49bd f5c1 143f e474 233e
-0.25064653 -0.43582684 -0.15874162 0.22404584 -0.2657996 -0.1757599 0.56692743 0.39214358
0.28761908 0.29585928 0.16828303 0.11872505 -0.95882773 -0.42025483 -1.0837507 -1.26914
-0.7036923 -0.94477385 0.6166414 -0.48422796 -0.18132474 0.6113562 1.1822717 0.25866002
-0.17184256 2.1048365 1.5900481 0.05513672 0.034613036 -0.09206897 0.15499231 0.14673173
0.081984125 -0.16263875 -0.056383155 -0.07438259 0.44716406 0.65292245 0.17127737 0.49224126
0.044909663 -0.7772816 0.20169935 -0.520347 -0.5043433 3.6409411 0.45486522 -1.8938867
-2.0191712 -3.5454009 -0.48207283 -0.75168645 1.3046303 2.6117537 -0.040753838 -0.17979991
-0.04138236 -1.9157686 -3.0746727 -2.1664288 -1.8359296 -3.3152108 -1.5048072 0.13612989
-0.124241255 -0.09121617 0.053345524 -0.011146506 -0.019471686 0.15218589 0.020226836 0.10780561
0.6701153 0.14727564 -0.5375139 0.46513268 -0.404227 -0.45164478 0.7224928 -0.8427196
-0.3302248 1.1761061 -0.30236104 0.77695364 0.17262241 -2.611931 0.97961706 -1.4606802
-1.301849 0.8642973 -0.19752215 0.20053354 1.8979634 0.47241315 0.7232758 1.0033811
0.52215874 0.41582698 -0.35502788 0.024125597 0.1584785 0.12730893 -0.07905048 0.13409168
-0.008273065 0.14096962 0.07704687 -0.07375189 0.05485273 0.6160467 0.12390639 -0.51486444
-0.15812318 0.0030037935 -0.12859128 -0.34110412 -0.26085868 2.7218468 3.8938906 2.6894538
-1.2666346 -1.4240957 0.8594527 2.27785 2.7798207 1.8344545 0.95525247 1.8037884
1.5900526 -0.24751398 -1.492698 -0.26898354 0.2992593 0.24137701 -0.6682707 -0.066914104
0.12827055 -0.13260183 0.1220068 -0.021415254 -0.14824694 -0.04712367 -0.15833837 0.02756399
-0.41152608 0.006347572 0.008307479 0.1548505 0.58370125 0.8197624 -0.14348698 -0.58328
-0.3246882 -0.5444208 0.73236877 1.9768218 -0.30784848 0.8973462 0.79642266 -0.14047763
-1.6044363 -2.5335984 -2.310842 -0.79323363 0.11386147 1.1310793 2.5500607 3.0884461
-1.1389804 -3.1339 -1.8640497 -0.064272806 -0.106918275 -0.057373047 0.018474221 -0.07070845
0.04104976 0.024000507 0.06260457 0.111965775 -0.2337786 -0.6678336 -0.6767187 -0.1179091
-0.27510458 -0.7201465 0.5910478 0.79489326 0.46554717 -0.3997469 -0.1547708 -0.4340584
0.10731237 0.33795354 1.009913 2.191878 2.2342594 0.3304818 0.5477658 -0.7544736
-0.09471838 -0.3860799 -0.41903758 -0.064405434 1.4069531 1.299969 1.1108288 0.07170391
-0.026803276 0.16368483 -0.08034124 -0.11475597 -0.12197922 -0.15418768 -0.10234873 0.07483443
-0.6543115 0.13703035 0.45014116 -0.7353209 -0.36580184 0.92870265 0.26114017 -0.57764715
-0.015203166 -1.6959403 -1.287918 0.83731806 0.7367716 -3.0767145 -3.2931619 2.7761352
2.2342443 0.501421 -2.3645766 -0.54463595 0.5213491 -0.15303494 -1.2970011 -1.195644
1.4476563 1.6419972 0.11001237 -0.11089047 -0.07765635 0.008753797 0.1413427 -0.02427431
0.15021895 -0.15465894 0.048400424 0.15442084 -0.38122877 -0.0490757 0.58108455 0.15962559

bias f4 [8]
00000000: 414a edbf c610 b53f e2ef 363e 931e 48bf
00000010: 67da 88bf cc62 eb3e 7851 0840 a9fa 0840
-1.8538285 1.4145744 0.17864946 -0.7817165 -1.0691651 0.45973814 2.1299725 2.140299

weight f4 [29, 512]
00000000: dbef 813e b653 253e f3c9 cfbc f6fd d4be
00000010: dacc eabe 9fde 0fbf c93d 15be 7985 debe
00000020: 11b9 18be 4895 f33e a69e b13b f8a0 75bd
00000030: 280b c3be d066 74bf 999e c2be 6f8d 89be
00000040: d986 14bf ed80 0f3f 1359 1d3f cfd0 253e
00000050: 819b c2be 72b7 4a3f 174c 66bf 980d 08be
00000060: a690 523e 929e 0b3f dccd 78be 92f8 db3e
00000070: cf9e bf3e 2d08 a1be d82c c0be 0bbc 1ebe
00000080: a033 633e 3a4b 083f 387a a53e 84d7 983e
00000090: 58ff f33d b5f7 913e cc55 da3e 0f88 54bd
000000a0: 8ab5 203f 973a b63e e972 933e bd71 0ebe
000000b0: 5ea0 493e a0d2 5abd 87d6 203e 7e32 e43e
000000c0: 854a 003e 7c2f 313c 850a c8be fb5f 59bf
000000d0: 12cc 5fbe 6be1 fb3e d38c 31bf 61ba 403e
000000e0: c24a f2bf 41c2 47be c5be bf3e 4d0a fdbe
000000f0: aea2 42bc b453 703e df54 80bf a8ca b63e
00000100: 9bd6 a4c1 4768 a8c0 3143 e73e 3130 3a3f
00000110: 2725 7e3e b955 af3e 213d e13e f5a2 803e
00000120: 113d b8bd 659c 183f 1120 a83e 1784 c43e
00000130: b1ef 9a3e 415f e03e c6a8 833f 9450 c8bf
00000140: da4d d43f 2f96 323f d5a4 dc3e 66b9 613f
00000150: 8821 343f 71ae 383f ff5d d73f fa26 7f3d
00000160: a2c6 323f e09b 4b3f ce54 483e f71a ed3e
00000170: 6e8a b83e d08b 363f 9eae 6a3f b05c b7bf
00000180: 61f5 483c d027 9a3e f93d 88bd 834f 743d
00000190: fc5a 8f3e ab3c 9bbd ec3b 1e3e a91e d73e
000001a0: 7f1b 97be 5f80 a2be 47f5 543e 8de4 23be
000001b0: 264c 1d3f 0bff b93e 4a83 5e3f c2a9 bf3d
000001c0: 54ed a63f a4fd 793e 919f 443d e9b0 eebe
000001d0: 2212 01be 1ac1 143e 4c43 c0bd aa6d 093d
000001e0: 4b3e e53d f698 51be e2f6 95be 4061 03be
000001f0: 6b62 0c3e 2869 603d fa40 24be f4eb 453e
00000200: 37a1 7dc0 cdfd fbbe 48c0 e5be a9cc 98bd
00000210: daea 60be 64b2 84bd ac2d ffbc afc0 febe
00000220: 844f d13f c5b7 f53d 7777 db3b 045e d2bd
00000230: 7d55 883e b3d4 32bf 28eb c8bf 1925 b2be
00000240: fe60 40bd 7174 1bbc 68f8 27be 82b3 a3be
00000250: fec0 c5be f7a5 e13e 6708 5bbe fded f3be
00000260: 3a8c 483f 851d cbbd 4434 653e 688c 88be
00000270: 1eed ecbe ae1c 4fbf 81da 6b3e 8856 81be
00000280: 7425 e73e c465 023e 15d4 a6be 24d8 9fbd
00000290: 7a06 b1bd 05c4 0d3f c0d1 243f 0b80 b33d
000002a0: 5a13 e2bd bb44 f33c 52a9 9eba 318e 9c3e
000002b0: 55b5 ffbe bcb0 95be 122a 373f e4c2 1d3e
000002c0: 6422 0d3f 0cd5 35be 3c1b 85bd 2f54 5c3d
000002d0: d118 653d f84d 843e 459e 843e 4d05 a83e
000002e0: f23e ef3e c6b4 923e 7eea ad3e a3d6 513f
000002f0: 32bb 0e3f 3fa6 733d e525 eebd 921c 4e3e
00000300: b144 513d d096 b2bf 87d1 bebf 8460 82be
00000310: 3ca8 67bd 549a 813d ee50 e4be 4c03 213e
00000320: d961 6bbe 0ad5 f13e 22ff ee3e 887a 5b3d
00000330: 979f fa3d eb6e 03bf cb29 893f 78b6 6d3f
00000340: 6443 653f d616 cb3e 193d 32bf fd34 5cbf
00000350: 8f47 95be e111 b6bd fcc4 b0bf 2263 9d3e
00000360: 40ee 4d3f d32d c0bf f629 82bf 7dd1 60be
00000370: 5c17 51bf 16f9 8bbf 2586 98bf 4210 f83e
00000380: f35f 633f aa63 b6be 9617 13bf d22f 35bf
00000390: b7ae 03bf 17c7 f83d 1e7f c8be f1f4 45bf
000003a0: 5c70 793f aede 2bbf 6baa 61bf 6606 bebe
000003b0: 6418 b8be 5ee4 e2be 6856 c3bd e32f 8dbf
000003c0: 24d4 a43f 3dd4 ce3e fd00 1e3f 9aba 5fbf
000003d0: 739c 4abf 40af aabf 61f2 e2bf 06de a8bf
000003e0: 1ed0 603d c58a 8ebe 8fbd 60be 079a b0bd
000003f0: 9861 803e ecd0 263e f1e8 363e 940b ca3e
0.25378308 0.16145214 -0.025364852 -0.41600007 -0.45859414 -0.5619907 -0.1457435 -0.43461207
-0.14914347 0.4757483 0.0054205237 -0.059967965 -0.3809445 -0.9546938 -0.38011625 -0.26865718
-0.5801826 0.560561 0.6146404 0.16192935 -0.38009265 0.79186165 -0.89959854 -0.13286436
0.20562991 0.54538834 -0.24297279 0.42963082 0.3742585 -0.3145155 -0.37534213 -0.1550142
0.22187662 0.53239787 0.32319808 0.29851925 0.11913937 0.28509298 0.42643583 -0.051887568
0.62777007 0.35591576 0.28798607 -0.13910575 0.19690081 -0.053423524 0.15706836 0.44569772
0.12528427 0.010814544 -0.39070526 -0.8491208 -0.2185519 0.49195418 -0.69355506 0.18821098
-1.8929064 -0.19507696 0.37450233 -0.4942192 -0.011879606 0.2346943 -1.0025901 0.3570149
-20.604788 -5.262729 0.4516845 0.72729784 0.2481886 0.3424509 0.4399195 0.25124326
-0.089960225 0.5961364 0.32836965 0.38382027 0.30260995 0.43822673 1.028588 -1.564959
1.6586258 0.6976041 0.43094507 0.8817352 0.70363665 0.72141176 1.682556 0.06229303
0.6983434 0.7953472 0.195636 0.46309635 0.36043113 0.71307087 0.91672695 -1.4325161
0.012265534 0.301085 -0.06652445 0.05964614 0.27999103 -0.07579931 0.15452546 0.4201558
-0.29513165 -0.31738564 0.20796691 -0.16005154 0.6144432 0.36327395 0.8691908 0.093585506
1.3041177 0.24413162 0.048003737 -0.46619347 -0.12604573 0.14526787 -0.09387836 0.03355185
0.11193522 -0.20468506 -0.2928992 -0.12830067 0.13709418 0.054787785 -0.16040412 0.1932829
-3.9629648 -0.49217072 -0.4487326 -0.07460911 -0.21964589 -0.06479338 -0.031149708 -0.4975638
1.6352391 0.11997942 0.006697591 -0.10271838 0.26627722 -0.69855803 -1.5696764 -0.34793928
-0.0469675 -0.009488211 -0.16403353 -0.3197289 -0.38623804 0.44071934 -0.21389924 -0.47642508
0.7833897 -0.0991774 0.22383219 -0.2666962 -0.46274656 -0.80903137 0.23032571 -0.2526133
0.45145762 0.12734133 -0.3258368 -0.078048974 -0.086438134 0.5537723 0.64382553 0.08764657
-0.11038847 0.02969586 -0.0012104905 0.30577233 -0.49943033 -0.292364 0.7154857 0.15406376
0.551306 -0.17757052 -0.06499335 0.05379122 0.05593187 0.25840735 0.25902 0.32816544
0.4672771 0.28653544 0.33967966 0.81968135 0.5575439 0.059484717 -0.116283216 0.20128086
0.0510909 -1.3952274 -1.4907693 -0.2546426 -0.056556925 0.06328264 -0.44592994 0.15723914
-0.22986545 0.47232848 0.46679026 0.05358365 0.122374706 -0.5134112 1.0715879 0.9285655
0.89555955 0.3966586 -0.6962448 -0.86018354 -0.29156157 -0.08890129 -1.3810115 0.30739695
0.80441666 -1.5013984 -1.0169055 -0.21954913 -0.8167627 -1.093539 -1.1915938 0.48449904
0.8881828 -0.35622913 -0.57457864 -0.70776093 -0.5143847 0.121473484 -0.39159483 -0.77326876
0.9743707 -0.6713666 -0.8815066 -0.37114257 -0.3595611 -0.44314855 -0.09537965 -1.1030239
1.287724 0.403963 0.6172026 -0.87394106 -0.7914497 -1.3334732 -1.7730218 -1.3192756
0.054885976 -0.27840248 -0.21947311 -0.086231284 0.25074458 0.16290635 0.17862298 0.39461958

bias f4 [29]
00000000: 5c24 d5bd 0f8b 6e3e 3576 7cbe acff 1d3e
00000010: 1307 01be b364 88bd 3a67 f1bd ca96 b93d
00000020: a577 df3e 60d3 0fbe f0b7 ad3e a310 0ebf
00000030: 7aa2 ebbe f941 883e 8276 3ebf 4aff a6be
00000040: 2445 41bd 0730 0c3f 36ea a0be 9653 933e
00000050: a69b b5be 7d41 fd3e bc1e 6c3d cbf0 123f
00000060: d9d4 e3be b885 f03d 89c0 313e bce0 543e
00000070: de43 83be
-0.104073256 0.23295234 -0.24654467 0.15429562 -0.12600355 -0.06659832 -0.11787267 0.09061964
0.4364597 -0.14045477 0.33929396 -0.55494136 -0.46022397 0.26612833 -0.7439958 -0.32616645
-0.04718508 0.54760784 -0.3142869 0.28774709 -0.35470313 0.49464026 0.057646498 0.5739867
-0.44498327 0.11744255 0.17358603 0.20788854 -0.25637716
