workspace-rich/checkpoints_backup/230830/checkpoint_98.33.pth (torch, 64671 bytes, 6 tensors)

weight f4 [4, 1, 3, 3]
0	0x3ef43020	0.47692966
1	0x3e0eceb3	0.13946037
2	0x3fa429aa	1.2825215
3	0x400ee648	2.2328053
4	0x4018e886	2.389192
5	0x40097c9a	2.14823
6	0x3fb3b974	1.4040971
7	0x3fefa8b1	1.8723356
8	0x400374be	2.0540004
9	0x3e17afa8	0.14813101
10	0xbf454b79	-0.7706829
11	0xbf7ce41f	-0.98785585
12	0xbf38d64c	-0.7220199
13	0xbf175217	-0.59109634
14	0xbdd2eb8b	-0.102988325
15	0x3ee88113	0.45410976
16	0x3f8213ff	1.0162352
17	0x3fcf87cc	1.6213317
18	0xbedb895a	-0.42878228
19	0xbf929412	-1.1451437
20	0xbf98a501	-1.1925355
21	0x3faee8be	1.3664777
22	0x3f29e6b3	0.66367644
23	0xbf37c086	-0.7177814
24	0x3f9193ec	1.1373267
25	0x3f0ebbfb	0.55755585
26	0x3f0a7153	0.5407917
27	0xbd8a421b	-0.0675089
28	0xbe4343db	-0.19068854
29	0xbdf754d0	-0.120767236
30	0xbdbb4086	-0.09143166
31	0xbe0693a3	-0.13142256
32	0x3e90a8a2	0.28253657
33	0x3e61fcc8	0.22069085
34	0xbe816848	-0.25274873
35	0xbd911f56	-0.07086055

bias f4 [4]
0	0xc00d804f	-2.2109563
1	0xbc89a4b7	-0.016802175
2	0xbe72b2a5	-0.2370096
3	0xbea76c32	-0.32699734

weight f4 [8, 4, 3, 3]
0	0xbe7e9a21	-0.24863483
1	0xbedd05f7	-0.43168613
2	0xbe1e3961	-0.15451576
3	0x3e633791	0.22189166
4	0xbe87d7e8	-0.2653191
5	0xbe3122e2	-0.17298463
6	0x3f107d39	0.56441075
7	0x3ec7e64e	0.39042896
8	0x3e92fe7f	0.2870979
9	0x3e952ab8	0.29134154
10	0x3e21832c	0.15772694
11	0x3de187ec	0.11012253
12	0xbf75310c	-0.95777965
13	0xbed6a4a3	-0.41922483
14	0xbf8b5b05	-1.0887152
15	0xbfa26612	-1.2687399
16	0xbf34c0d4	-0.7060673
17	0xbf729eac	-0.94773364
18	0x3f198711	0.5997172
19	0xbefb2a84	-0.49055874
20	0xbe3f6f26	-0.18694744
21	0x3f191f9d	0.59813863
22	0x3f961fd1	1.172846
23	0x3e81e1d3	0.25367603
24	0xbe39b27a	-0.1813449
25	0x40060726	2.0941863
26	0x3fca1c0b	1.5789808
27	0x3d61d70b	0.05513672
28	0x3d0dc666	0.034613036
29	0xbdbc8ea8	-0.09206897
30	0x3e1eb64e	0.15499231
31	0x3e1640d8	0.14673173
32	0x3da7e74b	0.081984125
33	0xbe268ac6	-0.16263875
34	0xbd66f206	-0.056383155
35	0xbd9855e6	-0.07438259
36	0x3ee210ac	0.44153345
37	0x3f25c3c5	0.64751846
38	0x3e2cc49e	0.16871879
39	0x3efb60b8	0.49097228
40	0x3d359744	0.04433371
41	0xbf46f66f	-0.7771978
42	0x3e526799	0.20547332
43	0xbf03f10e	-0.51539695
44	0xbefffdef	-0.49998423
45	0x406876a0	3.6322403
46	0x3ee9ee4c	0.4568962
47	0xbff19fe0	-1.8876915
48	0xc000a23a	-2.0099015
49	0xc063a3cb	-3.5568721
50	0xbef76cf7	-0.4832532
51	0xbf3fc773	-0.7491371
52	0x3fa4e4d6	1.2882335
53	0x4026d951	2.607014
54	0xbd0b235b	-0.033969264
55	0xbe321068	-0.17389071
56	0xbd114cc4	-0.0354736
57	0xbff3ed6a	-1.9056828
58	0xc044887c	-3.0708303
59	0xc00b3823	-2.1753013
60	0xbfea0bb8	-1.8284826
61	0xc0540fc0	-3.3134613
62	0xbfc106e8	-1.5080233
63	0x3e0b65a2	0.13612989
64	0xbdfe7233	-0.124241255
65	0xbdbacf8b	-0.09121617
66	0x3d5a80d6	0.053345524
67	0xbc369fd6	-0.011146506
68	0xbc9f8316	-0.019471686
69	0x3e1bd69e	0.15218589
70	0x3ca5b2c0	0.020226836
71	0x3ddcc930	0.10780561
72	0x3f2a5d25	0.6654838
73	0x3e15e9f1	0.14640023
74	0xbf07dfac	-0.5307567
75	0x3eec0bcd	0.46102753
76	0xbecfabbe	-0.40560716
77	0xbee486fc	-0.44634235
78	0x3f37eb90	0.71843815
79	0xbf57506f	-0.84107107
80	0xbea71f06	-0.32640857
81	0x3f963cdf	1.1737326
82	0xbe9e082e	-0.30865616
83	0x3f466306	0.7749485
84	0x3e369289	0.17829336
85	0xc026d1aa	-2.6065469
86	0x3f79bab3	0.97550505
87	0xbfbbc40f	-1.4669207
88	0xbfa7e35c	-1.311626
89	0x3f5b5912	0.85682786
90	0xbe487206	-0.19574746
91	0x3e473efc	0.1945762
92	0x3ff2b43d	1.8961254
93	0x3ef2fa0a	0.4745639
94	0x3f374c8f	0.71601194
95	0x3f7ef324	0.99589753
96	0x3f040dda	0.51583636
97	0x3ed06296	0.40700215
98	0xbeb5c468	-0.3550141
99	0x3cc5a30b	0.024125597
100	0x3e224830	0.1584785
101	0x3e025d46	0.12730893
102	0xbda1e538	-0.07905048
103	0x3e094f54	0.13409168
104	0xbc078bc0	-0.008273065
105	0x3e105a57	0.14096962
106	0x3d9dcac0	0.07704687
107	0xbd970b3b	-0.07375189
108	0x3d67bda3	0.056577336
109	0x3f1d2135	0.61378795
110	0x3df7e277	0.121037416
111	0xbf033b13	-0.51262015
112	0xbe21a6cb	-0.15786283
113	0x3b000f8f	0.0019540524
114	0xbe010c90	-0.12602448
115	0xbeac9910	-0.33710527
116	0xbe8576a9	-0.26067093
117	0x402d9fc6	2.7128768
118	0x4078110f	3.8760412
119	0x402af8fb	2.6714466
120	0xbfa3052c	-1.2735953
121	0xbfb87d69	-1.4413272
122	0x3f5b9734	0.8577759
123	0x40110b23	2.2663047
124	0x4031a175	2.7754796
125	0x3fe9d954	1.8269448
126	0x3f7138c8	0.94227266
127	0x3fe53824	1.7907758
128	0x3fc9dddc	1.5770831
129	0xbe80a0c2	-0.25122648
130	0xbfbf2e47	-1.4935998
131	0xbe88b8f6	-0.26703614
132	0x3e99846b	0.2998384
133	0x3e79084a	0.24319568
134	0xbf28cdd2	-0.65939057
135	0xbd890a43	-0.066914104
136	0x3e03595b	0.12827055
137	0xbe07c8c6	-0.13260183
138	0x3df9deb3	0.1220068
139	0xbcaf6f0b	-0.021415254
140	0xbe17ce0c	-0.14824694
141	0xbd4104c0	-0.04712367
142	0xbe222374	-0.15833837
143	0x3ce1cde0	0.02756399
144	0xbed16fdd	-0.40905657
145	0x3b6d935d	0.0036251165
146	0x3bcdead3	0.0062840967
147	0x3e1cc09b	0.15307848
148	0x3f13b1d3	0.57693213
149	0x3f50ce4d	0.8156479
150	0xbe0f608a	-0.1400167
151	0xbf151d8c	-0.5824821
152	0xbea5597e	-0.3229484
153	0xbf0cb89e	-0.54969203
154	0x3f3918ea	0.7230364
155	0x3ffc81cf	1.9727114
156	0xbe9db497	-0.30801842
157	0x3f647547	0.8924145
158	0x3f497a48	0.7870221
159	0xbe069e9d	-0.13146444
160	0xbfcbd0a3	-1.5923046
161	0xc0212f3a	-2.5185075
162	0xc013b21d	-2.3077462
163	0xbf4bf192	-0.7966548
164	0x3df1256f	0.11774718
165	0x3f90b3ca	1.1304867
166	0x4022d0a4	2.5439844
167	0x40452aa9	3.0807288
168	0xbf911f0c	-1.13376
169	0xc047cb33	-3.1217773
170	0xbfed73a0	-1.8550911
171	0xbd83a176	-0.064272806
172	0xbddaf7f8	-0.106918275
173	0xbd6b0000	-0.057373047
174	0x3c975740	0.018474221
175	0xbd90cf98	-0.07070845
176	0x3d2823cb	0.04104976
177	0x3cc49cb6	0.024000507
178	0x3d8036d3	0.06260457
179	0x3de54e50	0.111965775
180	0xbe6be5a1	-0.23036815
181	0xbf2a6c9f	-0.6657199
182	0xbf2c5cd6	-0.67329156
183	0xbdef166b	-0.11674198
184	0xbe8d46b0	-0.27592993
185	0xbf38ca59	-0.7218376
186	0x3f163597	0.5867552
187	0x3f49cb85	0.7882617
188	0x3eebb12a	0.46033603
189	0xbece66b5	-0.40312734
190	0xbe202404	-0.15638739
191	0xbedd84a7	-0.43265268
192	0x3dc953ff	0.09830474
193	0x3ea95e9a	0.33079988
194	0x3f7f8953	0.99818915
195	0x400bb2d4	2.1827898
196	0x400e3827	2.2221773
197	0x3ea41d3f	0.32053563
198	0x3f0c36f8	0.54771376
199	0xbf419eba	-0.7563282
200	0xbdcbcaf4	-0.099508196
201	0xbec9333c	-0.392969
202	0xbed6fc9d	-0.41989604
203	0xbd8b25fd	-0.06794355
204	0x3fb37b4e	1.4022005
205	0x3fa62b5d	1.2981983
206	0x3f8e49cb	1.111627
207	0x3d92d980	0.07170391
208	0xbcdb928b	-0.026803276
209	0x3e279cff	0.16368483
210	0xbda489f3	-0.08034124
211	0xbdeb052e	-0.11475597
212	0xbdf9d03e	-0.12197922
213	0xbe1de360	-0.15418768
214	0xbdd19c36	-0.10234873
215	0x3d9942cb	0.07483443
216	0xbf25f9ab	-0.6483409
217	0x3e0e10e4	0.13873631
218	0x3ee69538	0.4503572
219	0xbf3bb0bb	-0.73316544
220	0xbeb9d8fb	-0.36298355
221	0x3f6dbc2e	0.92865264
222	0x3e84df91	0.25951818
223	0xbf13c5fe	-0.5772399
224	0xbc8910da	-0.016731668
225	0xbfd9396e	-1.6970651
226	0xbfa4b2b7	-1.286704
227	0x3f570e8d	0.8400658
228	0x3f396dad	0.72432977
229	0xc04498c5	-3.0718243
230	0xc051f994	-3.280858
231	0x40317d67	2.773279
232	0x400ef585	2.2337353
233	0x3efdac3e	0.49545473
234	0xc0169ca3	-2.3533103
235	0xbf084c2b	-0.53241223
236	0x3f0660ca	0.5249144
237	0xbe271e8f	-0.16320251
238	0xbfa6d3f4	-1.3033433
239	0xbf984f50	-1.1899204
240	0x3fb8b76c	1.4430976
241	0x3fd19aa2	1.6375315
242	0x3de5438a	0.11194523
243	0xbde31a8b	-0.11089047
244	0xbd9f0a4b	-0.07765635
245	0x3c0f6c16	0.008753797
246	0x3e10bc24	0.1413427
247	0xbcc6daeb	-0.02427431
248	0x3e19d2ff	0.15021895
249	0xbe1e5eea	-0.15465894
250	0x3d463f86	0.048400424
251	0x3e1e207f	0.15442084
252	0xbec2b593	-0.38029155
253	0xbd5410b8	-0.051773757
254	0x3f13bd7a	0.57710993
255	0x3e22ccf0	0.1589849

bias f4 [8]
0	0xbfec52cd	-1.8462769
1	0x3fb2956d	1.3951851
2	0x3e302c00	0.17204285
3	0xbf47c026	-0.7802757
4	0xbf8741e9	-1.0566989
5	0x3ee9599c	0.4557618
6	0x4007ef03	2.123963
7	0x40080ce6	2.1257873

weight f4 [29, 512]
0	0x3e8012c5	0.2501432
1	0x3e204bb6	0.15653881
2	0xbcec4eea	-0.028846223
3	0xbed6e4b2	-0.41971356
4	0xbeecc081	-0.4624062
5	0xbf11af56	-0.56908166
6	0xbe1d246f	-0.1534593
7	0xbee00948	-0.4375708
8	0xbe187ae2	-0.14890626
9	0x3ef1c65b	0.47221646
10	0x3ba1b235	0.004934574
11	0xbd7f70df	-0.0623635
12	0xbec6b37f	-0.3880882
13	0xbf7457e6	-0.9544662
14	0xbec58aca	-0.3858245
15	0xbe8a7af2	-0.27046925
16	0xbf15031a	-0.5820786
17	0x3f0ee28d	0.5581444
18	0x3f1cba29	0.6122156
19	0x3e221a2f	0.15830301
20	0xbec9422c	-0.39308298
21	0x3f4a3d24	0.78999543
22	0xbf69013b	-0.910175
23	0xbe068035	-0.13134845
24	0x3e5235c1	0.20528318
25	0x3f096b5a	0.5367943
26	0xbe7a4d65	-0.24443586
27	0x3edb0b7e	0.42782205
28	0x3eb7a4f2	0.3586803
29	0xbe9dde0d	-0.30833474
30	0xbec59d13	-0.385964
31	0xbe1dca7b	-0.15409271
32	0x3e639ff1	0.22228982
33	0x3f0858d1	0.53260523
34	0x3ea5a447	0.32351896
35	0x3e9c3ce7	0.30515215
36	0x3dea97f5	0.11454765
37	0x3e949173	0.2901722
38	0x3ed9220f	0.42408797
39	0xbd3f8e08	-0.04676631
40	0x3f20f746	0.6287731
41	0x3eb7948e	0.35855526
42	0x3e940261	0.28908065
43	0xbe0cc5b2	-0.1374729
44	0x3e4b9fe9	0.1988522
45	0xbd734ef3	-0.059401464
46	0x3e27484c	0.16336173
47	0x3ee4d29d	0.44691935
48	0x3e017aa6	0.12644443
49	0x3c3705dd	0.0111708315
50	0xbec85db6	-0.39133996
51	0xbf584326	-0.8447746
52	0xbe5b3207	-0.21405803
53	0x3efaabb5	0.48959127
54	0xbf304251	-0.6885119
55	0x3e4214aa	0.18953195
56	0xbff10868	-1.883069
57	0xbe448a8f	-0.19193481
58	0x3ebbb0fe	0.36658472
59	0xbefe091a	-0.4961632
60	0xbbc2548a	-0.005930488
61	0x3e713b56	0.23557791
62	0xbf7f1bcc	-0.9965179
63	0x3eb6e8b7	0.35724422
64	0xc1a43f51	-20.530916
65	0xc0a832c7	-5.2561984
66	0x3eeaabd5	0.45834222
67	0x3f3bdd41	0.7338448
68	0x3e8026a4	0.2502948
69	0x3eb0aa07	0.3450472
70	0x3ee8d8a6	0.4547779
71	0x3e7f4696	0.2492927
72	0xbd9e46d5	-0.07728354
73	0x3f172926	0.5904716
74	0x3eaa064c	0.3320793
75	0x3ec8876a	0.39165813
76	0x3e9a027a	0.30080014
77	0x3edc3449	0.4300864
78	0x3f83e043	1.0302814
79	0xbfc76161	-1.5576593
80	0x3fd1e82c	1.6398978
81	0x3f306c86	0.68915594
82	0x3ede53b3	0.43423232
83	0x3f62e5b2	0.8863174
84	0x3f362ff7	0.7116694
85	0x3f3b7f76	0.73241365
86	0x3fd73fa2	1.6816294
87	0x3d488b8a	0.0489612
88	0x3f3557b8	0.70836973
89	0x3f4c5220	0.7981281
90	0x3e4df686	0.20113572
91	0x3eed28e5	0.46320263
92	0x3eb8d8ea	0.36102992
93	0x3f346336	0.70463884
94	0x3f6d2e7e	0.92649066
95	0xbfb6964a	-1.4264615
96	0x3bdeb2d4	0.0067962203
97	0x3e9cccbb	0.30624947
98	0xbd7eac41	-0.062175993
99	0x3d601d3f	0.05471539
100	0x3e868d5a	0.26279718
101	0xbd95dbd9	-0.07317323
102	0x3e1c7104	0.15277487
103	0x3ed044a1	0.4067736
104	0xbe975fd0	-0.29565287
105	0xbea3da3f	-0.32002446
106	0x3e650791	0.22366168
107	0xbe2551cc	-0.16144484
108	0x3f1c94a4	0.6116431
109	0x3ec1d822	0.3786021
110	0x3f612b57	0.87956756
111	0x3dbc4d14	0.09194389
112	0x3fa55936	1.291785
113	0x3e773f39	0.24145211
114	0x3d45c8f6	0.048287354
115	0xbeefc452	-0.46829468
116	0xbdf5cf53	-0.120024346
117	0x3e16a681	0.14711954
118	0xbddffa5e	-0.109364256
119	0x3d0158c9	0.031578813
120	0x3de3db97	0.11125868
121	0xbe51139c	-0.20417637
122	0xbe95f0dd	-0.29285327
123	0xbe00fee0	-0.12597227
124	0x3e0dc586	0.1384488
125	0x3d6b884c	0.05750303
126	0xbe1cb3de	-0.15302989
127	0x3e468e3f	0.193902
128	0xc07caa13	-3.9478805
129	0xbef44412	-0.47708184
130	0xbee5acfb	-0.44858536
131	0xbd92ab68	-0.071615994
132	0xbe5d8539	-0.21632852
133	0xbd826caf	-0.06368386
134	0xbd104827	-0.03522506
135	0xbeff15a0	-0.49821186
136	0x3fce2e88	1.610795
137	0x3e01a424	0.12660271
138	0x3bbb3eb3	0.0057142614
139	0xbdcaefcd	-0.099090196
140	0x3e878429	0.26468018
141	0xbf333388	-0.70000505
142	0xbfcc4d72	-1.5961134
143	0xbeb1b9ff	-0.34712216
144	0xbd469789	-0.04848436
145	0xbc5b188c	-0.013372552
146	0xbe24a2f8	-0.16077793
147	0xbea121c1	-0.31471065
148	0xbec782bd	-0.38966933
149	0x3eddf087	0.4334757
150	0xbe63fc85	-0.22264297
151	0xbef3880e	-0.4756474
152	0x3f44473e	0.76671207
153	0xbdcc520e	-0.09976588
154	0x3e6431fe	0.22284696
155	0xbe87fd17	-0.2656028
156	0xbef2eeea	-0.47447902
157	0xbf5006d3	-0.8126041
158	0x3e691506	0.22761926
159	0xbe809692	-0.25114876
160	0x3ee6197b	0.44941315
161	0x3df74ffd	0.120758034
162	0xbea41903	-0.32050332
163	0xbda2c61d	-0.07947943
164	0xbdd1c6a7	-0.10242968
165	0x3f0dcff6	0.5539545
166	0x3f21dc13	0.6322643
167	0x3db12570	0.08649719
168	0xbdcdf748	-0.10056931
169	0x3d15c8f4	0.036568597
170	0xbb42baf8	-0.0029713493
171	0x3e9841e0	0.2973776
172	0xbf00e25f	-0.50345415
173	0xbe9178ea	-0.28412563
174	0x3f3872c8	0.7205014
175	0x3e22bdd0	0.1589272
176	0x3f09bacc	0.53800654
177	0xbe26d590	-0.16292405
178	0xbd8fcb6a	-0.0702122
179	0x3d2755dd	0.04085337
180	0x3d82f4a6	0.06394319
181	0x3e881fe5	0.26586834
182	0x3e7fbfe5	0.24975546
183	0x3ea937a5	0.33050266
184	0x3eef3a08	0.46723962
185	0x3e955e4f	0.29173514
186	0x3eabf4fa	0.3358534
187	0x3f4ec6a6	0.80771863
188	0x3f10222d	0.5630215
189	0x3d80ae77	0.062832765
190	0xbe005e05	-0.12535866
191	0x3e4ef49e	0.20210502
192	0x3d5b7af6	0.05358406
193	0xbfb2478a	-1.3928082
194	0xbfbe8569	-1.4884464
195	0xbe8294a2	-0.25504023
196	0xbd6cf2b4	-0.057848647
197	0x3d7d18d2	0.06179125
198	0xbee4a942	-0.44660383
199	0x3e1ca838	0.15298545
200	0xbe69a2c2	-0.22815993
201	0x3ef1f2b5	0.47255483
202	0x3eef243d	0.46707335
203	0x3d41ee99	0.047346685
204	0x3de40331	0.11133421
205	0xbf056528	-0.5210748
206	0x3f8814f0	1.063139
207	0x3f6dea95	0.9293607
208	0x3f641fdf	0.8911113
209	0x3ed47bc1	0.41500667
210	0xbf30e3c3	-0.69097537
211	0xbf597c54	-0.84955335
212	0xbe9136b7	-0.28362057
213	0xbd9ad179	-0.07559485
214	0xbfad0311	-1.3516561
215	0x3e9ac14d	0.30225602
216	0x3f4d0c96	0.8009733
217	0xbfbcfd58	-1.4764814
218	0xbf832ef7	-1.0248708
219	0xbe5ab7c1	-0.21359159
220	0xbf50a651	-0.8150378
221	0xbf8b1bae	-1.0867822
222	0xbf96dead	-1.1786705
223	0x3ef07136	0.46961373
224	0x3f61d7f3	0.8822014
225	0xbeb54184	-0.35401547
226	0xbf116eda	-0.5680977
227	0xbf362e0b	-0.71164006
228	0xbf03b990	-0.5145502
229	0x3df395bd	0.11893795
230	0xbec51198	-0.38489985
231	0xbf439d82	-0.7641221
232	0x3f79d57f	0.97591394
233	0xbf26f27f	-0.6521377
234	0xbf5f362b	-0.8719203
235	0xbebcb231	-0.368547
236	0xbebd8d71	-0.37021974
237	0xbee1fbec	-0.44137514
238	0xbdb43e3e	-0.08800934
239	0xbf8ccedf	-1.1000632
240	0x3fa4bd73	1.2870315
241	0x3ec4c3de	0.38430685
242	0x3f1bd735	0.60875255
243	0xbf611877	-0.87927955
244	0xbf4d1566	-0.80110776
245	0xbfa9e911	-1.3274251
246	0xbfe312b4	-1.7740083
247	0xbfab16f2	-1.3366377
248	0x3d628aac	0.05530803
249	0xbe8cddab	-0.2751287
250	0xbe5c0400	-0.21485901
251	0xbda97166	-0.08273582
252	0x3e80d519	0.2516258
253	0x3e2decdc	0.16984886
254	0x3e3943b3	0.18092231
255	0x3ec96f60	0.39342785

bias f4 [29]
0	0xbdd4e55d	-0.1039531
1	0x3e6d481d	0.2317204
2	0xbe7bf879	-0.24606504
3	0x3e1e7c5c	0.15477127
4	0xbdff9d7c	-0.1248121
5	0xbd83eb01	-0.06441308
6	0xbdedcbff	-0.11611175
7	0x3db95f78	0.09051412
8	0x3ededd09	0.4352801
9	0xbe0cc0db	-0.13745444
10	0x3eac9918	0.3371055
11	0xbf0d70ea	-0.5525042
12	0xbee8b699	-0.4545181
13	0x3e86eac5	0.2635099
14	0xbf3df44d	-0.742009
15	0xbea62403	-0.3244935
16	0xbd40ea1b	-0.04709826
17	0x3f0bd27e	0.5461806
18	0xbe9f93b2	-0.3116737
19	0x3e92b018	0.28649974
20	0xbeb469b1	-0.35236886
21	0x3efbdebe	0.49193376
22	0x3d69f6bf	0.05712008
23	0x3f124cd1	0.5714846
24	0xbee2f7f1	-0.4432979
25	0x3df2f563	0.1186321
26	0x3e2f9cc5	0.17149647
27	0x3e5353ee	0.20637485
28	0xbe81e857	-0.25372574
