workspace-rich/checkpoints_backup/230830/checkpoint_98.43.pth (torch, 64671 bytes, 6 tensors)

weight f4 [4, 1, 3, 3]
00000000: 1926 f93e d41e 183e f127 a53f 4e96 0f40
00000010: 6c9d 1940 d814 0a40 2796 b43f 9d7f f03f
00000020: e2ed 0340 aa13 153e decc 45bf efb0 7dbf
00000030: 4dda 38bf 1551 17bf dfe7 d2bd 8c43 ea3e
00000040: 68c4 823f 2511 d03f 3972 dbbe b6dc 92bf
00000050: 4f09 99bf 243f af3f 1014 2a3f 2b47 38bf
00000060: b1dd 913f 0826 0f3f 2fdd 0a3f 1b42 8abd
00000070: db43 43be d054 f7bd 8640 bbbd a393 06be
00000080: a2a8 903e c8fc 613e 4868 81be 561f 91bd
0.4866188 0.1485551 1.2902814 2.2435489 2.4002333 2.1575222 1.4108323 1.8788944
2.0613942 0.14558282 -0.7726573 -0.99098104 -0.722081 -0.59108096 -0.10298132 0.4575466
1.0216188 1.6255232 -0.42860582 -1.1473606 -1.1955966 1.3691144 0.6643686 -0.71983594
1.139578 0.55917406 0.5424375 -0.0675089 -0.19068854 -0.120767236 -0.09143166 -0.13142256
0.28253657 0.22069085 -0.25274873 -0.07086055

bias f4 [4]
00000000: 3fe2 0dc0 7945 7ebc 4b10 74be 326c a7be
-2.216934 -0.015519493 -0.2383434 -0.32699734

weight f4 [8, 4, 3, 3]
00000000: 31bb 7fbe 7619 debe c9b0 20be 4c17 643e
00000010: dc1f 88be b263 33be a0ab 103f 1f18 c83e
00000020: 57b8 923e 0218 963e 07ac 263e 3997 e93d
00000030: d366 75bf 80d1 d6be 4309 8bbf c87f a2bf
00000040: 2b62 34bf 7520 72bf 4c99 1b3f b570 f9be
00000050: 0564 3dbe 88c1 1a3f a8c9 963f 069c 823e
00000060: 8a72 35be 0462 0640 40b2 ca3f 0bd7 613d
00000070: 66c6 0d3d a88e bcbd 4eb6 1e3e d840 163e
00000080: 4be7 a73d c68a 26be 06f2 66bd e655 98bd
00000090: a3b9 e33e d77c 263f d011 2e3e bbae fb3e
000000a0: ad3c 363d 4b0d 47bf c739 503e 0f98 04bf
000000b0: 82b5 00bf 80a0 6840 3a6a e83e 4320 f2bf
000000c0: eb00 01c0 ab25 63c0 79fb f6be 3d39 40bf
000000d0: df22 a63f 4c13 2740 0e51 1bbd 8d8f 35be
000000e0: 0d29 20bd 51a7 f4bf 64a0 44c0 66ee 0ac0
000000f0: a39d eabf 8e09 54c0 5399 c0bf a265 0b3e
00000100: 3372 febd 8bcf babd d680 5a3d d69f 36bc
00000110: 1683 9fbc 9ed6 1b3e c0b2 a53c 30c9 dc3d
00000120: 4fb2 2a3f 2475 153e 1403 09bf 3791 ec3e
00000130: 9ba9 cfbe d254 e6be 4874 383f bf7c 57bf
00000140: ae3c a8be f855 963f 3954 9cbe ec92 463f
00000150: f305 333e 20fe 26c0 f064 7a3f c856 bbbf
00000160: 874b a7bf a042 5c3f 48f4 49be 61eb 493e
00000170: 58cf f23f fc3d f23e b02a 383f f300 803f
00000180: eeed 043f 4893 d23e 3fea b5be 0ba3 c53c
00000190: 3048 223e 465d 023e 38e5 a1bd 544f 093e
000001a0: c08b 07bc 575a 103e c0ca 9d3d 3b0b 97bd
000001b0: 01b8 683d 36b5 1d3f f68d fd3d 8c46 03bf
000001c0: a1f8 20be 18bb 713b dd75 02be fe9c adbe
000001d0: 312d 85be 5bee 2d40 e09e 7840 3d93 2b40
000001e0: dda2 a2bf 286c b7bf 7dae 5b3f 2867 1140
000001f0: 84c9 3140 4359 ea3f 47f9 723f ff11 e63f
00000200: 4798 ca3f e157 7fbe a32a bfbf ad1b 8abe
00000210: 3033 993e 1958 773e 9353 2abf 430a 89bd
00000220: 5b59 033e c6c8 07be b3de f93d 0b6f afbc
00000230: 0cce 17be c004 41bd 7423 22be e0cd e13c
00000240: e634 d2be 0119 a83b 4ecc f23b 5737 1d3e
00000250: d19c 143f f154 513f 90ab 11be 4231 15bf
00000260: 6be7 a5be 902a 0cbf bb52 3a3f a8c4 fc3f
00000270: 248c 9dbe 6828 653f d0a8 4a3f 9800 0bbe
00000280: 789b ccbf 6dab 21c0 39ce 13c0 a881 4bbf
00000290: bb27 ee3d 56bb 903f 6302 2340 0769 4540
000002a0: a374 91bf a130 48c0 2508 eebf 76a1 83bd
000002b0: f8f7 dabd 0000 6bbd 4057 973c 98cf 90bd
000002c0: cb23 283d b69c c43c d336 803d 504e e53d
000002d0: 79ea 6dbe 8bba 2abf 23d0 2cbf 5270 f0bd
000002e0: 09f8 8cbe 8b7c 38bf 72b7 163f 2aa5 4a3f
000002f0: a411 ed3e be5f cdbe 2e1a 1fbe 7c87 ddbe
00000300: eaf1 d33d 8788 ab3e bf9c 803f e6f3 0b40
00000310: fc8e 0e40 5655 a63e 1824 0c3f 3e4f 41bf
00000320: e85b c7bd 0251 c7be 0070 d6be d8d7 86bd
00000330: 5ab5 b33f 602f a63f 871f 8e3f 80d9 923d
00000340: 8b92 dbbc ff9c 273e f389 a4bd 2e05 ebbd
00000350: 3ed0 f9bd 60e3 1dbe 369c d1bd cb42 993d
00000360: e8b0 26bf f648 0d3e 19c3 e63e cbb5 3bbf
00000370: 6d01 babe 34e6 6d3f 71e0 853e 0d87 13bf
00000380: d29a 76bc 3d4e d9bf fce7 a4bf 8e8d 563f
00000390: 6d5c 3b3f 29ad 44c0 9a5e 52c0 d39b 3140
000003a0: 0efa 0e40 3930 ff3e 0dfa 16c0 f42b 0abf
000003b0: 4cca 053f 73a8 20be e833 a6bf f7a8 98bf
000003c0: 4c18 b93f c0fa d13f 4c09 e43d 8b1a e3bd
000003d0: 4b0a 9fbd 166c 0f3c 24bc 103e ebda c6bc
000003e0: ffd2 193e ea5e 1ebe 863f 463d 7f20 1e3e
000003f0: 660d c3be 57a6 51bd d60d 143f c7be 223e
-0.24973752 -0.433788 -0.15692438 0.22274512 -0.26586807 -0.175185 0.5651188 0.39080903
0.28656265 0.29315192 0.1627656 0.114057966 -0.9586002 -0.4195671 -1.0862201 -1.2695246
-0.7046229 -0.94580775 0.6078079 -0.487188 -0.18495186 0.60451555 1.1780291 0.2550966
-0.17719474 2.0997324 1.5835648 0.05513672 0.034613036 -0.09206897 0.15499231 0.14673173
0.081984125 -0.16263875 -0.056383155 -0.07438259 0.44477567 0.6503424 0.16998982 0.49156746
0.04449146 -0.7775466 0.2033454 -0.51794523 -0.5027696 3.6347961 0.45393544 -1.8916095
-2.015681 -3.549174 -0.48238733 -0.7508734 1.2979392 2.6105528 -0.037919097 -0.17730542
-0.03910165 -1.9113561 -3.0722895 -2.1708007 -1.8329357 -3.3130832 -1.5046791 0.13612989
-0.124241255 -0.09121617 0.053345524 -0.011146506 -0.019471686 0.15218589 0.020226836 0.10780561
0.6667833 0.14595467 -0.5352032 0.4620454 -0.40559086 -0.44986588 0.7205243 -0.8417472
-0.32858795 1.1744986 -0.30533007 0.77567935 0.17482738 -2.6092606 0.9781027 -1.4635859
-1.3069924 0.8603916 -0.19722092 0.19718696 1.8969526 0.47312915 0.71940136 1.000029
0.5192555 0.41127992 -0.35530278 0.024125597 0.1584785 0.12730893 -0.07905048 0.13409168
-0.008273065 0.14096962 0.07704687 -0.07375189 0.056816105 0.6160463 0.123805925 -0.5127952
-0.15719844 0.0036885198 -0.12740274 -0.33908838 -0.2601104 2.717673 3.884697 2.6808617
-1.2705952 -1.4329882 0.85813123 2.2719212 2.7779245 1.830849 0.9491162 1.7974242
1.5827721 -0.24935867 -1.4934887 -0.2697424 0.29921865 0.241547 -0.66533774 -0.066914104
0.12827055 -0.13260183 0.1220068 -0.021415254 -0.14824694 -0.04712367 -0.15833837 0.02756399
-0.41055983 0.005129934 0.007409609 0.15353142 0.5805178 0.81770235 -0.14225602 -0.58278286
-0.3240312 -0.54752445 0.72782487 1.9747515 -0.3077098 0.8951478 0.7916384 -0.13574445
-1.5984945 -2.526088 -2.3094618 -0.79494715 0.11628672 1.130717 2.5470207 3.0845354
-1.136372 -3.127968 -1.8596236 -0.064272806 -0.106918275 -0.057373047 0.018474221 -0.07070845
0.04104976 0.024000507 0.06260457 0.111965775 -0.23233975 -0.6669089 -0.6750509 -0.117401734
-0.27532986 -0.7206504 0.58873665 0.7915827 0.4630252 -0.40112108 -0.1553733 -0.4326743
0.10348876 0.335026 1.0047835 2.1867614 2.227477 0.3248698 0.54742575 -0.7551154
-0.097343266 -0.38928992 -0.41882324 -0.06584138 1.4039719 1.2983208 1.1103371 0.07170391
-0.026803276 0.16368483 -0.08034124 -0.11475597 -0.12197922 -0.15418768 -0.10234873 0.07483443
-0.6511369 0.13797364 0.45070723 -0.7332427 -0.36329213 0.9292939 0.26147798 -0.57627946
-0.0150515605 -1.6977001 -1.2883296 0.83809745 0.73187906 -3.0730689 -3.287024 2.7751358
2.2340121 0.49841478 -2.359012 -0.5397332 0.52261806 -0.15689258 -1.298459 -1.1926564
1.446054 1.6404648 0.11134586 -0.11089047 -0.07765635 0.008753797 0.1413427 -0.02427431
0.15021895 -0.15465894 0.048400424 0.15442084 -0.3809616 -0.051184025 0.5783361 0.15893088

bias f4 [8]
00000000: 6acd ecbf 6df5 b33f 37b7 333e 047f 47bf
00000010: e61e 88bf d560 ea3e 9e1c 0840 e879 0840
-1.8500187 1.4059273 0.1755036 -0.77928185 -1.063443 0.45777002 2.1267467 2.1324406

weight f4 [29, 512]
00000000: b9fc 803e fdc1 223e 180d ddbc 20bf d5be
00000010: 31a2 ebbe 33e1 10bf 4158 1abe 2120 dfbe
00000020: 064e 19be 2c74 f23e 773c 9f3b 101c 7bbd
00000030: 3b13 c4be 279a 74bf 1fb3 c4be 5ff7 89be
00000040: c1e7 14bf 3afc 0e3f dcd9 1c3f 657e 233e
00000050: b43e c6be f016 4a3f 7a97 67bf 5e77 07be
00000060: 463a 523e a76a 0a3f 62ae 79be 23b6 db3e
00000070: 8f28 bc3e 3c2c a0be 0daf c3be 9377 1ebe
00000080: 5587 633e 7342 083f c059 a53e 68a7 9a3e
00000090: e86c f23d d5cc 923e 6549 d93e 3869 4bbd
000000a0: 3db3 203f 9fa2 b63e ab8a 933e 34e5 0dbe
000000b0: 724e 4b3e d823 63bd da9c 243e d978 e43e
000000c0: c63b 003e 8e9d 283c 0e6a c8be 6bf5 58bf
000000d0: 0ada 5dbe 5984 fb3e 0afe 30bf f51b 413e
000000e0: 4ece f1bf c199 47be 6ba7 bd3e 4c01 febe
000000f0: 7612 19bc 813a 703e 0426 80bf baac b63e
00000100: a38e a4c1 df50 a8c0 5ae9 e83e 729b 3a3f
00000110: 41b9 7e3e afd6 af3e 0d86 e53e bde3 803e
00000120: 3597 a7bd 33fb 173f 2e9b a93e d5e9 c63e
00000130: e39a 9b3e 8f6b df3e fabb 833f 2fff c7bf
00000140: fc08 d43f e3a2 313f 4035 dd3e 269c 623f
00000150: 381a 363f dff0 393f ee0c d73f 0996 613d
00000160: f182 343f 5760 4b3f 3b52 4a3e ab74 ed3e
00000170: d5db b83e 9d84 353f 59d9 6b3f a6d9 b6bf
00000180: 2955 153c e838 9b3e 2f21 83bd 596c 623d
00000190: 0991 8a3e d0cb 96bd 36fa 1c3e 0d42 d33e
000001a0: 4bfd 96be 0c41 a3be 2c9b 5c3e 352b 26be
000001b0: ad96 1c3f 5255 bc3e 7de9 5f3f 851d be3d
000001c0: be23 a63f 66b3 793e 02a1 453d 4236 f0be
000001d0: 1b8d fcbd 23ab 163e 6854 c9bd 2d4e 063d
000001e0: 614d e43d a673 51be b00f 96be ea1f 02be
000001f0: 6684 0d3e 2e17 683d 33c0 20be 05fc 453e
00000200: 5a24 7dc0 67ce f7be 8e14 e6be aa33 97bd
00000210: 2f9c 5fbe 68c7 83bd c901 f9bc 1748 febe
00000220: acd4 cf3f 0ab8 fa3d 1b35 ca3b 40b8 d1bd
00000230: b86c 893e dd3f 32bf 4c83 cabf eee1 b1be
00000240: 8717 2abd b7d1 32bc 1e0b 25be 8fd8 a2be
00000250: 452e c5be 5713 df3e c700 61be 8dbb f3be
00000260: 12ac 473f 496c cbbd 7bd5 653e 2172 88be
00000270: 50df eebe 1118 50bf 326a 6a3e ddf3 80be
00000280: fbb0 e63e dc17 ff3d e335 a5be bc9a a2bd
00000290: 5de7 bfbd c2c1 0d3f 57b7 233f aac4 b13d
000002a0: 0723 d5bd 116b 083d 84db 14bb abe0 993e
000002b0: 7c88 00bf fb39 94be a555 383f 1d32 203e
000002c0: 42cb 0b3f e95b 2dbe 7316 89bd f2d7 3e3d
000002d0: 8800 723d 50f0 853e a872 833e d398 a83e
000002e0: 4346 ef3e 2b98 933e 363c ad3e 3825 503f
000002f0: 2439 0f3f a868 793d 33d0 fabd 224e 4e3e
00000300: 6936 563d d478 b2bf 59b5 bebf 82ba 82be
00000310: 80c3 6abd 07f3 803d e377 e3be 048c 203e
00000320: a1a5 6abe 94df f13e a24c ef3e 5dd1 4e3d
00000330: e7f4 ec3d fea8 04bf eb93 883f 269a 6d3f
00000340: 54a4 643f 7057 cf3e d0c5 31bf 66c7 5abf
00000350: 9e79 93be e4ce a9bd edf4 aebf 12ae 9b3e
00000360: 578e 4d3f bc96 bebf 6cf0 82bf 1dee 5cbe
00000370: 8743 50bf 753a 8bbf 96c7 97bf 8900 f43e
00000380: 5794 623f 71b2 b5be fa5e 12bf 5f30 35bf
00000390: c65d 03bf 0648 f53d 7aac c6be 04c7 44bf
000003a0: 4693 793f 3fa4 29bf b343 60bf baee bcbe
000003b0: 274d babe bc63 e3be 00f8 bcbd 6d08 8dbf
000003c0: fbbc a43f d478 ca3e 74dc 1c3f 17ea 5fbf
000003d0: c5ad 4bbf 9c4b aabf f151 e3bf f2fb a9bf
000003e0: 84fb 603d d5e6 8dbe 6b28 5ebe 58b1 acbd
000003f0: 1b1b 803e 7186 293e 5d8c 373e 2d97 c93e
0.25192812 0.15894313 -0.026983783 -0.4174738 -0.4602218 -0.56593627 -0.15072729 -0.435792
-0.1497117 0.47354257 0.004859503 -0.06130606 -0.38295922 -0.9554772 -0.3841791 -0.26946542
-0.5816613 0.5585362 0.6126993 0.15966184 -0.38719714 0.7894125 -0.9046551 -0.13229129
0.20530042 0.5406899 -0.24382928 0.42912397 0.36749694 -0.31283748 -0.3821949 -0.15475301
0.22219594 0.53226393 0.32295036 0.30205846 0.118371785 0.286719 0.42438808 -0.04966089
0.62773496 0.35670945 0.28816733 -0.13856965 0.19854143 -0.055454105 0.16075459 0.4462345
0.12522802 0.01029147 -0.39143413 -0.8474948 -0.21665207 0.4912441 -0.6913763 0.18858321
-1.8891084 -0.19492246 0.37041792 -0.49610364 -0.00934278 0.23459817 -1.0011601 0.35678655
-20.569647 -5.259872 0.45490533 0.7289344 0.24875356 0.34343478 0.44828835 0.2517375
-0.08183137 0.59367675 0.33126205 0.38850275 0.30391607 0.43636748 1.0291741 -1.5624751
1.6565242 0.6938917 0.4320469 0.88519514 0.71133757 0.72633165 1.6800821 0.055074725
0.705123 0.7944388 0.19757931 0.46378073 0.3610522 0.70905477 0.9212852 -1.4285171
0.009114542 0.30316854 -0.06402814 0.05527911 0.27063778 -0.07363093 0.15329823 0.4126133
-0.29490122 -0.31885564 0.21543568 -0.1622742 0.61167413 0.36783844 0.8746565 0.09282974
1.2979658 0.24384841 0.048249252 -0.46916395 -0.12331601 0.14713721 -0.09830552 0.032789398
0.11147571 -0.20454273 -0.29308844 -0.12707487 0.13820037 0.05666273 -0.15698318 0.19334419
-3.9553437 -0.4839966 -0.44937557 -0.07382901 -0.21836923 -0.06434518 -0.030396359 -0.49664375
1.6236777 0.12242134 0.0061708814 -0.10240221 0.26840758 -0.696287 -1.5821319 -0.34742683
-0.041526344 -0.010914258 -0.16117522 -0.31805846 -0.38511863 0.43569443 -0.21972953 -0.47604027
0.77996933 -0.09932763 0.22444718 -0.26649573 -0.4665475 -0.8128672 0.22892073 -0.25186053
0.450569 0.12455723 -0.32267675 -0.079396695 -0.09370301 0.55373776 0.6395163 0.08680089
-0.104070716 0.03330523 -0.002271385 0.3005422 -0.5020826 -0.28950486 0.72005683 0.15644117
0.5460702 -0.16929592 -0.06693735 0.04659266 0.059082538 0.26159906 0.25673413 0.32929096
0.46733293 0.28827032 0.33835 0.8130679 0.55946565 0.060890824 -0.12246742 0.20146993
0.052297983 -1.3943124 -1.4899093 -0.2553292 -0.05731535 0.06296354 -0.44427404 0.15678412
-0.22914745 0.4724089 0.46738154 0.050492633 0.11570149 -0.5182036 1.0670141 0.92813337
0.89313245 0.40496397 -0.6944246 -0.8546051 -0.28803724 -0.082914144 -1.3668495 0.30406243
0.8029532 -1.488975 -1.0229621 -0.21575208 -0.8135304 -1.0877215 -1.1857784 0.47656658
0.885076 -0.35487702 -0.5717617 -0.70776933 -0.5131496 0.11976628 -0.38803464 -0.76866174
0.97490346 -0.66266245 -0.876033 -0.36900884 -0.36386988 -0.4441203 -0.0922699 -1.1018196
1.2870172 0.3954531 0.61273885 -0.8746657 -0.79562026 -1.3304324 -1.7759382 -1.3280013
0.054927364 -0.27715173 -0.21695106 -0.08432263 0.2502068 0.16555192 0.17924638 0.3937315

bias f4 [29]
00000000: 2855 d5bd e1c1 6d3e e0ce 7abe f926 1e3e
00000010: 297d 00be f35c 88bd df8c f0bd 06b7 bc3d
00000020: 8e95 df3e ec8f 0ebe eb5b ad3e e4a5 0dbf
00000030: 378a eabe 62a9 873e 7725 3ebf b7b1 a6be
00000040: b4f7 3ebd 91e7 0b3f 6037 a0be 43bf 923e
00000050: 17e3 b4be 2970 fc3e 336c 6d3d 9f7b 123f
00000060: 6880 e3be 1eb7 f13d 30e2 303e 3b1a 533e
00000070: 6e1e 82be
-0.10416633 0.2321849 -0.24492979 0.15444554 -0.12547745 -0.06658354 -0.11745619 0.092145965
0.4366879 -0.1392209 0.3385919 -0.55331254 -0.45808575 0.26496416 -0.74275917 -0.3255746
-0.046622947 0.5465022 -0.31292248 0.28661546 -0.35329506 0.4930432 0.057964515 0.5721988
-0.44433904 0.11802505 0.17273784 0.20615475 -0.2541384
